assets/alex.safetensors (safetensors, 164900 bytes, 5 tensors)

gen_embedding f4 [1, 192]
000000 28 79 73 bf 69 d6 c8 3f 90 53 6a 3d 4a 7a 05 bf
       -0.95106745 1.5690433 0.057208598 -0.52139723
000010 49 d9 a5 bf 98 ee 00 3f 9a 5b 8d be f1 14 5a bf
       -1.2956935 0.50364065 -0.2760895 -0.85188204
000020 fe 48 a0 be b5 7e 04 bf 73 c0 dd bd 57 7f 27 3f
       -0.3130569 -0.5175584 -0.108277224 0.6542868
000030 d5 6c 05 be ea 85 51 bf f2 6e ca be e1 06 b0 be
       -0.13029797 -0.8184496 -0.3953777 -0.34380248
000040 d2 79 b4 3f 86 34 64 3e a7 bb 2c bf 9b d5 87 be
       1.4099677 0.22285661 -0.67473835 -0.26530156
000050 d1 fb dc 3e 72 ce eb 3e 33 a8 ce be 7d be 88 3f
       0.4316087 0.46055943 -0.403627 1.0683132
000060 da e5 a0 be 85 97 0f 3f 0e 7c 03 c0 18 f6 f5 3f
       -0.31425363 0.56090575 -2.0544467 1.9215727
000070 87 f5 fd 3e af d8 93 3f 9d 6c 65 3f 9f 75 8c bf
       0.49601385 1.1550502 0.89618856 -1.0973395
000080 a3 61 6c 3f 81 33 95 3f fe 8a 3e bf a0 0a 48 bf
       0.9233648 1.1656343 -0.74430835 -0.7814121
000090 41 fd 5d bf 6b 61 7c bf 37 e9 51 bf b5 0c 29 3f
       -0.8671456 -0.9858615 -0.8199648 0.66035014
0000a0 e1 76 93 3f 0b 12 c5 bd 8f b5 d4 bf a1 5b 4c bf
       1.1520654 -0.09622582 -1.6617907 -0.79827315
0000b0 78 50 24 bf 1a a4 73 3e c3 b3 38 3f b0 e8 88 be
       -0.64185286 0.23793069 0.72149295 -0.26740026
0000c0 54 dc bb 3f 20 00 df 3e c5 e6 d3 3d e1 12 93 bf
       1.4676614 0.43554783 0.1034675 -1.1490136
0000d0 07 6c 0a 40 4a 5f 60 bf f8 fe 50 bf ca 17 3d bf
       2.1628435 -0.876454 -0.8163905 -0.73864424
0000e0 e6 b7 6f 3e f0 26 e5 3d 12 75 79 bf 45 d0 10 bd
       0.23409995 0.11189067 -0.9744426 -0.03535487
0000f0 86 35 2d be 74 aa 37 3e f9 0c a6 3e 72 46 63 be
       -0.16914949 0.17936116 0.32431772 -0.22194842
000100 6b cc 0a bf 63 b1 5a 3f d9 42 18 3d 4f 73 05 c0
       -0.5421817 0.8542692 0.037173126 -2.0851629
000110 67 4e 75 bd e3 98 dc be d1 78 26 3f 3c 7d 7d 3f
       -0.059889223 -0.43085393 0.650281 0.9901922
000120 e6 f8 94 be 9a c2 18 be bd 4b 9f bf 12 12 95 3d
       -0.29096144 -0.14917985 -1.2444988 0.07278837
000130 ea 16 1e c0 47 7c 81 3f 1b eb 4e 3f 4d 49 3a 3f
       -2.4701486 1.0116051 0.8082749 0.727681
000140 3d 64 54 3d 4f e8 e0 3e 79 5b 3d bf 88 15 c0 be
       0.051853407 0.43927237 -0.739677 -0.37516427
000150 d0 e2 d9 be c6 98 75 be f9 59 f0 3f bc 83 29 bf
       -0.42555857 -0.2398406 1.8777457 -0.66216636
000160 ba 7d 90 be 36 20 e6 be 8d ef 91 3f 43 ee 8e 3f
       -0.28220922 -0.4494645 1.140123 1.1166462
000170 29 3f a0 bf 63 af d9 3e d9 7e 08 be d8 77 8d bf
       -1.2519275 0.42516622 -0.13329639 -1.1052198
000180 06 2f 98 bf 27 d2 a8 3e 33 26 c5 3f 4d c8 7a bf
       -1.188935 0.32972834 1.5402282 -0.97961885
000190 16 8a 5e bd 4b d4 bf be 72 af 7e bb e7 7d 38 3f
       -0.054330908 -0.37466654 -0.0038861898 0.7206711
0001a0 5c a3 6d 3e ba 1a 4d bf 0f fd 85 bf 9f 9b b4 3f
       0.23206848 -0.80118906 -1.0467852 1.4109992
0001b0 09 8b 6c 3e e8 b2 82 3e 7c 6c 9c be c7 af e6 be
       0.23099913 0.2552712 -0.30551517 -0.45055982
0001c0 72 5c 2e bf 25 e4 07 3f 02 c4 81 3f 77 5c 9b be
       -0.6810981 0.53082496 1.0137942 -0.30343983
0001d0 8a 67 14 bf 54 3b d2 be 52 ac d9 bf 07 7e 01 3c
       -0.5797049 -0.4106089 -1.7005713 0.007903582
0001e0 6d 71 48 bf 3d 40 f7 3d f7 4d 4a 3f 87 e8 76 be
       -0.78298074 0.12072799 0.79025215 -0.2411214
0001f0 d2 76 dc bf b8 32 d7 bf f9 dd be be e7 bd 48 bf
       -1.7223761 -1.6812353 -0.37278727 -0.7841477
000200 cf 04 28 bf 2a d0 af bf e2 38 8c 3f 86 a0 d8 be
       -0.6563234 -1.3735402 1.0954859 -0.4230997
000210 96 3e b0 bf 8d a2 00 40 ae 16 9f 3f 6c 5e 8d 3e
       -1.37691 2.0099213 1.2428796 0.276111
000220 58 84 8b 3f 5d df 8b bf c1 1a fe 3e c0 6e af bd
       1.0899763 -1.092754 0.49629787 -0.08566046
000230 79 e8 23 3f 59 31 aa bb 3e df 35 3e e1 85 91 bd
       0.640266 -0.005193871 0.17760941 -0.071056135
000240 1a a5 0b bf 9d bf 00 3e 7d c8 d8 be ed a2 62 bb
       -0.545488 0.12573095 -0.4234046 -0.0034581975
000250 e4 5b 65 bf 79 db a8 bf 30 7f aa bf 17 d2 80 3e
       -0.8959334 -1.3191978 -1.3320065 0.25160286
000260 39 e3 97 3f 51 f1 9e 3f 85 82 5d be 81 67 d4 3e
       1.1866218 1.2417394 -0.2163182 0.41485217
000270 ef 60 6e bf 08 b5 a9 bf 4e d3 08 bf db e2 35 be
       -0.9311666 -1.3258371 -0.53447425 -0.1776232
000280 df 1d 2f bf 77 9d f8 3f 80 b0 9b bf 76 5d 33 bf
       -0.68404955 1.9423054 -1.2163239 -0.70064485
000290 e4 6b 4a 3f 91 a4 b4 3f 5e f0 84 bd e6 9b 15 c0
       0.7907088 1.4112722 -0.06491159 -2.3376403
0002a0 8e 68 ff be 7b 4d a3 be e7 0b 14 bf 5a 29 10 3f
       -0.49884456 -0.3189505 -0.5783066 0.563131
0002b0 8e 8e 8c bf a9 08 58 bf 6c f4 eb bd 28 52 5d bf
       -1.0981004 -0.84388214 -0.11521229 -0.86453485
0002c0 01 fc f8 be b0 0a 41 bf 48 3f 82 bf 55 ea 93 3f
       -0.48629764 -0.7540693 -1.0175562 1.1555887
0002d0 2b a2 9f bd 4d d6 23 be 3c 53 63 be ef 69 3d 3f
       -0.07794603 -0.15999718 -0.2219972 0.73989767
0002e0 27 f7 2b bf f2 05 75 be cd 4f ab 3d cc 1d 87 3f
       -0.67174 -0.23928049 0.0836483 1.0555968
0002f0 9e 76 81 3e aa c3 b5 be f2 b7 a5 3b e2 01 28 bd
       0.2528581 -0.35500842 0.0050573284 -0.04101742

gen_prompt_feat f4 [1, 500, 80]
000000 7d 40 da be dd 23 b1 3d f9 10 be be 14 62 ed be
       -0.42627326 0.086494185 -0.37122324 -0.4636389
000010 08 29 7a bf 83 3b 91 bf fb 8d d0 bf e9 34 0c c0
       -0.9771886 -1.1346287 -1.6293329 -2.1907294
000020 65 5f 66 c0 07 c7 19 c0 6e 0a 03 c0 3f ed 01 c0
       -3.5995724 -2.4027727 -2.0475116 -2.0301054
000030 05 90 2f c0 fa 4a 6b c0 c8 67 62 c0 50 64 6c c0
       -2.7431653 -3.6764512 -3.5375843 -3.6936226
000040 57 ea 5f c0 3d 8a 77 c0 22 a6 92 c0 e4 2d 89 c0
       -3.498678 -3.8678124 -4.58278 -4.286852
000050 5a a6 89 c0 37 9c 94 c0 1f 25 90 c0 18 32 8d c0
       -4.3015566 -4.644069 -4.5045314 -4.412365
000060 f4 66 91 c0 cd 0f 90 c0 b7 04 94 c0 b4 85 9e c0
       -4.5438175 -4.501929 -4.6255755 -4.953821
000070 3e 94 a8 c0 13 87 a8 c0 a9 35 b1 c0 74 b9 91 c0
       -5.268096 -5.2664886 -5.5378003 -4.5538883
000080 5c c2 90 c0 20 16 a8 c0 8a 69 a2 c0 97 0a a9 c0
       -4.5237255 -5.252701 -5.075383 -5.2825427
000090 88 ce a5 c0 7a 90 ac c0 26 d6 ad c0 99 30 b1 c0
       -5.1814613 -5.3926363 -5.432391 -5.5371823
0000a0 12 8a b3 c0 96 1a b8 c0 8a fe bb c0 fd 5f bf c0
       -5.6106043 -5.7532454 -5.8748217 -5.9804673
0000b0 41 56 bf c0 7a f3 c2 c0 05 49 c6 c0 43 db c6 c0
       -5.979279 -6.0922213 -6.1964135 -6.2142653
0000c0 30 4b cb c0 e2 ee ce c0 54 64 d9 c0 48 b3 d1 c0
       -6.352928 -6.4666605 -6.793497 -6.553135
0000d0 fe 19 d4 c0 f3 96 e2 c0 6b 9e e7 c0 26 fe e9 c0
       -6.628173 -7.0809264 -7.238088 -7.312274
0000e0 a9 d0 e0 c0 4f e2 de c0 bb 19 e1 c0 ce aa e8 c0
       -7.025471 -6.9651256 -7.034391 -7.27085
0000f0 8b 09 e3 c0 18 d2 ef c0 f0 89 f0 c0 0d 41 fa c0
       -7.094915 -7.494396 -7.516838 -7.820441
000100 6d 57 00 c1 71 2c 01 c1 c9 84 fa c0 da 35 fd c0
       -8.021344 -8.07335 -7.828709 -7.9128237
000110 98 9e ed c0 f7 73 f0 c0 a5 54 f8 c0 bb d6 f6 c0
       -7.4256096 -7.514156 -7.7603326 -7.713712
000120 0f 4f 02 c1 8f 6a 09 c1 62 ea 06 c1 6b d8 fa c0
       -8.144301 -8.588515 -8.432222 -7.838918
000130 0c 56 05 c1 f5 a6 13 c1 83 9d 14 c1 31 89 1a c1
       -8.333508 -9.228261 -9.288455 -9.658494
000140 6e 36 0f c0 b6 33 a5 bf 8f 82 8b bf e0 b6 ea bf
       -2.2376971 -1.2906406 -1.0899218 -1.8337059
000150 a2 2b 32 c0 05 38 2e c0 2b 08 52 c0 dc f0 45 c0
       -2.7839131 -2.7221692 -3.2817485 -3.092826
000160 4c f6 7e c0 be 7b 6d c0 22 25 72 c0 e4 a4 62 c0
       -3.9837828 -3.7106776 -3.7835164 -3.5413141
000170 d7 53 5b c0 5a 69 88 c0 38 4f 9b c0 68 51 b1 c0
       -3.4269922 -4.2628603 -4.8534203 -5.5411873
000180 08 bf a2 c0 07 83 b0 c0 b7 97 b7 c0 a7 9b b2 c0
       -5.0858192 -5.5159945 -5.73727 -5.5815005
000190 8f 77 be c0 36 5a ce c0 10 64 c2 c0 9e 80 bd c0
       -5.9520946 -6.448512 -6.0747147 -5.9219503
0001a0 81 2a c7 c0 ef 1c c6 c0 2f 4f ca c0 d1 3f cd c0
       -6.2239385 -6.191032 -6.322166 -6.41404
0001b0 82 61 d4 c0 16 44 ce c0 de d7 ce c0 ca aa ba c0
       -6.636903 -6.4458113 -6.463851 -5.8333483
0001c0 ec a6 b9 c0 19 d1 ce c0 0c dc d2 c0 09 4a d2 c0
       -5.801626 -6.4630246 -6.589361 -6.5715375
0001d0 0a 6b d1 c0 10 17 d9 c0 58 4c dc c0 61 9c e3 c0
       -6.5443163 -6.7840652 -6.8843193 -7.112839
0001e0 73 d6 e8 c0 47 87 e3 c0 34 0f de c0 96 7e e9 c0
       -7.276178 -7.1102633 -6.939356 -7.2967024
0001f0 57 85 e9 c0 60 d5 e5 c0 ed 7d dc c0 5e 2f e0 c0
       -7.297527 -7.1822968 -6.890372 -7.005782
000200 b7 cc f1 c0 e6 2a e6 c0 93 53 ed c0 e1 77 df c0
       -7.5562396 -7.1927366 -7.416452 -6.9833837
000210 bd 51 e1 c0 af 5b c6 c0 73 ce cf c0 70 e8 df c0
       -7.041228 -6.198692 -6.4939513 -6.9971237
000220 45 dd d8 c0 9e c5 da c0 d8 51 cb c0 9b 7c d1 c0
       -6.7770104 -6.836623 -6.3537407 -6.5464606
000230 91 c8 d8 c0 6f 8f f2 c0 d0 dd c4 c0 f5 8a c8 c0
       -6.774483 -7.580009 -6.1520767 -6.2669625
000240 84 21 d7 c0 80 ea d9 c0 a6 9e d4 c0 d6 69 d9 c0
       -6.7228413 -6.8098755 -6.6443663 -6.7941694
000250 25 f9 ce c0 29 38 cf c0 e1 ea d0 c0 a1 52 cc c0
       -6.467913 -6.4756055 -6.5286717 -6.3850865
000260 e8 c6 f2 c0 76 4c 03 c1 ee 3b f8 c0 17 c1 01 c1
       -7.5867805 -8.206167 -7.7573156 -8.109641
000270 b9 17 08 c1 a1 77 10 c1 66 cf 0d c1 07 08 14 c1
       -8.505792 -9.029206 -8.863134 -9.25196
000280 72 2e 5a c0 71 2f e6 bf c5 e2 9e bf 5a be 05 c0
       -3.4090848 -1.7983228 -1.2412955 -2.0897431
000290 ee 21 81 c0 2a 44 79 c0 8e 16 60 c0 ff 2b 5d c0
       -4.035392 -3.8947854 -3.5013766 -3.4558103
0002a0 71 50 34 c0 39 3d 24 c0 b4 e4 31 c0 72 a7 5d c0
       -2.8174098 -2.5662367 -2.779584 -3.463345
0002b0 e1 15 70 c0 1f af 82 c0 87 5a 8b c0 68 e9 a0 c0
       -3.7513354 -4.083877 -4.3548007 -5.028492
0002c0 08 48 a9 c0 04 59 a4 c0 0d 44 99 c0 fd 9f 95 c0
       -5.290043 -5.135866 -4.789557 -4.67578
0002d0 72 fb 69 c0 56 47 68 c0 77 dd 7d c0 a1 5c 83 c0
       -3.655972 -3.629354 -3.9666421 -4.1050572
0002e0 7e b7 8e c0 cc 86 8b c0 db bd 86 c0 6b 4b 94 c0
       -4.459899 -4.3602047 -4.2106757 -4.6342063
0002f0 68 7c 70 c0 6d 7b 75 c0 c9 9f 84 c0 56 3a 80 c0
       -3.7575932 -3.8356583 -4.144505 -4.007121
000300 11 a8 90 c0 02 c2 ac c0 3f f1 a2 c0 ec 6b 9f c0
       -4.520516 -5.3986826 -5.091949 -4.981924
000310 2f 3f a1 c0 bc 71 a5 c0 05 61 af c0 fa dd c0 c0
       -5.038963 -5.1701336 -5.480593 -6.0270967
000320 85 b5 c2 c0 1e f2 af c0 e9 4d a6 c0 92 86 a7 c0
       -6.084658 -5.4983053 -5.1970105 -5.235177
000330 dd 89 af c0 ef ba a6 c0 ee 54 9e c0 31 48 a0 c0
       -5.485579 -5.210319 -4.9478674 -5.0088124
000340 03 d4 b5 c0 cd f6 ad c0 81 9f b4 c0 6e a4 a5 c0
       -5.6821303 -5.436377 -5.6444707 -5.176322
000350 88 58 9d c0 d9 b4 85 c0 8d d1 8c c0 2f 8a 8e c0
       -4.917057 -4.178326 -4.40058 -4.454368
000360 6b 41 91 c0 c2 42 8d c0 a7 c2 8b c0 ef 2c 8b c0
       -4.5392356 -4.414399 -4.3675113 -4.349235
000370 43 c6 9a c0 7d a9 a8 c0 46 56 8b c0 ec a8 89 c0
       -4.836702 -5.2706895 -4.3542814 -4.3018703
000380 58 ab 94 c0 f4 ba 91 c0 af b9 8b c0 28 da 95 c0
       -4.645916 -4.5540714 -4.3664165 -4.6828804
000390 b3 f2 8b c0 05 25 89 c0 30 dd 8a c0 25 35 89 c0
       -4.3733764 -4.285769 -4.3395004 -4.2877374
0003a0 54 f6 ae c0 0f f9 c4 c0 93 2f b5 c0 76 9d c2 c0
       -5.4675694 -6.1554027 -5.6620574 -6.0817213
0003b0 6f f9 c2 c0 5e 41 d8 c0 cb be d9 c0 94 d0 e5 c0
       -6.0929484 -6.7579794 -6.80454 -7.181711
0003c0 14 72 0a c0 58 7e 4a bf 07 1e 83 3d b4 8d 35 bf
       -2.1632128 -0.79099035 0.06402212 -0.70919347
0003d0 64 dc e2 bf b4 5a 08 c0 9b 04 1f c0 86 4c 01 c0
       -1.7723508 -2.130536 -2.484656 -2.0202956
0003e0 22 d4 c3 bf 2c f6 12 c0 70 aa 17 c0 f2 9c 35 c0
       -1.5299113 -2.2962751 -2.3697777 -2.8377042
0003f0 cf 29 3a c0 3d 00 35 c0 14 eb 3e c0 47 73 55 c0
       -2.9088018 -2.8281395 -2.983098 -3.335161

gen_prompt_token i4 [1, 250]
000000 ce 06 00 00 76 08 00 00 fc 12 00 00 50 02 00 00
       1742 2166 4860 592
000010 a9 10 00 00 46 13 00 00 1d 09 00 00 c6 09 00 00
       4265 4934 2333 2502
000020 56 0c 00 00 e9 01 00 00 91 02 00 00 9a 13 00 00
       3158 489 657 5018
000030 2a 02 00 00 5c 05 00 00 c2 0a 00 00 fc 12 00 00
       554 1372 2754 4860
000040 7d 0a 00 00 4c 0d 00 00 8d 08 00 00 9c 08 00 00
       2685 3404 2189 2204
000050 6c 0b 00 00 6c 0b 00 00 db 02 00 00 19 01 00 00
       2924 2924 731 281
000060 33 13 00 00 41 12 00 00 0c 16 00 00 03 18 00 00
       4915 4673 5644 6147
000070 e3 07 00 00 ed 18 00 00 4a 00 00 00 51 11 00 00
       2019 6381 74 4433
000080 93 08 00 00 ae 08 00 00 7e 02 00 00 7e 02 00 00
       2195 2222 638 638
000090 51 05 00 00 3b 06 00 00 68 03 00 00 71 03 00 00
       1361 1595 872 881
0000a0 aa 0b 00 00 fd 14 00 00 1b 15 00 00 51 0f 00 00
       2986 5373 5403 3921
0000b0 d3 05 00 00 b2 05 00 00 b2 05 00 00 05 19 00 00
       1491 1458 1458 6405
0000c0 05 19 00 00 9f 07 00 00 9e 0c 00 00 e9 00 00 00
       6405 1951 3230 233
0000d0 b7 0f 00 00 86 19 00 00 5f 10 00 00 af 0b 00 00
       4023 6534 4191 2991
0000e0 c9 08 00 00 12 0b 00 00 dd 14 00 00 c5 16 00 00
       2249 2834 5341 5829
0000f0 ab 16 00 00 af 13 00 00 34 16 00 00 31 16 00 00
       5803 5039 5684 5681
000100 31 16 00 00 3e 15 00 00 35 15 00 00 5c 12 00 00
       5681 5438 5429 4700
000110 71 11 00 00 d1 05 00 00 ba 07 00 00 ef 07 00 00
       4465 1489 1978 2031
000120 22 02 00 00 44 12 00 00 6d 11 00 00 e9 0b 00 00
       546 4676 4461 3049
000130 b7 11 00 00 1f 0a 00 00 70 0a 00 00 7d 09 00 00
       4535 2591 2672 2429
000140 cb 03 00 00 56 0c 00 00 56 0c 00 00 77 03 00 00
       971 3158 3158 887
000150 ab 05 00 00 d2 02 00 00 77 10 00 00 05 19 00 00
       1451 722 4215 6405
000160 40 08 00 00 60 03 00 00 19 11 00 00 50 09 00 00
       2112 864 4377 2384
000170 74 04 00 00 c9 00 00 00 3d 0a 00 00 aa 10 00 00
       1140 201 2621 4266
000180 86 19 00 00 86 19 00 00 22 0e 00 00 3f 02 00 00
       6534 6534 3618 575
000190 db 02 00 00 bd 0b 00 00 f2 09 00 00 dc 13 00 00
       731 3005 2546 5084
0001a0 f0 12 00 00 5b 04 00 00 e3 06 00 00 cb 10 00 00
       4848 1115 1763 4299
0001b0 65 08 00 00 14 11 00 00 3b 0e 00 00 6e 09 00 00
       2149 4372 3643 2414
0001c0 3e 00 00 00 c9 08 00 00 c9 08 00 00 a2 11 00 00
       62 2249 2249 4514
0001d0 cb 08 00 00 36 19 00 00 e5 18 00 00 f1 17 00 00
       2251 6454 6373 6129
0001e0 e4 18 00 00 b6 07 00 00 29 10 00 00 05 19 00 00
       6372 1974 4137 6405
0001f0 b4 18 00 00 c1 17 00 00 29 10 00 00 7a 10 00 00
       6324 6081 4137 4218
000200 de 06 00 00 73 03 00 00 71 00 00 00 f6 11 00 00
       1758 883 113 4598
000210 23 04 00 00 f6 00 00 00 a2 00 00 00 80 0a 00 00
       1059 246 162 2688
000220 7f 16 00 00 1e 0b 00 00 b3 0c 00 00 32 09 00 00
       5759 2846 3251 2354
000230 c0 11 00 00 7d 12 00 00 f1 0e 00 00 29 00 00 00
       4544 4733 3825 41
000240 31 00 00 00 be 06 00 00 57 0e 00 00 0e 07 00 00
       49 1726 3671 1806
000250 18 01 00 00 61 03 00 00 e9 01 00 00 f9 0c 00 00
       280 865 489 3321
000260 03 0f 00 00 cc 14 00 00 c1 0f 00 00 b0 10 00 00
       3843 5324 4033 4272
000270 48 12 00 00 a2 11 00 00 65 09 00 00 5d 0b 00 00
       4680 4514 2405 2909
000280 03 00 00 00 33 09 00 00 22 12 00 00 14 0f 00 00
       3 2355 4642 3860
000290 e9 0f 00 00 55 0a 00 00 81 11 00 00 93 11 00 00
       4073 2645 4481 4499
0002a0 82 00 00 00 ad 0b 00 00 9f 0c 00 00 b4 11 00 00
       130 2989 3231 4532
0002b0 f2 12 00 00 ee 13 00 00 aa 12 00 00 9b 01 00 00
       4850 5102 4778 411
0002c0 05 19 00 00 05 19 00 00 05 19 00 00 b4 18 00 00
       6405 6405 6405 6324
0002d0 b4 18 00 00 b4 18 00 00 b4 18 00 00 b4 18 00 00
       6324 6324 6324 6324
0002e0 29 10 00 00 5c 10 00 00 9f 0c 00 00 a2 11 00 00
       4137 4188 3231 4514
0002f0 c9 08 00 00 3e 00 00 00 3b 00 00 00 3e 00 00 00
       2249 62 59 62
000300 17 09 00 00 c6 08 00 00 e3 06 00 00 9f 07 00 00
       2327 2246 1763 1951
000310 9f 07 00 00 f2 12 00 00 47 00 00 00 9c 0c 00 00
       1951 4850 71 3228
000320 f1 11 00 00 a9 11 00 00 a7 11 00 00 3f 12 00 00
       4593 4521 4519 4671
000330 e8 18 00 00 ca 0b 00 00 4f 0e 00 00 fc 08 00 00
       6376 3018 3663 2300
000340 59 0c 00 00 1e 17 00 00 99 04 00 00 df 02 00 00
       3161 5918 1177 735
000350 39 09 00 00 0c 0d 00 00 b7 08 00 00 93 08 00 00
       2361 3340 2231 2195
000360 d5 05 00 00 c8 06 00 00 6c 0b 00 00 91 08 00 00
       1493 1736 2924 2193
000370 6b 0b 00 00 7f 17 00 00 43 0f 00 00 ae 05 00 00
       2923 6015 3907 1454
000380 af 05 00 00 c0 02 00 00 53 00 00 00 02 00 00 00
       1455 704 83 2
000390 03 02 00 00 74 0a 00 00 ed 0a 00 00 5a 02 00 00
       515 2676 2797 602
0003a0 c3 07 00 00 a7 07 00 00 f9 02 00 00 1a 09 00 00
       1987 1959 761 2330
0003b0 6f 11 00 00 f2 09 00 00 87 0b 00 00 b4 08 00 00
       4463 2546 2951 2228
0003c0 94 0f 00 00 fa 10 00 00 12 11 00 00 47 0c 00 00
       3988 4346 4370 3143
0003d0 a5 11 00 00 1a 09 00 00 ab 08 00 00 ae 08 00 00
       4517 2330 2219 2222
0003e0 19 09 00 00 3b 06 00 00
       2329 1595

t3_cond_prompt_speech_tokens i4 [1, 375]
000000 d7 06 00 00 25 08 00 00 fc 12 00 00 ff 01 00 00
       1751 2085 4860 511
000010 a9 10 00 00 46 13 00 00 1d 09 00 00 c6 09 00 00
       4265 4934 2333 2502
000020 56 0c 00 00 e9 01 00 00 91 02 00 00 9a 13 00 00
       3158 489 657 5018
000030 2a 02 00 00 5c 05 00 00 c2 0a 00 00 fc 12 00 00
       554 1372 2754 4860
000040 7e 0a 00 00 4c 0d 00 00 8d 08 00 00 9c 08 00 00
       2686 3404 2189 2204
000050 6c 0b 00 00 6c 0b 00 00 db 02 00 00 19 01 00 00
       2924 2924 731 281
000060 33 13 00 00 41 12 00 00 0c 16 00 00 03 18 00 00
       4915 4673 5644 6147
000070 e3 07 00 00 ed 18 00 00 4a 00 00 00 51 11 00 00
       2019 6381 74 4433
000080 93 08 00 00 ae 08 00 00 7e 02 00 00 7e 02 00 00
       2195 2222 638 638
000090 51 05 00 00 62 03 00 00 68 03 00 00 71 03 00 00
       1361 866 872 881
0000a0 aa 0b 00 00 fd 14 00 00 00 15 00 00 51 0f 00 00
       2986 5373 5376 3921
0000b0 d3 05 00 00 b2 05 00 00 b2 05 00 00 05 19 00 00
       1491 1458 1458 6405
0000c0 b4 18 00 00 9f 07 00 00 9d 0c 00 00 74 09 00 00
       6324 1951 3229 2420
0000d0 b7 0f 00 00 86 19 00 00 5f 10 00 00 af 0b 00 00
       4023 6534 4191 2991
0000e0 c9 08 00 00 12 0b 00 00 dd 14 00 00 c5 16 00 00
       2249 2834 5341 5829
0000f0 ab 16 00 00 af 13 00 00 34 16 00 00 31 16 00 00
       5803 5039 5684 5681
000100 31 16 00 00 3e 15 00 00 35 15 00 00 5c 12 00 00
       5681 5438 5429 4700
000110 71 11 00 00 f8 02 00 00 ba 07 00 00 ef 07 00 00
       4465 760 1978 2031
000120 22 02 00 00 44 12 00 00 6d 11 00 00 74 14 00 00
       546 4676 4461 5236
000130 b7 11 00 00 1f 0a 00 00 70 0a 00 00 7d 09 00 00
       4535 2591 2672 2429
000140 7d 09 00 00 56 0c 00 00 56 0c 00 00 77 03 00 00
       2429 3158 3158 887
000150 ab 05 00 00 d2 02 00 00 77 10 00 00 05 19 00 00
       1451 722 4215 6405
000160 40 08 00 00 60 03 00 00 19 11 00 00 50 09 00 00
       2112 864 4377 2384
000170 74 04 00 00 c9 00 00 00 3d 0a 00 00 aa 10 00 00
       1140 201 2621 4266
000180 86 19 00 00 86 19 00 00 22 0e 00 00 3f 02 00 00
       6534 6534 3618 575
000190 66 0b 00 00 bd 0b 00 00 f2 09 00 00 dc 13 00 00
       2918 3005 2546 5084
0001a0 f0 12 00 00 5b 04 00 00 d6 07 00 00 40 08 00 00
       4848 1115 2006 2112
0001b0 65 08 00 00 14 11 00 00 3b 0e 00 00 6e 09 00 00
       2149 4372 3643 2414
0001c0 1a 09 00 00 c9 08 00 00 54 11 00 00 a2 11 00 00
       2330 2249 4436 4514
0001d0 cb 08 00 00 36 19 00 00 e5 18 00 00 f1 17 00 00
       2251 6454 6373 6129
0001e0 e4 18 00 00 b6 07 00 00 29 10 00 00 05 19 00 00
       6372 1974 4137 6405
0001f0 b4 18 00 00 c1 17 00 00 29 10 00 00 ef 07 00 00
       6324 6081 4137 2031
000200 05 04 00 00 fe 0b 00 00 56 00 00 00 f6 11 00 00
       1029 3070 86 4598
000210 23 04 00 00 f6 00 00 00 a2 00 00 00 80 0a 00 00
       1059 246 162 2688
000220 7f 16 00 00 1e 0b 00 00 b3 0c 00 00 0b 0c 00 00
       5759 2846 3251 3083
000230 c0 11 00 00 7d 12 00 00 f1 0e 00 00 b4 08 00 00
       4544 4733 3825 2228
000240 17 00 00 00 be 06 00 00 57 0e 00 00 0e 07 00 00
       23 1726 3671 1806
000250 25 00 00 00 61 03 00 00 e9 01 00 00 f9 0c 00 00
       37 865 489 3321
000260 03 0f 00 00 cc 14 00 00 ca 0f 00 00 b0 10 00 00
       3843 5324 4042 4272
000270 48 12 00 00 f3 11 00 00 4a 09 00 00 5d 0b 00 00
       4680 4595 2378 2909
000280 03 00 00 00 33 09 00 00 73 12 00 00 f9 0e 00 00
       3 2355 4723 3833
000290 e9 0f 00 00 55 0a 00 00 81 11 00 00 93 11 00 00
       4073 2645 4481 4499
0002a0 82 00 00 00 ad 0b 00 00 9f 0c 00 00 b4 11 00 00
       130 2989 3231 4532
0002b0 f2 12 00 00 ee 13 00 00 aa 12 00 00 9b 01 00 00
       4850 5102 4778 411
0002c0 05 19 00 00 05 19 00 00 05 19 00 00 05 19 00 00
       6405 6405 6405 6405
0002d0 b4 18 00 00 b4 18 00 00 b4 18 00 00 29 10 00 00
       6324 6324 6324 4137
0002e0 29 10 00 00 5c 10 00 00 9f 0c 00 00 a2 11 00 00
       4137 4188 3231 4514
0002f0 c9 08 00 00 3e 00 00 00 20 00 00 00 23 00 00 00
       2249 62 32 35
000300 17 09 00 00 c6 08 00 00 e3 06 00 00 9f 07 00 00
       2327 2246 1763 1951
000310 ba 07 00 00 f2 12 00 00 47 00 00 00 9c 0c 00 00
       1978 4850 71 3228
000320 f1 11 00 00 a9 11 00 00 a7 11 00 00 3f 12 00 00
       4593 4521 4519 4671
000330 0f 16 00 00 ca 0b 00 00 da 16 00 00 fc 08 00 00
       5647 3018 5850 2300
000340 e4 14 00 00 1e 17 00 00 99 04 00 00 df 02 00 00
       5348 5918 1177 735
000350 39 09 00 00 0c 0d 00 00 b7 08 00 00 93 08 00 00
       2361 3340 2231 2195
000360 d5 05 00 00 c8 06 00 00 6c 0b 00 00 91 08 00 00
       1493 1736 2924 2193
000370 6b 0b 00 00 7f 17 00 00 43 0f 00 00 ae 05 00 00
       2923 6015 3907 1454
000380 af 05 00 00 c0 02 00 00 53 00 00 00 02 00 00 00
       1455 704 83 2
000390 03 02 00 00 74 0a 00 00 ed 0a 00 00 5a 02 00 00
       515 2676 2797 602
0003a0 de 07 00 00 c2 07 00 00 f9 02 00 00 1a 09 00 00
       2014 1986 761 2330
0003b0 6f 11 00 00 f2 09 00 00 87 0b 00 00 b4 08 00 00
       4463 2546 2951 2228
0003c0 43 0f 00 00 a9 10 00 00 12 11 00 00 47 0c 00 00
       3907 4265 4370 3143
0003d0 a5 11 00 00 1a 09 00 00 36 11 00 00 ae 08 00 00
       4517 2330 4406 2222
0003e0 fe 08 00 00 6e 03 00 00 3a 04 00 00 e8 01 00 00
       2302 878 1082 488
0003f0 c8 02 00 00 04 08 00 00 78 18 00 00 ac 0e 00 00
       712 2052 6264 3756

t3_speaker_emb f4 [1, 256]
000000 e5 de 84 3b 00 00 00 00 15 41 59 3e 17 b2 52 3d
       0.0040548914 0.0 0.21216233 0.05143937
000010 00 00 00 00 5e 88 3e 3d 65 8f 5a 3b 2a fe 88 3c
       0.0 0.04651677 0.003334963 0.016722757
000020 fa 71 27 3e 47 8d da 3c f8 40 08 3e 00 8e 08 3e
       0.16352072 0.026678694 0.13306034 0.13335419
000030 41 8c 80 3c 00 00 00 00 0f 19 d1 3c 00 00 00 00
       0.015691878 0.0 0.025524644 0.0
000040 de 5d a1 3d 00 00 00 00 d1 ac da 3c 36 bb 44 3d
       0.07879232 0.0 0.026693733 0.0480301
000050 13 dd a9 3d 07 5b 47 3d 00 00 00 00 f3 02 97 3d
       0.0829412 0.048670795 0.0 0.073736094
000060 00 00 00 00 76 3c dd 3d 00 00 00 00 3c 8d 99 39
       0.0 0.10802548 0.0 0.00029287662
000070 00 00 00 00 00 00 00 00 44 1b 0f 3e f4 59 15 3d
       0.0 0.0 0.13975245 0.03646274
000080 00 00 00 00 00 00 00 00 07 06 65 3b 5d 94 9c 3d
       0.0 0.0 0.003494622 0.076454856
000090 32 a5 9a 3d ab e0 7d 3d ae dd fa 3b 30 a8 b9 38
       0.0755104 0.06198184 0.007655821 8.852815e-05
0000a0 00 00 00 00 72 01 b8 3b 01 63 69 3d 99 aa ab 3b
       0.0 0.0056154067 0.056979183 0.0052388427
0000b0 f6 01 92 3d bd cf 91 3c 01 6c e9 3b 7a d7 d3 3d
       0.0712928 0.017799253 0.007123471 0.10343833
0000c0 d8 99 44 3d 64 8f 06 3c 00 00 00 00 10 87 83 3d
       0.04799828 0.008212898 0.0 0.064222455
0000d0 00 00 00 00 00 00 00 00 00 00 00 00 0c d2 80 3b
       0.0 0.0 0.0 0.0039312895
0000e0 43 1f 0e 3c 4b dd 3d 3e 02 31 f4 3c fb 1d cf 3b
       0.008674446 0.18541448 0.029808525 0.0063207126
0000f0 3a 75 a4 3b 00 00 00 00 cb c6 ac 3d c1 6b e4 3c
       0.0050188573 0.0 0.08436354 0.027883412
000100 84 df f5 3b 1c 6d dd 3b a5 35 d1 3d ee 03 05 3e
       0.007503452 0.0067573916 0.1021531 0.1298978
000110 00 00 00 00 00 00 00 00 3e 32 37 3c 9c 34 0b 3e
       0.0 0.0 0.011181412 0.13594288
000120 00 00 00 00 68 c6 51 3c 9b f0 0a 3e 00 00 00 00
       0.0 0.012803651 0.13568346 0.0
000130 00 00 00 00 28 c9 1e 3d 97 1c bb 3d 1c d7 fb 3d
       0.0 0.038766056 0.091363125 0.12296888
000140 00 00 00 00 00 00 00 00 b8 09 17 3e 68 0c 0e 3e
       0.0 0.0 0.14749801 0.1387192
000150 00 00 00 00 00 00 00 00 00 00 00 00 d9 a4 49 3d
       0.0 0.0 0.0 0.049229477
000160 00 00 00 00 f3 60 c5 3d 10 dd 09 3d 00 00 00 00
       0.0 0.09637632 0.033658087 0.0
000170 00 00 00 00 00 00 00 00 68 cb 16 3c 22 2b 8f 3c
       0.0 0.0 0.009203769 0.017476622
000180 88 2f 65 3d 8c 1b 71 3d 00 00 00 00 00 00 00 00
       0.055953532 0.05886416 0.0 0.0
000190 a2 bf 61 3b 00 00 00 00 09 16 b8 3c 20 52 4e 3d
       0.0034446497 0.0 0.022471445 0.05037129
0001a0 33 65 fd 3c 01 0f 9b 3d e8 66 b5 3d b4 e7 a9 3d
       0.030932045 0.07571221 0.088575184 0.08296147
0001b0 00 00 00 00 51 f8 13 3e 00 00 00 00 91 16 17 3c
       0.0 0.14450194 0.0 0.009221689
0001c0 00 00 00 00 da db 1a 3e b0 04 3f 3c 00 00 00 00
       0.0 0.15122929 0.011658832 0.0
0001d0 41 7e d8 3d f7 b0 5b 3d 3c 74 ed 3d 22 2b 29 3a
       0.10570956 0.053635564 0.115944356 0.00064532657
0001e0 20 ab 5a 3c dc 50 a2 3d 0e 6a 92 3d 00 00 00 00
       0.013346463 0.07925579 0.071491346 0.0
0001f0 09 6a 9c 3d b7 bc a2 3d ea 71 d5 3a 79 fa 12 3c
       0.07637412 0.07946151 0.0016284559 0.00897085
000200 e4 40 ee 3c 00 00 00 00 00 00 00 00 00 00 00 00
       0.029083677 0.0 0.0 0.0
000210 4b fe dc 3d 57 0b 3c 3e 47 70 97 3d 00 dd 4f 3d
       0.1079069 0.18363701 0.07394462 0.05074787
000220 ad 83 d1 3d 00 00 00 00 58 c7 88 3d e6 16 d6 3b
       0.10230193 0.0 0.06678647 0.0065334914
000230 e6 b6 3d 3c 3f 6e bb 3a 91 92 87 3d e1 31 3b 3e
       0.011579251 0.0014299824 0.06619752 0.18280746
000240 ce 48 ca 3d 72 0f 15 3d 6b af 4b 3d 00 00 00 00
       0.09877168 0.036391683 0.04972784 0.0
000250 cf 9d df 3d d3 15 4b 3d 96 4a 35 3d e3 03 8a 3d
       0.109187715 0.04958136 0.044260584 0.067390226
000260 00 00 00 00 e5 1f a5 3c 15 b8 0a 3d 9a 77 fe 3d
       0.0 0.02015681 0.03386696 0.12425156
000270 00 00 00 00 00 00 00 00 2e 26 e0 3d b4 b2 2e 3d
       0.0 0.0 0.10944782 0.042650893
000280 00 00 00 00 00 00 00 00 48 4f ed 3c 80 e1 21 3b
       0.0 0.0 0.028968468 0.002470106
000290 aa 64 8b 3b d3 c6 b8 3d ab 77 24 3d 00 00 00 00
       0.0042539435 0.09022298 0.040153187 0.0
0002a0 2c 4e ec 3d 11 20 e5 3d 00 00 00 00 00 00 00 00
       0.115383476 0.11187757 0.0 0.0
0002b0 bb 26 cf 3c 15 eb 1a 3d 00 00 00 00 04 17 fb 3d
       0.025287023 0.037821848 0.0 0.12260249
0002c0 92 ab 38 3d 58 ae e3 3d 99 3c 34 3c 7c b1 ee 3a
       0.045085497 0.11117238 0.011000776 0.0018210853
0002d0 26 e8 2c 3c 72 1c 0b 3d d6 4b 87 3c 52 a5 cf 3d
       0.010553395 0.033962674 0.016515654 0.10138954
0002e0 ab 75 d8 3d 00 00 00 00 2f b7 e6 3c f0 6c ff 3d
       0.105693184 0.0 0.02816352 0.1247195
0002f0 00 00 00 00 00 00 00 00 00 00 00 00 33 45 03 3d
       0.0 0.0 0.0 0.032048415
000300 6f 3f 14 3c 5e f3 67 3b 00 00 00 00 4f 1f 03 3d
       0.009048327 0.003539286 0.0 0.03201228
000310 31 88 19 3d 46 e0 38 3e a4 54 9c 3c fa fd f4 3d
       0.037483398 0.18054304 0.019083329 0.11962505
000320 36 57 25 3c c1 35 8a 3d 00 00 00 00 00 00 00 00
       0.0100915935 0.06748534 0.0 0.0
000330 00 00 00 00 ae d1 1c 3c 00 00 00 00 78 8a 11 3e
       0.0 0.009571476 0.0 0.14212978
000340 53 56 9f 3d 73 bf 1f 3d 9a 65 75 3c 00 00 00 00
       0.07780137 0.03900094 0.014977837 0.0
000350 2e ae bc 3d 85 8e c0 3c 00 00 00 00 e7 f4 ec 3c
       0.0921291 0.023505459 0.0 0.028925372
000360 97 c8 fe 3a 0b 39 bb 3c 83 68 c5 3d 00 00 00 00
       0.0019438443 0.022854349 0.09639075 0.0
000370 49 7b ad 3c 6e 20 a1 3c 00 00 00 00 00 00 00 00
       0.021176951 0.019668784 0.0 0.0
000380 00 00 00 00 2d 0b 50 3d 9a f3 41 3c ff c8 d1 3c
       0.0 0.050791908 0.011837864 0.025608538
000390 00 00 00 00 00 00 00 00 7e e9 42 3c 00 00 00 00
       0.0 0.0 0.011896489 0.0
0003a0 b6 07 05 3e 00 00 00 00 00 00 00 00 5a e5 0a 3d
       0.12991223 0.0 0.0 0.033910133
0003b0 f0 60 8f 3d 75 e4 ac 3d 04 6b be 3d af 7c fa 3c
       0.07000911 0.08442012 0.09297755 0.030577032
0003c0 f0 88 de 3c 00 00 00 00 05 33 14 3c d1 16 14 3d
       0.027164906 0.0 0.009045367 0.036154572
0003d0 00 00 00 00 e3 4c 78 3c ba 09 6c 3c 7c b1 d4 3a
       0.0 0.01515505 0.014406616 0.0016227211
0003e0 0c b9 37 3e 69 f4 74 3c 00 00 00 00 eb 08 a8 3d
       0.17941684 0.01495085 0.0 0.08204826
0003f0 fa 4d 9d 3d 00 00 00 00 b1 14 17 3c 00 00 00 00
       0.076808885 0.0 0.009221242 0.0
