assets/c3po.safetensors (safetensors, 88897 bytes, 5 tensors)

gen_embedding f4 [1, 192]
-2.0925753 0.43342835 0.16326337 -1.0360248 1.0177726 0.27568188 -0.7202006 0.36463296
0.24457973 0.82370806 -0.6786739 -1.1826239 -0.22702783 -0.29753208 0.47394577 0.15977436
2.1613245 1.0307053 -0.98498267 0.95940536 0.33700204 -0.44450006 -0.27879527 -1.6042368
0.21310325 -0.010893631 0.59677124 1.3433948 -1.5705088 0.7584544 -1.3371049 -0.61596054
-0.52911425 0.1480055 0.6369871 -0.22803684 -0.46501774 -2.149491 -0.07899092 -0.059380166
-0.08669243 -0.08558381 -0.030478781 -0.48486018 1.6172366 -0.75871813 0.7132088 -0.0010112482
1.37431 -0.77898705 0.9586 -1.7476318 1.3470838 0.3101451 -0.61138606 0.05618245
0.27940026 0.05967636 -1.6485497 1.3823044 -0.67894095 0.73266697 0.8590383 0.39560923
-0.48442093 -0.17723063 -2.0180333 0.15522708 0.544539 -0.71172 0.6951439 2.197915
0.14599599 0.39465532 -0.79517174 -2.3003316 -0.5105978 -0.90619195 1.6399678 0.005042382
0.77678335 -0.7675049 0.8304912 -0.31195965 -0.5102826 -0.38874865 0.12351761 -1.3629172
0.74477243 -0.7773859 0.50616235 1.9221349 0.37504557 0.6552601 0.49280274 0.6472647
0.53766114 -0.078001216 0.27306038 -0.073557384 0.31364137 -0.08097251 1.5632914 2.4390416
-0.22113091 -0.53380775 0.35760775 -0.058366336 0.67824835 -1.2266288 -1.584221 0.19574007
-0.5129407 -0.29999235 -0.05288977 -0.5022558 -0.37875652 -2.219198 -0.5088807 0.17863114
0.062471613 -0.98899966 1.506011 -0.6161816 -0.33200988 -1.433853 -1.9783705 -1.385975
-1.0724366 -0.49593836 -1.1157277 1.9351373 -1.710933 0.15251745 -0.3955753 0.49489644
1.0184243 -1.7080016 0.45046657 -1.3279908 2.236824 -0.53239584 0.6157755 -0.3843976
0.5244767 0.5777511 -0.09923979 -0.09467291 -0.9616636 -2.1188338 -2.0145779 0.4676423
1.2876296 -0.07884501 -0.41765288 -0.2068674 -1.4831407 -1.5785006 1.7104878 0.03334669
-0.060464136 1.3325361 -0.015856342 -1.7265998 0.033224076 -0.25183567 0.5914377 -1.0596061
-0.2584663 0.045802414 0.70478505 0.2917656 0.25852817 0.427098 -0.26175302 -0.10935094
1.5530659 -0.14184792 0.09554913 1.3585025 -1.3257035 -2.229272 -1.5608234 0.09962861
-0.2411496 -0.017915087 0.20656486 -0.48820007 0.47255522 0.60718894 -0.8589216 -0.74889624
00000000: c1ec 05c0 52ea dd3e 832e 273e 769c 84bf
00000010: 5f46 823f 2d26 8d3e 115f 38bf 2cb1 ba3e
00000020: 1c73 7a3e 88de 523f 93bd 2dbf 3860 97bf
00000030: fc79 68be 2056 98be 05a9 f23e e49b 233e
00000040: 2453 0a40 27ee 833f d327 7cbf 979b 753f
00000050: 888b ac3e 8395 e3be 41be 8ebe a257 cdbf
00000060: bd37 5a3e 337b 32bc 00c6 183f 5cf4 ab3f
00000070: 6f06 c9bf 112a 423f 4126 abbf 97af 1dbf
00000080: 0874 07bf c18e 173e 9611 233f 7d82 69be
00000090: ce16 eebe 4391 09c0 fec5 a1bd 9e38 73bd
000000a0: cd8b b1bd 9146 afbd a3ae f9bc 983f f8be
000000b0: 9c01 cf3f 5a3b 42bf da94 363f dc8b 84ba
000000c0: 64e9 af3f b26b 47bf cf66 753f 66b2 dfbf
000000d0: 3e6d ac3f 57cb 9e3e cc83 1cbf 921f 663d
000000e0: 8d0d 8f3e 336f 743d ad03 d3bf 5aef b03f
000000f0: 13cf 2dbf 1090 3b3f efe9 5b3f 4b8d ca3e
00000100: 0506 f8be f27b 35be 7527 01c0 d9f3 1e3e
00000110: e866 0b3f 4833 36bf f3f4 313f a4aa 0c40
00000120: f97f 153e 4310 ca3e 6090 4bbf a238 13c0
00000130: 8ab6 02bf 32fc 67bf 77ea d13f 913a a53b
00000140: 46db 463f 337b 44bf 129b 543f 2db9 9fbe
00000150: e1a1 02bf 100a c7be cdf6 fc3d 1274 aebf
00000160: 68a9 3e3f c302 47bf db93 013f 8408 f63f
00000170: f905 c03e 20bf 273f a450 fc3e 24b3 253f
00000180: 29a4 093f 1abf 9fbd 92ce 8b3e 41a5 96bd
00000190: 9a95 a03e ead4 a5bd ef19 c83f 4219 1c40
000001a0: 2470 62be a0a7 08bf 5d18 b73e 8a11 6fbd
000001b0: afa1 2d3f 2c02 9dbf c1c7 cabf 1670 483e
000001c0: 1550 03bf 9998 99be f2a2 58bd d693 00bf
000001d0: 60ec c1be 5707 0ec0 0146 02bf 15eb 363e
000001e0: 3ce2 7f3d 152f 7dbf f8c4 c03f 14be 1dbf
000001f0: 33fd a9be 7f88 b7bf 3f3b fdbf a167 b1bf
00000200: 9a45 89bf a2eb fdbe 2ad0 8ebf 94b2 f73f
00000210: daff dabf 892d 1c3e d988 cabe 1163 fd3e
00000220: ba5b 823f cc9f dabf 8ea3 e63e 9afb a9bf
00000230: 2028 0f40 184b 08bf 77a3 1d3f c3cf c4be
00000240: 1b44 063f 7fe7 133f 3b3e cbbd dfe3 c1bd
00000250: 962f 76bf f99a 07c0 d8ee 00c0 d06e ef3e
00000260: 0cd1 a43f 7e79 a1bd 99d6 d5be 0cd5 53be
00000270: 8ed7 bdbf 4f0c cabf 44f1 da3f 8a96 083d
00000280: 3ea9 77bd 8b90 aa3f 29e5 81bc 3901 ddbf
00000290: f815 083d 9bf0 80be 7668 173f 2ca1 87bf
000002a0: b255 84be 509b 3b3d cb6c 343f 4d62 953e
000002b0: ce5d 843e 97ac da3e 7e04 86be 63f3 dfbd
000002c0: ddca c63f 9540 11be 43af c33d 69e3 ad3f
000002d0: a7b0 a9bf 64ac 0ec0 10c9 c7bf 160a cc3d
000002e0: ecef 76be a9c2 92bc bd85 533e 5cf5 f9be
000002f0: c2f2 f13e bc70 1b3f 49e2 5bbf aab7 3fbf

gen_prompt_feat f4 [1, 267, 80]
-7.168837 -6.5198407 -6.5597396 -6.2769017 -6.8037434 -8.194537 -6.7860827 -6.056512
-5.8027487 -6.7298994 -5.8059416 -5.5166464 -5.5219655 -5.9297786 -6.170152 -6.1555824
-6.15158 -5.9279265 -5.814318 -5.7141967 -5.6026044 -5.7815275 -6.5082326 -6.846108
-6.4680877 -6.4044266 -6.3067145 -6.2262616 -6.448364 -6.920643 -6.703668 -6.3628
-6.108796 -6.106063 -6.6237106 -7.9249234 -7.501764 -6.8782706 -7.8268833 -7.6553955
-7.8203206 -7.8458066 -8.311183 -7.4939055 -7.372393 -8.096015 -8.224753 -8.208662
-8.580357 -9.050352 -8.153507 -8.972292 -9.185402 -7.9587755 -7.879532 -8.309182
-8.295211 -8.31092 -8.587553 -8.095599 -8.995072 -9.135161 -8.729957 -8.892751
-8.985317 -8.627857 -8.634706 -8.6993265 -8.329049 -8.705639 -9.004729 -8.963862
-8.92126 -9.121267 -8.967437 -8.916165 -9.028771 -9.028797 -8.598387 -9.158519
-6.859419 -6.2452884 -6.689048 -6.5451803 -7.161394 -7.737922 -7.275994 -6.8245077
-6.600917 -7.536684 -6.5555673 -6.171631 -6.1842866 -6.5143814 -6.613879 -6.446614
-6.562312 -6.3228545 -6.30235 -6.3058248 -6.316554 -6.4656315 -6.9345984 -7.0268903
-7.0673285 -6.85355 -6.7962065 -6.8877425 -7.1063023 -7.6506157 -7.2832685 -6.8493867
-6.702823 -6.785398 -7.3484836 -8.51555 -8.06799 -7.4100347 -8.129247 -8.003996
-8.639665 -8.5086775 -9.101566 -8.123926 -7.991324 -8.529311 -8.713536 -8.872177
-8.792497 -9.058536 -8.609571 -9.329897 -9.331823 -8.325354 -8.319277 -8.403691
-8.25464 -8.521298 -8.947603 -8.536465 -9.260369 -9.322193 -8.861546 -9.266833
-9.083468 -8.880808 -8.882754 -9.001182 -8.633761 -9.0496 -9.205216 -9.303545
-9.334881 -9.31678 -9.283399 -9.258761 -9.220453 -9.178079 -8.934995 -9.279709
-7.617914 -7.2940993 -7.1834908 -7.018568 -5.9801555 -5.6630797 -6.2364435 -6.1375604
-5.9259324 -6.285587 -6.537057 -6.749491 -6.7624764 -6.2469172 -6.1905975 -6.2933598
-6.368655 -6.4155574 -6.314148 -6.112081 -5.8357472 -5.7406754 -5.9341826 -6.143225
-6.5195975 -6.930423 -7.342522 -7.734597 -7.8991265 -7.5917606 -7.4939237 -7.4560847
-7.5398936 -7.471769 -7.284756 -7.0621457 -6.6639333 -6.5088224 -6.6852026 -7.147073
-7.0679064 -6.959669 -7.1097546 -7.443658 -7.9485264 -8.782293 -8.314796 -7.855234
-7.94198 -8.152611 -7.852787 -8.005368 -7.9609103 -8.215242 -9.179028 -9.374491
-9.404434 -9.777794 -9.93729 -9.385087 -8.626875 -8.194176 -8.410794 -8.931835
-9.591758 -9.948234 -9.9411955 -9.615346 -9.125675 -9.542863 -9.557139 -9.603667
-9.915904 -10.321302 -10.392268 -10.48673 -10.388347 -10.40328 -10.2735405 -10.320389
-5.9211793 -5.505045 -4.6483307 -3.7311907 -2.3244746 -2.1256635 -3.1633303 -4.1468906
-3.447462 -3.1860645 -3.8319564 -4.0666966 -4.006467 -2.711198 -1.5594229 -1.3263648
00000000: 1d67 e5c0 89a2 d0c0 63e9 d1c0 61dc c8c0
00000010: 44b8 d9c0 d31c 03c1 9727 d9c0 f2ce c1c0
00000020: 1eb0 b9c0 565b d7c0 46ca b9c0 5e88 b0c0
00000030: f1b3 b0c0 bfc0 bdc0 e371 c5c0 88fa c4c0
00000040: bed9 c4c0 93b1 bdc0 e50e bac0 b3da b6c0
00000050: 8948 b3c0 4602 b9c0 7143 d0c0 5113 dbc0
00000060: 93fa cec0 10f1 ccc0 9bd0 c9c0 893d c7c0
00000070: ff58 cec0 e875 ddc0 7384 d6c0 0f9c cbc0
00000080: 427b c3c0 de64 c3c0 70f5 d3c0 f998 fdc0
00000090: 730e f0c0 cb1a dcc0 d475 fac0 00f9 f4c0
000000a0: 1140 fac0 d910 fbc0 9bfa 04c1 13ce efc0
000000b0: a5ea ebc0 4789 01c1 9798 03c1 ae56 03c1
000000c0: 2449 09c1 3ece 10c1 c474 02c1 828e 0fc1
000000d0: 68f7 12c1 4aae fec0 2025 fcc0 69f2 04c1
000000e0: 2fb9 04c1 87f9 04c1 9e66 09c1 9387 01c1
000000f0: d1eb 0fc1 9f29 12c1 e7ad 0bc1 b548 0ec1
00000100: dcc3 0fc1 b40b 0ac1 c127 0ac1 7130 0bc1
00000110: c943 05c1 4c4a 0bc1 5f13 10c1 fb6b 0fc1
00000120: 7bbd 0ec1 b6f0 11c1 9f7a 0fc1 9da8 0ec1
00000130: d975 10c1 f475 10c1 fe92 09c1 4b89 12c1
00000140: 5c80 dbc0 67d9 c7c0 ae0c d6c0 1e72 d1c0
00000150: 242a e5c0 0f9d f7c0 f1d4 e8c0 5e62 dac0
00000160: b63a d3c0 842c f1c0 35c7 d1c0 007e c5c0
00000170: ade5 c5c0 d075 d0c0 e6a4 d3c0 a94a cec0
00000180: 76fe d1c0 d354 cac0 daac c9c0 51c9 c9c0
00000190: 3621 cac0 74e6 cec0 3be8 ddc0 49dc e0c0
000001a0: 8e27 e2c0 4850 dbc0 867a d9c0 6368 dcc0
000001b0: d466 e3c0 d8d1 f4c0 8910 e9c0 2d2e dbc0
000001c0: 877d d6c0 fb21 d9c0 c726 ebc0 b13f 08c1
000001d0: 7d16 01c1 011f edc0 6511 02c1 5e10 00c1
000001e0: 113c 0ac1 8b23 08c1 04a0 11c1 9afb 01c1
000001f0: edb8 ffc0 0f78 08c1 a56a 0bc1 70f4 0dc1
00000200: 11ae 0cc1 c3ef 10c1 cec0 09c1 4247 15c1
00000210: 264f 15c1 a634 05c1 c21b 05c1 8575 06c1
00000220: 0113 04c1 3d57 08c1 6229 0fc1 5c95 08c1
00000230: 792a 14c1 b427 15c1 e4c8 0dc1 f344 14c1
00000240: e355 11c1 ca17 0ec1 c31f 0ec1 d704 10c1
00000250: e323 0ac1 29cb 10c1 9148 13c1 52db 14c1
00000260: ac5b 15c1 8811 15c1 cd88 14c1 e323 14c1
00000270: fa86 13c1 69d9 12c1 bdf5 0ec1 b079 14c1
00000280: f4c5 f3c0 4369 e9c0 28df e5c0 1c98 e0c0
00000290: 6f5d bfc0 f337 b5c0 f290 c7c0 e566 c4c0
000002a0: 3da1 bdc0 8723 c9c0 922f d1c0 d5fb d7c0
000002b0: 3566 d8c0 bfe6 c7c0 6019 c6c0 3463 c9c0
000002c0: 06cc cbc0 3f4c cdc0 800d cac0 2b96 c3c0
000002d0: 71be bac0 9db3 b7c0 d3e4 bdc0 4d95 c4c0
000002e0: 8ba0 d0c0 06c6 ddc0 f1f5 eac0 d281 f7c0
000002f0: a5c5 fcc0 b4ef f2c0 39ce efc0 3f98 eec0
00000300: cf46 f1c0 bb18 efc0 b91c e9c0 19fd e1c0
00000310: f13e d5c0 4648 d0c0 2eed d5c0 d2b4 e4c0
00000320: 4a2c e2c0 9cb5 dec0 1c83 e3c0 7232 eec0
00000330: 545a fec0 4684 0cc1 6809 05c1 145e fbc0
00000340: b324 fec0 1871 02c1 084a fbc0 fd15 00c1
00000350: c7bf fec0 a271 03c1 4cdd 12c1 eafd 15c1
00000360: 9078 16c1 d871 1cc1 24ff 1ec1 5129 16c1
00000370: ae07 0ac1 581b 03c1 9d92 06c1 cce8 0ec1
00000380: d777 19c1 f72b 1fc1 230f 1fc1 75d8 19c1
00000390: c402 12c1 91af 18c1 0bea 18c1 9fa8 19c1
000003a0: 8ba7 1ec1 0e24 25c1 bb46 26c1 a5c9 27c1
000003b0: ab36 26c1 d673 26c1 6c60 24c1 5020 25c1
000003c0: 4d7a bdc0 5429 b0c0 20bf 94c0 d4cb 6ec0
000003d0: 31c4 14c0 df0a 08c0 0174 4ac0 54b3 84c0
000003e0: 38a3 5cc0 7be8 4bc0 c63e 75c0 6122 82c0
000003f0: fa34 80c0 4584 2dc0 2b9b c7bf 52c6 a9bf

gen_prompt_token i4 [1, 133]
3926 4218 5834 2353 1987 2050 3913 3993
4501 4564 4844 5826 4233 6259 2888 2906
683 1604 56 1029 2990 4442 5644 37
1489 4844 5095 1437 5313 5020 2064 692
5672 4474 1806 2352 2225 2934 3751 73
2381 5342 2160 3401 2726 2058 2733 4515
4859 2160 712 1649 4123 1685 314 3679
6048 5322 3027 6162 6324 6324 6324 6324
4137 1959 3401 2900 5064 6429 6432 692
5057 3349 3219 6051 1104 1481 767 789
2256 2834 2490 4457 4645 3423 3911 2175
4041 1289 5591 5026 2675 5643 546 2589
1928 1559 5412 1397 2786 613 4072 2124
4567 4830 2725 1052 56 3666 1806 1053
259 5021 5169 4915 4451 5886 2169 2135
5995 4569 2247 330 2445 4849 4769 35
146 2432 136 1737 2028
00000000: 560f 0000 7a10 0000 ca16 0000 3109 0000
00000010: c307 0000 0208 0000 490f 0000 990f 0000
00000020: 9511 0000 d411 0000 ec12 0000 c216 0000
00000030: 8910 0000 7318 0000 480b 0000 5a0b 0000
00000040: ab02 0000 4406 0000 3800 0000 0504 0000
00000050: ae0b 0000 5a11 0000 0c16 0000 2500 0000
00000060: d105 0000 ec12 0000 e713 0000 9d05 0000
00000070: c114 0000 9c13 0000 1008 0000 b402 0000
00000080: 2816 0000 7a11 0000 0e07 0000 3009 0000
00000090: b108 0000 760b 0000 a70e 0000 4900 0000
000000a0: 4d09 0000 de14 0000 7008 0000 490d 0000
000000b0: a60a 0000 0a08 0000 ad0a 0000 a311 0000
000000c0: fb12 0000 7008 0000 c802 0000 7106 0000
000000d0: 1b10 0000 9506 0000 3a01 0000 5f0e 0000
000000e0: a017 0000 ca14 0000 d30b 0000 1218 0000
000000f0: b418 0000 b418 0000 b418 0000 b418 0000
00000100: 2910 0000 a707 0000 490d 0000 540b 0000
00000110: c813 0000 1d19 0000 2019 0000 b402 0000
00000120: c113 0000 150d 0000 930c 0000 a317 0000
00000130: 5004 0000 c905 0000 ff02 0000 1503 0000
00000140: d008 0000 120b 0000 ba09 0000 6911 0000
00000150: 2512 0000 5f0d 0000 470f 0000 7f08 0000
00000160: c90f 0000 0905 0000 d715 0000 a213 0000
00000170: 730a 0000 0b16 0000 2202 0000 1d0a 0000
00000180: 8807 0000 1706 0000 2415 0000 7505 0000
00000190: e20a 0000 6502 0000 e80f 0000 4c08 0000
000001a0: d711 0000 de12 0000 a50a 0000 1c04 0000
000001b0: 3800 0000 520e 0000 0e07 0000 1d04 0000
000001c0: 0301 0000 9d13 0000 3114 0000 3313 0000
000001d0: 6311 0000 fe16 0000 7908 0000 5708 0000
000001e0: 6b17 0000 d911 0000 c708 0000 4a01 0000
000001f0: 8d09 0000 f112 0000 a112 0000 2300 0000
00000200: 9200 0000 8009 0000 8800 0000 c906 0000
00000210: ec07 0000

t3_cond_prompt_speech_tokens i4 [1, 134]
3926 4218 5834 2353 1987 2050 3913 3993
4501 4564 4844 5826 4233 6259 2888 2906
683 1604 56 1029 2990 4442 5644 37
1489 4844 5095 1437 5313 5020 2064 692
5672 4474 1806 2352 2225 2934 3751 73
2381 5342 2160 3401 2726 2058 2733 4515
4859 2160 712 1649 4123 1685 314 3679
6048 5322 3027 6162 6324 6324 6324 6324
4137 1959 3401 2900 5064 6429 6432 692
5057 3349 3219 6051 1104 1481 767 789
2256 2834 2490 4457 4645 3423 3911 2175
4041 1289 5591 5026 2675 5643 546 2589
1928 1559 5412 1397 2786 613 4072 2124
4567 4830 2725 1052 56 3666 1806 1053
259 5021 5169 4915 4451 5886 2169 2135
5995 4569 2247 330 2445 4849 4769 35
146 2432 136 1737 2028 4137
00000000: 560f 0000 7a10 0000 ca16 0000 3109 0000
00000010: c307 0000 0208 0000 490f 0000 990f 0000
00000020: 9511 0000 d411 0000 ec12 0000 c216 0000
00000030: 8910 0000 7318 0000 480b 0000 5a0b 0000
00000040: ab02 0000 4406 0000 3800 0000 0504 0000
00000050: ae0b 0000 5a11 0000 0c16 0000 2500 0000
00000060: d105 0000 ec12 0000 e713 0000 9d05 0000
00000070: c114 0000 9c13 0000 1008 0000 b402 0000
00000080: 2816 0000 7a11 0000 0e07 0000 3009 0000
00000090: b108 0000 760b 0000 a70e 0000 4900 0000
000000a0: 4d09 0000 de14 0000 7008 0000 490d 0000
000000b0: a60a 0000 0a08 0000 ad0a 0000 a311 0000
000000c0: fb12 0000 7008 0000 c802 0000 7106 0000
000000d0: 1b10 0000 9506 0000 3a01 0000 5f0e 0000
000000e0: a017 0000 ca14 0000 d30b 0000 1218 0000
000000f0: b418 0000 b418 0000 b418 0000 b418 0000
00000100: 2910 0000 a707 0000 490d 0000 540b 0000
00000110: c813 0000 1d19 0000 2019 0000 b402 0000
00000120: c113 0000 150d 0000 930c 0000 a317 0000
00000130: 5004 0000 c905 0000 ff02 0000 1503 0000
00000140: d008 0000 120b 0000 ba09 0000 6911 0000
00000150: 2512 0000 5f0d 0000 470f 0000 7f08 0000
00000160: c90f 0000 0905 0000 d715 0000 a213 0000
00000170: 730a 0000 0b16 0000 2202 0000 1d0a 0000
00000180: 8807 0000 1706 0000 2415 0000 7505 0000
00000190: e20a 0000 6502 0000 e80f 0000 4c08 0000
000001a0: d711 0000 de12 0000 a50a 0000 1c04 0000
000001b0: 3800 0000 520e 0000 0e07 0000 1d04 0000
000001c0: 0301 0000 9d13 0000 3114 0000 3313 0000
000001d0: 6311 0000 fe16 0000 7908 0000 5708 0000
000001e0: 6b17 0000 d911 0000 c708 0000 4a01 0000
000001f0: 8d09 0000 f112 0000 a112 0000 2300 0000
00000200: 9200 0000 8009 0000 8800 0000 c906 0000
00000210: ec07 0000 2910 0000

t3_speaker_emb f4 [1, 256]
0.02130655 0.0 0.21903813 0.07079068 0.0 0.0 0.0 0.082243785
0.024482263 0.068339586 0.07170685 0.045934074 0.004356693 0.0 0.0 0.0
0.06680391 0.004388583 0.0 0.024204956 0.10459437 0.065498516 0.0 0.16118611
0.0 0.031104337 0.0 0.0 0.0 0.0 0.05499383 0.08305443
0.013698391 0.0 0.083959796 0.15847595 0.00024254146 0.0 0.0054182624 0.0002627724
0.0 0.01978249 0.06477442 0.0 0.086841494 0.033210848 0.04290394 0.008878221
0.049088944 0.0775362 0.0 0.0 0.0 0.0 0.0 0.0
0.02882088 0.0 0.021669269 0.007776663 0.0041108755 0.0 0.14819296 0.02866151
0.022629306 0.0 0.093056746 0.16766968 0.0 0.0 0.0017372239 0.013093633
0.0 0.16469923 0.08247731 0.026754098 0.0 0.042583227 0.037097223 0.041487753
0.0 0.0 0.15316923 0.040909156 0.0 0.0 0.0 0.07100725
0.0 0.015819633 0.030846916 0.0 0.0 0.0 0.0 0.08339499
0.06753296 0.04083463 0.0 0.0 0.0 0.0 0.1526178 0.13473277
0.043103445 0.039812714 0.047034338 0.100290395 0.0 0.16623907 0.0 0.048923958
0.0 0.17387457 0.10323774 0.0 0.05429047 0.023059776 0.06394969 0.0
0.09901468 0.03823331 0.11043137 0.0 0.010451588 0.06944648 0.021290768 0.04724568
0.0 0.0 0.031225858 0.0 0.050649706 0.11259288 0.08465705 0.06307443
0.014326722 0.0 0.10943155 0.047451533 0.0 0.0 0.041778807 0.07289282
0.15255652 0.06346969 0.14475848 0.0 0.13277331 0.12751175 0.022554848 0.079554625
0.0 0.0116206845 0.0 0.04216429 0.0 0.0 0.011508887 0.0
0.10782306 0.0 0.049551606 0.006914211 0.034818396 0.15443024 0.052318566 0.06092624
0.013630811 0.05311543 0.002815842 0.0 0.021610146 0.027073523 0.03369352 0.053093806
0.16258138 0.098041266 0.006822002 0.0066112517 0.07803116 0.054824058 0.0 0.01729458
0.011173739 0.0 0.0 0.14807965 0.0 0.0038342685 0.00025256514 0.054254305
0.0 0.06603233 0.0 0.0 0.048792657 0.15260677 0.011971238 0.032932356
0.01693351 0.06259044 0.0016267278 0.0 0.0 0.09799155 0.030431367 0.15722325
0.068447605 0.05291004 0.0 0.0 0.17583895 0.102458395 0.0 0.03658506
0.06800019 0.10845642 0.029672269 0.0 0.077790864 0.011072043 0.0 0.0
0.0 0.09917873 0.005113305 0.028590562 0.0 0.0 0.0051018586 0.0
0.07451461 0.0 0.0 0.005057491 0.0 0.11321159 0.05816716 0.023927521
0.03400449 0.07139128 0.010156519 0.114051454 0.0 0.10778974 0.023383902 0.0
0.12795356 0.0404241 0.0 0.06131291 0.07990351 0.017237116 0.0036599212 0.0
00000000: 138b ae3c 0000 0000 884b 603e b4fa 903d
00000010: 0000 0000 0000 0000 0000 0000 6e6f a83d
00000020: 078f c83c a0f5 8b3d 0adb 923d 5e25 3c3d
00000030: 97c2 8e3b 0000 0000 0000 0000 0000 0000
00000040: 7dd0 883d 1ace 8f3b 0000 0000 7949 c63c
00000050: 9335 d63d 1624 863d 0000 0000 f90d 253e
00000060: 0000 0000 86ce fe3c 0000 0000 0000 0000
00000070: 0000 0000 0000 0000 3641 613d 7118 aa3d
00000080: 376f 603c 0000 0000 1df3 ab3d 8547 223e
00000090: ba52 7e39 0000 0000 ae8b b13b b7c4 8939
000000a0: 0000 0000 e30e a23c 73a8 843d 0000 0000
000000b0: f4d9 b13d 1908 083d 0bbc 2f3d f575 113c
000000c0: 7d11 493d 4dcb 9e3d 0000 0000 0000 0000
000000d0: 0000 0000 0000 0000 0000 0000 0000 0000
000000e0: c419 ec3c 0000 0000 c083 b13c 61d3 fe3b
000000f0: 86b4 863b 0000 0000 e5bf 173e 8bcb ea3c
00000100: 1861 b93c 0000 0000 8994 be3d 9ab1 2b3e
00000110: 0000 0000 0000 0000 90b3 e33a ad86 563c
00000120: 0000 0000 eaa6 283e dde9 a83d 692b db3c
00000130: 0000 0000 c06b 2e3d 42f3 173d 10ef 293d
00000140: 0000 0000 0000 0000 65d8 1c3e 5c90 273d
00000150: 0000 0000 0000 0000 0000 0000 406c 913d
00000160: 0000 0000 2d98 813c acb2 fc3c 0000 0000
00000170: 0000 0000 0000 0000 0000 0000 feca aa3d
00000180: b84e 8a3d 3742 273d 0000 0000 0000 0000
00000190: 0000 0000 0000 0000 d747 1c3e 63f7 093e
000001a0: 3d8d 303d a812 233d 14a7 403d 0d65 cd3d
000001b0: 0000 0000 933a 2a3e 0000 0000 7d64 483d
000001c0: 0000 0000 2d0c 323e 4f6e d33d 0000 0000
000001d0: af5f 5e3d dbe7 bc3c 0ef8 823d 0000 0000
000001e0: 35c8 ca3d 889a 1c3d d829 e23d 0000 0000
000001f0: 233d 2b3c f539 8e3d fa69 ae3c b084 413d
00000200: 0000 0000 0000 0000 5fcd ff3c 0000 0000
00000210: 1176 4f3d 1997 e63d ad60 ad3d 2b2d 813d
00000220: a1ba 6a3c 0000 0000 a61d e03d 8a5c 423d
00000230: 0000 0000 0000 0000 4120 2b3d d548 953d
00000240: c737 1c3e 66fc 813d 913b 143e 0000 0000
00000250: baf5 073e 7192 023e f2c4 b83c 89ed a23d
00000260: 0000 0000 af64 3e3c 0000 0000 76b4 2c3d
00000270: 0000 0000 0000 0000 c58f 3c3c 0000 0000
00000280: 56d2 dc3d 0000 0000 a0f6 4a3d 9b90 e23b
00000290: bc9d 0e3d f622 1e3e fe4b 563d cb8d 793d
000002a0: c453 5f3c 918f 593d fd89 383b 0000 0000
000002b0: c307 b13c 4bc9 dd3c 3702 0a3d e478 593d
000002c0: bc7b 263e dcc9 c83d 1a8b df3b 33a3 d83b
000002d0: cdce 9f3d 318f 603d 0000 0000 5dad 8d3c
000002e0: 0f12 373c 0000 0000 0000 0000 31a2 173e
000002f0: 0000 0000 5a48 7b3b b86a 8439 c339 5e3d
00000300: 0000 0000 f53b 873d 0000 0000 0000 0000
00000310: cfda 473d f344 1c3e 0323 443c 14e4 063d
00000320: 25b8 8a3c 6b2f 803d ed37 d53a 0000 0000
00000330: 0000 0000 cbaf c83d 344b f93c 22ff 203e
00000340: 422e 8c3d 33b8 583d 0000 0000 0000 0000
00000350: 200f 343e b5d5 d13d 0000 0000 37da 153d
00000360: af43 8b3d 661e de3d 4213 f33c 0000 0000
00000370: d150 9f3d 8467 353c 0000 0000 0000 0000
00000380: 0000 0000 381e cb3d 838d a73b c136 ea3c
00000390: 0000 0000 0000 0000 7e2d a73b 0000 0000
000003a0: 1e9b 983d 0000 0000 0000 0000 4fb9 a53b
000003b0: 0000 0000 7adb e73d b040 6e3d a603 c43c
000003c0: 4b48 0b3d 9735 923d 8767 263c cf93 e93d
000003d0: 0000 0000 dec0 dc3d 998f bf3c 0000 0000
000003e0: 4206 033e be93 253d 0000 0000 3f23 7b3d
000003f0: 74a4 a33d da34 8d3c 4adb 6f3b 0000 0000
