assets/default.safetensors (safetensors, 164900 bytes, 5 tensors)

gen_embedding f4 [1, 192]
0	0xbf59a471	-0.8501654
1	0x3d8413ca	0.06449087
2	0x3f8e3094	1.1108575
3	0xbf637697	-0.8885283
4	0x3f3b6836	0.7320589
5	0xbf0dd73f	-0.55406564
6	0x3faa821d	1.3320957
7	0xbf2ae556	-0.6675619
8	0xbec7f042	-0.3905049
9	0x3f350bce	0.7072114
10	0xbe8d2732	-0.27568966
11	0x3eac3372	0.33633
12	0xbe4aba0f	-0.19797538
13	0xbf9171c2	-1.1362841
14	0xbfc34634	-1.5255799
15	0x3f16fe62	0.5898191
16	0x3f41e34d	0.7573746
17	0x3eb60fb7	0.35558864
18	0xbf286f4f	-0.65794843
19	0xbfb9a025	-1.4501997
20	0x3ea4a4cd	0.32156983
21	0xbf97c8ae	-1.1858118
22	0xbf1a761f	-0.6033649
23	0xbf0a0f8a	-0.5392996
24	0xbf1d90a6	-0.6154884
25	0x3d007cba	0.03136895
26	0x3c8544b9	0.016268121
27	0xbe97a559	-0.29618338
28	0x3eadb328	0.33925748
29	0x3ed60376	0.41799515
30	0x3ba3c146	0.004997405
31	0x3e7b02d2	0.24512795
32	0x3e4f5393	0.20246725
33	0x3ee1cd61	0.44102004
34	0xbedb879e	-0.42876905
35	0xbf609f61	-0.8774319
36	0xbf0315bb	-0.51205033
37	0x3f851c71	1.0399305
38	0xbdaa9d35	-0.08330766
39	0xbf97052b	-1.1798452
40	0xbed436c8	-0.41448045
41	0xbd782449	-0.06058148
42	0xbe7a1605	-0.24422462
43	0xbe7d74cf	-0.2475159
44	0xbf94d651	-1.1627904
45	0xbdc46e9c	-0.095914096
46	0xbf0ad533	-0.54231566
47	0x3edb70a6	0.4285938
48	0xbf868b65	-1.051129
49	0xbf2a36a9	-0.66489655
50	0x3e9e7ed3	0.30956134
51	0x3e9ca3f9	0.3059385
52	0xbf7a33f0	-0.977355
53	0xbedfd772	-0.4371906
54	0xbf6dc865	-0.928839
55	0xbf73b723	-0.9520132
56	0x3f53f82f	0.82800573
57	0x3f8d6b79	1.1048423
58	0xbebad559	-0.36490896
59	0x3f92eaef	1.1477946
60	0x3f5211af	0.82058233
61	0x3fb8078e	1.4377306
62	0x3e3d04e2	0.18458894
63	0xbeb13602	-0.34611517
64	0xbf18cc2e	-0.59686553
65	0x3da6a4a4	0.081368715
66	0xbed9b868	-0.42523503
67	0xbddd632f	-0.108099334
68	0x3f876eab	1.0580648
69	0xbeca3924	-0.3949672
70	0x3f9784d4	1.1837411
71	0x3f603351	0.875783
72	0xbfb5c38e	-1.4200304
73	0x3e328c88	0.17436421
74	0xbf02c925	-0.5108817
75	0xbee36bc1	-0.44418147
76	0x3f81cdbc	1.014091
77	0x3df6153e	0.120157704
78	0x3efcf592	0.49406105
79	0xbebc51bb	-0.36781105
80	0x3fd3dc6e	1.6551645
81	0xbe429f60	-0.19006109
82	0x3e9dc23f	0.3081226
83	0xbf16b00c	-0.58862376
84	0xbf1a405e	-0.60254467
85	0xbe75923f	-0.2398157
86	0x3df5130a	0.11966522
87	0x3f9e1de6	1.2352874
88	0xbf32e5b6	-0.6988176
89	0x3f16380c	0.5867927
90	0x3ec99265	0.39369503
91	0x3ef122ca	0.47096854
92	0x3edf6ac0	0.4363613
93	0x3eb80096	0.35937947
94	0x3e2055cc	0.15657729
95	0xbfabee1c	-1.343204
96	0x3f307989	0.6893545
97	0x3fae23ea	1.360471
98	0x3f71a4a3	0.9439184
99	0x3f60ff51	0.8788958
100	0x3f9a574a	1.2057889
101	0xbeb4fae5	-0.35347667
102	0xbe1720c4	-0.14758593
103	0x3ee7eae9	0.4529641
104	0xbeee5f72	-0.46557194
105	0xbda065b5	-0.07831899
106	0xbeced731	-0.40398553
107	0x3fb3380b	1.4001478
108	0x3e891d46	0.26780146
109	0x3f8a7ddb	1.0819658
110	0xbfc884f7	-1.5665578
111	0x3e915e82	0.28392416
112	0xbf1733a6	-0.59063184
113	0xbdee33de	-0.11630987
114	0x3eb2ab8d	0.34896508
115	0x3f2f46cb	0.68467396
116	0x3efa84cc	0.4892944
117	0xbed802de	-0.42189687
118	0xbf189d10	-0.5961466
119	0x3d2dce6c	0.042433187
120	0x3fc477bf	1.5349044
121	0xbf64dd56	-0.8940023
122	0xbf72c7aa	-0.94835913
123	0x3fc49b29	1.5359851
124	0xbe835b03	-0.25655374
125	0x3f2ebdb9	0.68258244
126	0xbdea0650	-0.11426985
127	0xbeb4ab60	-0.35287
128	0x3f1719f4	0.59023976
129	0xbf80d485	-1.0064856
130	0xbf72ee7e	-0.9489516
131	0xbf1c4d55	-0.610555
132	0x3f73fdf9	0.95309407
133	0x3f973f25	1.1816145
134	0x3c215235	0.00984626
135	0x3e0a5e37	0.13512503
136	0x3f84b535	1.03678
137	0xbeca7819	-0.39544752
138	0x3f3c0710	0.73448277
139	0xbe8b2932	-0.27179867
140	0xbf84fb3b	-1.038917
141	0xbee34ffc	-0.4439696
142	0xbecf50d9	-0.4049137
143	0xbd2b1e02	-0.041776665
144	0x3e8dbdfe	0.27684015
145	0xbeea031e	-0.45705503
146	0x3f22fb06	0.6366428
147	0xbdabcd0e	-0.083887205
148	0x3eab851f	0.335
149	0x3eb59896	0.35467976
150	0x3f2b563e	0.6692847
151	0x3eae0a0b	0.33992037
152	0x3e4b38b4	0.1984585
153	0xbe89e624	-0.26933396
154	0xbed96fc7	-0.42468092
155	0x3e6042c0	0.21900463
156	0x3f8922d7	1.0713757
157	0xbf46da42	-0.77676785
158	0xbe6056cd	-0.21908112
159	0x3ee802d2	0.45314652
160	0xbf8a6229	-1.0811206
161	0xbede6033	-0.4343277
162	0xbf07c830	-0.53039837
163	0x3e0e06f8	0.13869846
164	0xbe677f0e	-0.22607061
165	0x3e588de0	0.21147871
166	0x3f958d9a	1.1683838
167	0xc00ac49a	-2.1682496
168	0xbebbe843	-0.3670064
169	0x3ede9042	0.43469435
170	0x3da6306f	0.08114707
171	0x3f0dd399	0.55401
172	0xbf183ab5	-0.5946458
173	0x3e17a1d4	0.14807826
174	0x3f5c8c2e	0.861514
175	0x3f71629b	0.94291085
176	0xbf12c150	-0.5732622
177	0xbf9e2405	-1.2354742
178	0x3efa398e	0.48872036
179	0xbd808c76	-0.06276791
180	0xbe9c8339	-0.30568865
181	0x3f68cae7	0.90934604
182	0x3e0ffbc2	0.14060882
183	0x3cbc4b9b	0.02298527
184	0xbf576293	-0.8413479
185	0xbf426f6a	-0.75951254
186	0xbfc170d8	-1.5112562
187	0xbe9db702	-0.30803686
188	0xbdc9a206	-0.09845357
189	0x3e48e3c1	0.19618131
190	0x3edf4583	0.4360772
191	0xbe3b3c71	-0.18284775

gen_prompt_feat f4 [1, 500, 80]
0	0xc1234d43	-10.206363
1	0xc12329c5	-10.197698
2	0xc1231022	-10.191439
3	0xc123155b	-10.192714
4	0xc12337c3	-10.201114
5	0xc1236117	-10.211204
6	0xc1237918	-10.217064
7	0xc1237e2a	-10.218302
8	0xc1238f7d	-10.222531
9	0xc123e0c7	-10.242377
10	0xc124a6d4	-10.2907295
11	0xc1260ccd	-10.378125
12	0xc128325f	-10.512298
13	0xc12b2a8b	-10.697886
14	0xc12eeed7	-10.9333105
15	0xc1333151	-11.19954
16	0xc13708aa	-11.439615
17	0xc13834f1	-11.512925
18	0xc13834f1	-11.512925
19	0xc13834f1	-11.512925
20	0xc13834f1	-11.512925
21	0xc13834f1	-11.512925
22	0xc13834f1	-11.512925
23	0xc13834f1	-11.512925
24	0xc13834f1	-11.512925
25	0xc13834f1	-11.512925
26	0xc13834f1	-11.512925
27	0xc13834f1	-11.512925
28	0xc13834f1	-11.512925
29	0xc13834f1	-11.512925
30	0xc13834f1	-11.512925
31	0xc13834f1	-11.512925
32	0xc13834f1	-11.512925
33	0xc13834f1	-11.512925
34	0xc13834f1	-11.512925
35	0xc13834f1	-11.512925
36	0xc13834f1	-11.512925
37	0xc13834f1	-11.512925
38	0xc13834f1	-11.512925
39	0xc13834f1	-11.512925
40	0xc13834f1	-11.512925
41	0xc13834f1	-11.512925
42	0xc13834f1	-11.512925
43	0xc13834f1	-11.512925
44	0xc13834f1	-11.512925
45	0xc13834f1	-11.512925
46	0xc13834f1	-11.512925
47	0xc13834f1	-11.512925
48	0xc13834f1	-11.512925
49	0xc13834f1	-11.512925
50	0xc13834f1	-11.512925
51	0xc13834f1	-11.512925
52	0xc13834f1	-11.512925
53	0xc13834f1	-11.512925
54	0xc13834f1	-11.512925
55	0xc13834f1	-11.512925
56	0xc13834f1	-11.512925
57	0xc13834f1	-11.512925
58	0xc13834f1	-11.512925
59	0xc13834f1	-11.512925
60	0xc13834f1	-11.512925
61	0xc13834f1	-11.512925
62	0xc13834f1	-11.512925
63	0xc13834f1	-11.512925
64	0xc13834f1	-11.512925
65	0xc13834f1	-11.512925
66	0xc13834f1	-11.512925
67	0xc13834f1	-11.512925
68	0xc13834f1	-11.512925
69	0xc13834f1	-11.512925
70	0xc13834f1	-11.512925
71	0xc13834f1	-11.512925
72	0xc13834f1	-11.512925
73	0xc13834f1	-11.512925
74	0xc13834f1	-11.512925
75	0xc13834f1	-11.512925
76	0xc13834f1	-11.512925
77	0xc13834f1	-11.512925
78	0xc13834f1	-11.512925
79	0xc13834f1	-11.512925
80	0xc0e27d32	-7.0777826
81	0xc0cf513d	-6.478667
82	0xc0bf3822	-5.975602
83	0xc0988cd9	-4.7671933
84	0xc09ae946	-4.8409758
85	0xc0b9bc6d	-5.804251
86	0xc096506b	-4.6973166
87	0xc08429c0	-4.1300964
88	0xc09554a0	-4.66658
89	0xc0c2224e	-6.0666876
90	0xc0a1e917	-5.0597034
91	0xc096cde3	-4.7126327
92	0xc0a68b31	-5.204491
93	0xc0b5f334	-5.685938
94	0xc0aefec4	-5.4685993
95	0xc0b3eda0	-5.622757
96	0xc0bf7e41	-5.984162
97	0xc0aadd29	-5.339497
98	0xc0a2a6cb	-5.0828605
99	0xc0b88e5e	-5.767379
100	0xc0d9d2c3	-6.8069777
101	0xc0e5edab	-7.185262
102	0xc0d0c7a4	-6.52437
103	0xc0db3413	-6.8501067
104	0xc0dccbea	-6.899892
105	0xc0ce7c41	-6.4526677
106	0xc0d2025e	-6.562789
107	0xc0fc53f5	-7.8852487
108	0xc0da110e	-6.814582
109	0xc0b9f8f8	-5.8116417
110	0xc0b637e4	-5.6943226
111	0xc0c75f60	-6.2303925
112	0xc0ea66be	-7.325042
113	0xc0d790d7	-6.7364306
114	0xc0c2da6e	-6.089164
115	0xc0c7231e	-6.223037
116	0xc0c363fb	-6.1059546
117	0xc0bb46e4	-5.8524036
118	0xc0cf7979	-6.483578
119	0xc0e2031f	-7.062881
120	0xc108bf23	-8.546664
121	0xc10bc11a	-8.734644
122	0xc0ecf83c	-7.405302
123	0xc0fb48b3	-7.8526244
124	0xc0f103b0	-7.5317
125	0xc0de43b3	-6.945764
126	0xc0f00d84	-7.50165
127	0xc0ed2175	-7.410334
128	0xc0e3561b	-7.104261
129	0xc10ba45f	-8.72763
130	0xc10c3793	-8.763568
131	0xc0fba247	-7.8635592
132	0xc1019d0e	-8.100843
133	0xc1174156	-9.453451
134	0xc103bb92	-8.233294
135	0xc0f51e72	-7.6599665
136	0xc109707e	-8.589964
137	0xc105a907	-8.353766
138	0xc1062379	-8.38366
139	0xc0fc67e1	-7.8876805
140	0xc109a707	-8.603278
141	0xc112f6f9	-9.185296
142	0xc10713b4	-8.44231
143	0xc110d9f0	-9.053207
144	0xc1112eca	-9.073923
145	0xc1070a67	-8.44004
146	0xc10efae3	-8.936252
147	0xc121b901	-10.107667
148	0xc11247c9	-9.142526
149	0xc113215d	-9.195645
150	0xc10ead2b	-8.917277
151	0xc1138506	-9.219976
152	0xc11371a9	-9.215249
153	0xc10f01f8	-8.937981
154	0xc10bbe60	-8.733978
155	0xc10e7359	-8.903161
156	0xc1053e88	-8.327766
157	0xc10a9555	-8.661458
158	0xc10a2f43	-8.6365385
159	0xc1116228	-9.086464
160	0xc0cc1e60	-6.378708
161	0xc0b43b6e	-5.6322546
162	0xc08f6890	-4.481514
163	0xc0453fe1	-3.0820239
164	0xc06be7b6	-3.6860175
165	0xc09c3dac	-4.8825283
166	0xc062b7f4	-3.5424776
167	0xc026c473	-2.6057403
168	0xc06d3701	-3.7064822
169	0xc0987e3b	-4.765409
170	0xc07bfdb5	-3.93736
171	0xc052cc36	-3.293714
172	0xc089a2aa	-4.3011065
173	0xc0712cea	-3.7683663
174	0xc052668d	-3.2875092
175	0xc0642d10	-3.5652504
176	0xc085593e	-4.167144
177	0xc05ddb4a	-3.4665093
178	0xc0763bb8	-3.847395
179	0xc0a08edb	-5.0174384
180	0xc0b935c7	-5.7878146
181	0xc0a31095	-5.095774
182	0xc0a08c5d	-5.017134
183	0xc0a72a67	-5.223926
184	0xc0a14125	-5.039202
185	0xc09a4209	-4.820561
186	0xc09fdf72	-4.996026
187	0xc0b4e2f5	-5.6527047
188	0xc0aeac2f	-5.4585185
189	0xc0999f01	-4.8006597
190	0xc097cacd	-4.743506
191	0xc0a542bc	-5.1643963
192	0xc0b92fe8	-5.787098
193	0xc0a159fb	-5.042234
194	0xc0a08c3c	-5.0171185
195	0xc09c3ecc	-4.8826656
196	0xc09cfaee	-4.905631
197	0xc0910c57	-4.5327563
198	0xc0ad1c12	-5.4096766
199	0xc0c28280	-6.07843
200	0xc0ef10ba	-7.470792
201	0xc0e6c088	-7.2110023
202	0xc0c9b68e	-6.3035345
203	0xc0cb564e	-6.3542852
204	0xc0cdbd08	-6.429325
205	0xc0bf1660	-5.9714813
206	0xc0d1ba59	-6.5539975
207	0xc0cbeed3	-6.3729033
208	0xc0c24600	-6.071045
209	0xc0f0462d	-7.5085664
210	0xc0e31eaa	-7.097493
211	0xc0da1394	-6.81489
212	0xc0dd1917	-6.9093127
213	0xc0f80826	-7.7509947
214	0xc0dfb863	-6.991258
215	0xc0d2f84b	-6.592809
216	0xc0dbe795	-6.8720193
217	0xc0d0d4ed	-6.525992
218	0xc0e3d5c9	-7.119847
219	0xc0d40baa	-6.626424
220	0xc0deff4f	-6.9686656
221	0xc0ed46f6	-7.414912
222	0xc0e853e2	-7.2602396
223	0xc0f3bf27	-7.617084
224	0xc0f1a8eb	-7.55187
225	0xc0e87b89	-7.26508
226	0xc0eddc37	-7.4331317
227	0xc106e069	-8.429788
228	0xc0fa2ee7	-7.8182254
229	0xc0f6c028	-7.7109566
230	0xc0f3d6b7	-7.6199603
231	0xc0fa4809	-7.8212934
232	0xc0fa4a5b	-7.8215766
233	0xc0f9a855	-7.8017983
234	0xc0f373be	-7.6078787
235	0xc0f6d118	-7.713024
236	0xc0e7ab82	-7.239686
237	0xc0eecb86	-7.462344
238	0xc0edefa9	-7.4355054
239	0xc0fdb658	-7.9285088
240	0xc0c416bc	-6.127775
241	0xc0be93bf	-5.9555354
242	0xc0883887	-4.2569003
243	0xc026c3f0	-2.605709
244	0xc0766bd9	-3.8503325
245	0xc0a727b3	-5.223596
246	0xc06b624d	-3.6778748
247	0xc00846a0	-2.1293106
248	0xc04f45b1	-3.2386286
249	0xc08d2d64	-4.411791
250	0xc07caba8	-3.947977
251	0xc011f014	-2.2802782
252	0xc0495083	-3.145539
253	0xc0586cd8	-3.3816433
254	0xc03486f5	-2.8207371
255	0xc036c349	-2.8556693

gen_prompt_token i4 [1, 250]
0	0x00000782	1922
1	0x00000f97	3991
2	0x00000f94	3988
3	0x00001679	5753
4	0x00000493	1171
5	0x0000163a	5690
6	0x00000b27	2855
7	0x000007c5	1989
8	0x00001438	5176
9	0x00001438	5176
10	0x00000f79	3961
11	0x00001615	5653
12	0x000002fd	765
13	0x000006fa	1786
14	0x00000114	276
15	0x00000084	132
16	0x000011d8	4568
17	0x000011d4	4564
18	0x00000098	152
19	0x000005f6	1526
20	0x000017a0	6048
21	0x00000e85	3717
22	0x0000172f	5935
23	0x00000710	1808
24	0x000006cc	1740
25	0x00000717	1815
26	0x000005b5	1461
27	0x00000e40	3648
28	0x00000e40	3648
29	0x00000e40	3648
30	0x00000e40	3648
31	0x00000e40	3648
32	0x000005b5	1461
33	0x000005b5	1461
34	0x000007ef	2031
35	0x00001029	4137
36	0x000006ca	1738
37	0x0000088d	2189
38	0x000008a8	2216
39	0x00001184	4484
40	0x000005ea	1514
41	0x000006c7	1735
42	0x0000085b	2139
43	0x000008c7	2247
44	0x00000075	117
45	0x00000e24	3620
46	0x000006e3	1763
47	0x000011fe	4606
48	0x000011fe	4606
49	0x0000172e	5934
50	0x00000732	1842
51	0x000017a0	6048
52	0x00000fca	4042
53	0x0000064e	1614
54	0x000006cf	1743
55	0x000011ac	4524
56	0x000014e0	5344
57	0x000018a7	6311
58	0x00000fce	4046
59	0x00001428	5160
60	0x00001290	4752
61	0x0000123f	4671
62	0x000004fe	1278
63	0x00000f7a	3962
64	0x0000123f	4671
65	0x00001291	4753
66	0x00000a56	2646
67	0x00000876	2166
68	0x000011e6	4582
69	0x000012a9	4777
70	0x00000b12	2834
71	0x00000cae	3246
72	0x00000f84	3972
73	0x000001e5	485
74	0x00000005	5
75	0x000002db	731
76	0x000002f6	758
77	0x0000080e	2062
78	0x0000080a	2058
79	0x000007b9	1977
80	0x000006c3	1731
81	0x000006c3	1731
82	0x000007ef	2031
83	0x000006ab	1707
84	0x000007a7	1959
85	0x0000079e	1950
86	0x000007ef	2031
87	0x000007ef	2031
88	0x00001095	4245
89	0x0000080a	2058
90	0x000007ef	2031
91	0x00000840	2112
92	0x000007d4	2004
93	0x0000099f	2463
94	0x00000984	2436
95	0x000016ce	5838
96	0x000016ce	5838
97	0x000016e9	5865
98	0x00000eaf	3759
99	0x00000e43	3651
100	0x00000e94	3732
101	0x00000c78	3192
102	0x00000e43	3651
103	0x00000e43	3651
104	0x00000e5e	3678
105	0x00000f36	3894
106	0x000006fc	1788
107	0x000007ef	2031
108	0x000007ef	2031
109	0x0000079e	1950
110	0x0000079b	1947
111	0x000007ef	2031
112	0x0000079e	1950
113	0x000007ef	2031
114	0x0000079e	1950
115	0x000010cb	4299
116	0x0000058b	1419
117	0x00000e39	3641
118	0x00000c47	3143
119	0x00001169	4457
120	0x0000136a	4970
121	0x000013e1	5089
122	0x00000abe	2750
123	0x000007d6	2006
124	0x0000079f	1951
125	0x0000079f	1951
126	0x0000079e	1950
127	0x0000079f	1951
128	0x0000079e	1950
129	0x000006ab	1707
130	0x0000079e	1950
131	0x000007ef	2031
132	0x000006c7	1735
133	0x00001675	5749
134	0x00000098	152
135	0x00001986	6534
136	0x00001842	6210
137	0x0000152a	5418
138	0x00000e8a	3722
139	0x00001519	5401
140	0x00000323	803
141	0x000011ef	4591
142	0x00000729	1833
143	0x000011fd	4605
144	0x000010da	4314
145	0x0000059a	1434
146	0x0000169a	5786
147	0x00000694	1684
148	0x0000090a	2314
149	0x000015d4	5588
150	0x000004f4	1268
151	0x00000984	2436
152	0x0000021b	539
153	0x000012f2	4850
154	0x0000003e	62
155	0x00000020	32
156	0x00000905	2309
157	0x000008f9	2297
158	0x0000034a	842
159	0x000007ba	1978
160	0x000007d5	2005
161	0x0000040c	1036
162	0x00000c57	3159
163	0x0000110f	4367
164	0x0000199b	6555
165	0x0000078c	1932
166	0x00000732	1842
167	0x00000093	147
168	0x00001535	5429
169	0x000013a7	5031
170	0x00001332	4914
171	0x0000160c	5644
172	0x00001803	6147
173	0x00000372	882
174	0x000007cb	1995
175	0x000007ad	1965
176	0x00000ea4	3748
177	0x000005c5	1477
178	0x000011d8	4568
179	0x000008de	2270
180	0x000008f9	2297
181	0x0000096e	2414
182	0x000002d2	722
183	0x000002d8	728
184	0x00000de8	3560
185	0x000007d5	2005
186	0x000007ba	1978
187	0x000006c7	1735
188	0x00000445	1093
189	0x000003e8	1000
190	0x00000c5a	3162
191	0x000006c4	1732
192	0x000006b2	1714
193	0x000006b2	1714
194	0x000006b2	1714
195	0x0000071e	1822
196	0x00000f8f	3983
197	0x00000f35	3893
198	0x00000f3d	3901
199	0x00000f4f	3919
200	0x00000f34	3892
201	0x0000043c	1084
202	0x00000f4f	3919
203	0x00000f4f	3919
204	0x00000f4f	3919
205	0x00000f4f	3919
206	0x00000fa0	4000
207	0x00000fa0	4000
208	0x00000fa0	4000
209	0x00000f85	3973
210	0x00000c76	3190
211	0x00000f8e	3982
212	0x00000f8e	3982
213	0x00000f4f	3919
214	0x00000fa0	4000
215	0x00000f88	3976
216	0x00000f4f	3919
217	0x00000c76	3190
218	0x00000c76	3190
219	0x000006cd	1741
220	0x0000071e	1822
221	0x00000f9f	3999
222	0x000006c4	1732
223	0x00000f4f	3919
224	0x000006cd	1741
225	0x000006c4	1732
226	0x000006c6	1734
227	0x000007f0	2032
228	0x000006cd	1741
229	0x00000f4f	3919
230	0x000006cd	1741
231	0x000006c4	1732
232	0x000006c6	1734
233	0x000007b9	1977
234	0x000006c4	1732
235	0x000007ba	1978
236	0x000006c4	1732
237	0x0000080b	2059
238	0x000007ef	2031
239	0x000007b9	1977
240	0x00000f36	3894
241	0x00000f36	3894
242	0x00000eb6	3766
243	0x00000622	1570
244	0x000006c4	1732
245	0x0000079e	1950
246	0x00000e4a	3658
247	0x00000b74	2932
248	0x00000f57	3927
249	0x0000107a	4218

t3_cond_prompt_speech_tokens i4 [1, 375]
0	0x000004a9	1193
1	0x00000f97	3991
2	0x00000f94	3988
3	0x00001679	5753
4	0x00000493	1171
5	0x0000163a	5690
6	0x00000b27	2855
7	0x000007c5	1989
8	0x00001438	5176
9	0x00001438	5176
10	0x00000f79	3961
11	0x00001522	5410
12	0x00000318	792
13	0x000006fd	1789
14	0x00000114	276
15	0x00000084	132
16	0x000011d8	4568
17	0x000011d4	4564
18	0x00000098	152
19	0x000005f6	1526
20	0x0000174f	5967
21	0x00000e88	3720
22	0x0000172f	5935
23	0x00000710	1808
24	0x000006cc	1740
25	0x00000717	1815
26	0x000005b5	1461
27	0x00000e40	3648
28	0x00000e40	3648
29	0x00000e40	3648
30	0x00000e40	3648
31	0x00000e40	3648
32	0x000005b5	1461
33	0x000005d0	1488
34	0x000007ef	2031
35	0x00001029	4137
36	0x000006ca	1738
37	0x00000002	2
38	0x000008a8	2216
39	0x00001184	4484
40	0x000005ea	1514
41	0x000006c7	1735
42	0x0000085b	2139
43	0x000008c7	2247
44	0x00000075	117
45	0x00000e24	3620
46	0x000006e3	1763
47	0x000011fe	4606
48	0x000011fe	4606
49	0x0000172e	5934
50	0x00000732	1842
51	0x000017a0	6048
52	0x00000fca	4042
53	0x0000064e	1614
54	0x000006cf	1743
55	0x000011ac	4524
56	0x000014e0	5344
57	0x000018a7	6311
58	0x00000fce	4046
59	0x00001428	5160
60	0x00001290	4752
61	0x0000123f	4671
62	0x000004fe	1278
63	0x00000f7a	3962
64	0x0000123f	4671
65	0x00001291	4753
66	0x00000a56	2646
67	0x00000876	2166
68	0x000011e6	4582
69	0x000012a9	4777
70	0x00000b12	2834
71	0x00000423	1059
72	0x00000f84	3972
73	0x000001e5	485
74	0x00000020	32
75	0x000002db	731
76	0x000002f6	758
77	0x00000829	2089
78	0x0000080a	2058
79	0x000007b9	1977
80	0x000006c4	1732
81	0x000006c3	1731
82	0x000007ef	2031
83	0x000006ab	1707
84	0x000007a7	1959
85	0x0000079e	1950
86	0x000007ef	2031
87	0x000007ef	2031
88	0x00001044	4164
89	0x000007ef	2031
90	0x000007ef	2031
91	0x00000840	2112
92	0x000007d4	2004
93	0x000009ba	2490
94	0x00000c5d	3165
95	0x000016ce	5838
96	0x000016e9	5865
97	0x000016e9	5865
98	0x00000eaf	3759
99	0x00000e43	3651
100	0x00000e94	3732
101	0x00000c5d	3165
102	0x00000e43	3651
103	0x00000e43	3651
104	0x00000e43	3651
105	0x00000f36	3894
106	0x000006ab	1707
107	0x000006ab	1707
108	0x000007ef	2031
109	0x0000079e	1950
110	0x0000079b	1947
111	0x000007ef	2031
112	0x0000079e	1950
113	0x000007ef	2031
114	0x0000079e	1950
115	0x000010cb	4299
116	0x0000058b	1419
117	0x00000e39	3641
118	0x00000c47	3143
119	0x00001169	4457
120	0x0000136a	4970
121	0x000013e1	5089
122	0x00000ab5	2741
123	0x000007d6	2006
124	0x0000079f	1951
125	0x0000079f	1951
126	0x0000079e	1950
127	0x0000079f	1951
128	0x0000079e	1950
129	0x000006ab	1707
130	0x0000079e	1950
131	0x000007ef	2031
132	0x000006c7	1735
133	0x00001675	5749
134	0x00000098	152
135	0x00001986	6534
136	0x000017f1	6129
137	0x00001437	5175
138	0x00000e81	3713
139	0x00001519	5401
140	0x00000323	803
141	0x000011f2	4594
142	0x00000729	1833
143	0x000011fd	4605
144	0x000010da	4314
145	0x0000059a	1434
146	0x0000169a	5786
147	0x00000694	1684
148	0x0000090a	2314
149	0x000012fb	4859
150	0x000004f4	1268
151	0x00000984	2436
152	0x0000021b	539
153	0x000012f2	4850
154	0x0000003e	62
155	0x00000020	32
156	0x000008fc	2300
157	0x000008a8	2216
158	0x0000034a	842
159	0x000006c7	1735
160	0x000007d5	2005
161	0x0000040c	1036
162	0x00000c57	3159
163	0x0000110f	4367
164	0x0000199b	6555
165	0x0000078c	1932
166	0x00000732	1842
167	0x00000093	147
168	0x00001535	5429
169	0x000013a7	5031
170	0x00001332	4914
171	0x0000160c	5644
172	0x00001803	6147
173	0x00000372	882
174	0x000007cb	1995
175	0x000007ad	1965
176	0x00000ea4	3748
177	0x000005c5	1477
178	0x000011d8	4568
179	0x0000088d	2189
180	0x000008f9	2297
181	0x000000e3	227
182	0x000002d2	722
183	0x000002d8	728
184	0x00000de8	3560
185	0x000007d6	2006
186	0x000007ba	1978
187	0x000006c7	1735
188	0x00000445	1093
189	0x000003e8	1000
190	0x00000c5a	3162
191	0x000006c4	1732
192	0x000006b2	1714
193	0x000006b2	1714
194	0x000006b2	1714
195	0x0000071e	1822
196	0x00000f3e	3902
197	0x00000f50	3920
198	0x00000f34	3892
199	0x00000f4f	3919
200	0x00000f34	3892
201	0x0000043c	1084
202	0x00000f4f	3919
203	0x00000f4f	3919
204	0x00000f4f	3919
205	0x00000f4f	3919
206	0x00000fa0	4000
207	0x00000fa0	4000
208	0x00000f4f	3919
209	0x00000f85	3973
210	0x00000f4f	3919
211	0x00000f3d	3901
212	0x00000f3d	3901
213	0x00000f4f	3919
214	0x00000f85	3973
215	0x00000f37	3895
216	0x00000f4f	3919
217	0x00000c76	3190
218	0x00000f4f	3919
219	0x000006cd	1741
220	0x000006cd	1741
221	0x00000f4f	3919
222	0x000006c7	1735
223	0x000006c4	1732
224	0x000006c4	1732
225	0x000006c4	1732
226	0x000006c7	1735
227	0x000006fd	1789
228	0x000006cd	1741
229	0x000006c4	1732
230	0x000006c4	1732
231	0x000006a9	1705
232	0x000006c7	1735
233	0x000006c7	1735
234	0x000006c7	1735
235	0x000006c7	1735
236	0x000006c7	1735
237	0x000007ba	1978
238	0x000007ef	2031
239	0x000007b9	1977
240	0x00000f37	3895
241	0x000006ab	1707
242	0x00000eb6	3766
243	0x00000622	1570
244	0x000006c7	1735
245	0x0000079e	1950
246	0x00000e49	3657
247	0x00000b6a	2922
248	0x000005b5	1461
249	0x000006ab	1707
250	0x00000f36	3894
251	0x000010cb	4299
252	0x000010e0	4320
253	0x0000065e	1630
254	0x00001495	5269
255	0x00001772	6002

t3_speaker_emb f4 [1, 256]
0	0x3cbf5ca4	0.023359604
1	0x3c28c979	0.010301941
2	0x3bf663e9	0.0075192344
3	0x3ad55bfc	0.0016278024
4	0x3d6d74ca	0.057972707
5	0x3d910824	0.07081631
6	0x3c0d32b4	0.008618046
7	0x3d07dd41	0.03316999
8	0x3c1c5f1c	0.00954416
9	0x3bf8ac66	0.007588911
10	0x3dfbd957	0.12297314
11	0x3d4619af	0.048364338
12	0x3d0da792	0.034583636
13	0x3df0f3cb	0.1176525
14	0x3ca3546f	0.019937722
15	0x3bece1fb	0.0072290874
16	0x3dbc6352	0.09198631
17	0x3dacdf28	0.08441001
18	0x3b8e4d79	0.0043427316
19	0x3b9e2db6	0.0048272265
20	0x3bbf2361	0.005833075
21	0x3d2e6455	0.042576153
22	0x00000000	0.0
23	0x3d463f23	0.048400056
24	0x00000000	0.0
25	0x3e025a57	0.12729774
26	0x3c9ee8ab	0.019398054
27	0x3d0991eb	0.033586424
28	0x00000000	0.0
29	0x00000000	0.0
30	0x3e141e66	0.14464721
31	0x3daf5558	0.085612
32	0x3c50f421	0.012753517
33	0x00000000	0.0
34	0x3d870c73	0.065941714
35	0x3d8e120f	0.06937038
36	0x3d28f22c	0.041246578
37	0x3cdf6e29	0.027274208
38	0x3d9ff444	0.07810262
39	0x3de9c62b	0.11414751
40	0x3a4bab73	0.00077693834
41	0x3c5122ea	0.012764672
42	0x3d23e845	0.04001643
43	0x3d3b37d1	0.045707528
44	0x3db7368d	0.089459516
45	0x3bcc40ae	0.0062332964
46	0x3d409bd0	0.047023594
47	0x3e0331af	0.12811922
48	0x3d2e3f8f	0.042541083
49	0x00000000	0.0
50	0x00000000	0.0
51	0x3d628f22	0.055312283
52	0x00000000	0.0
53	0x00000000	0.0
54	0x00000000	0.0
55	0x00000000	0.0
56	0x3d149193	0.036271643
57	0x3c95628a	0.018235464
58	0x3c5cd1b9	0.013477736
59	0x00000000	0.0
60	0x3bf8371d	0.0075749294
61	0x3e99b9a0	0.30024433
62	0x3cd1a6e5	0.025592277
63	0x3d909fcf	0.07061731
64	0x3d7d70a6	0.061875008
65	0x00000000	0.0
66	0x3dc6ab73	0.0970067
67	0x3d8432aa	0.06454976
68	0x00000000	0.0
69	0x00000000	0.0
70	0x00000000	0.0
71	0x3ddf34a2	0.10898711
72	0x00000000	0.0
73	0x3d8d0e26	0.06887464
74	0x3daefb42	0.085440174
75	0x00000000	0.0
76	0x00000000	0.0
77	0x3cfb6415	0.030687371
78	0x3da70964	0.08156088
79	0x3d983af0	0.074331164
80	0x3bad9303	0.005297066
81	0x3c058df5	0.008151521
82	0x3da55622	0.08073069
83	0x3da1af4e	0.07894765
84	0x3c0370dd	0.008022514
85	0x3db61a5a	0.08891745
86	0x3c426b57	0.011866412
87	0x3e3d5181	0.18488123
88	0x00000000	0.0
89	0x3dcfc113	0.10144248
90	0x3e2010ff	0.15631483
91	0x00000000	0.0
92	0x00000000	0.0
93	0x00000000	0.0
94	0x39ace851	0.00032979486
95	0x3d306844	0.043068185
96	0x3dd2dd91	0.10296167
97	0x3cab839a	0.020936776
98	0x3dd24382	0.10266782
99	0x3c9bb5c2	0.019007567
100	0x00000000	0.0
101	0x00000000	0.0
102	0x3dd996e7	0.106244855
103	0x3ddf0b8f	0.108908765
104	0x3d830f25	0.06399373
105	0x3d7f572b	0.06233899
106	0x3d72133d	0.05910038
107	0x3df1b675	0.11802379
108	0x00000000	0.0
109	0x3df350f7	0.11880677
110	0x00000000	0.0
111	0x3d1764ee	0.03696149
112	0x3d0f1738	0.034934253
113	0x3dd20349	0.10254533
114	0x3dd156e3	0.102216505
115	0x00000000	0.0
116	0x3bffe0c4	0.0078087766
117	0x3de0950a	0.10965927
118	0x3d0461a9	0.0323197
119	0x00000000	0.0
120	0x3dd2731c	0.102758616
121	0x3de249d6	0.11049239
122	0x3d161371	0.036639635
123	0x3cb20786	0.021732103
124	0x3dfaddc4	0.1224933
125	0x3d80f325	0.06296376
126	0x3d2b63b0	0.041843116
127	0x3d1e15d7	0.038595047
128	0x3dc573ec	0.09641251
129	0x00000000	0.0
130	0x00000000	0.0
131	0x3ca797a8	0.020458058
132	0x3ba3e295	0.005001376
133	0x3db71b1d	0.08940718
134	0x3e04be48	0.12963212
135	0x3e02dd1a	0.12779656
136	0x3d961a0f	0.07329189
137	0x3c6c7354	0.014431793
138	0x3e191f96	0.14953455
139	0x3c04eefe	0.008113621
140	0x00000000	0.0
141	0x00000000	0.0
142	0x3d6b668d	0.057470847
143	0x3e11c3a4	0.14234787
144	0x3e1541e3	0.14575915
145	0x00000000	0.0
146	0x3dbf1ebe	0.093320355
147	0x3b1f35b3	0.0024293482
148	0x3dd5cefd	0.104398705
149	0x3ca84a39	0.020543205
150	0x3c094351	0.008377866
151	0x3c1aae9e	0.009441046
152	0x3bd5b0c2	0.0065213153
153	0x3d638cf7	0.055554356
154	0x3d95b435	0.073097624
155	0x3dfb83de	0.12281011
156	0x3b0a84b8	0.0021136235
157	0x3b477dcc	0.003043997
158	0x3c9f0fc5	0.0194167
159	0x3cadb18b	0.021202823
160	0x3b7b6418	0.003835922
161	0x3d38e81b	0.045143228
162	0x3d751bda	0.059841014
163	0x3d322599	0.043492887
164	0x3da72b5d	0.08162568
165	0x3db1e3e6	0.08686046
166	0x3d06748b	0.032825988
167	0x3cf3d384	0.029763944
168	0x3dd3ab47	0.10335403
169	0x3de3d7ac	0.111251205
170	0x3b2d45a3	0.0026439212
171	0x3c9d0dc4	0.019171603
172	0x3b989ee5	0.0046576136
173	0x3cfb1e6e	0.030654158
174	0x00000000	0.0
175	0x3bb5cc4d	0.005548036
176	0x3bd09984	0.0063659567
177	0x3d74bf61	0.059752826
178	0x3c28ccbf	0.0103027215
179	0x3d81eb48	0.063437045
180	0x3c064165	0.008194302
181	0x3d79cb00	0.06098461
182	0x3dabe0f7	0.08392518
183	0x3d813716	0.06309335
184	0x3d7d4e7f	0.061842438
185	0x00000000	0.0
186	0x00000000	0.0
187	0x3d40c059	0.047058437
188	0x00000000	0.0
189	0x3b829de4	0.003986107
190	0x3ab906f0	0.0014116447
191	0x3daeac53	0.08528962
192	0x00000000	0.0
193	0x3d947da9	0.0725053
194	0x00000000	0.0
195	0x3cd8f569	0.026484208
196	0x3cf67a90	0.03008774
197	0x3d7e09f2	0.062021203
198	0x3b4c7efb	0.0031203616
199	0x3e2b5499	0.1673149
200	0x00000000	0.0
201	0x3b6b0c39	0.003586544
202	0x3cc068d0	0.023487478
203	0x3cf85469	0.030313687
204	0x00000000	0.0
205	0x00000000	0.0
206	0x3c3b687e	0.011438487
207	0x3cb5c736	0.022189718
208	0x3c469bac	0.012122076
209	0x3c0bbb24	0.0085285045
210	0x00000000	0.0
211	0x3c4e5025	0.01259235
212	0x3dad5232	0.08462943
213	0x3d3abea6	0.045591973
214	0x00000000	0.0
215	0x3c4dc670	0.012559518
216	0x3ba22e81	0.0049493914
217	0x3d3662b1	0.044527713
218	0x3d495288	0.049150974
219	0x3a9db054	0.0012030699
220	0x3d2a39b1	0.041558925
221	0x3d3effd4	0.046630695
222	0x3ae8dd88	0.0017766217
223	0x00000000	0.0
224	0x3d442574	0.04788728
225	0x3d8ec0ab	0.06970342
226	0x3d57516e	0.05256789
227	0x3d775924	0.060387745
228	0x00000000	0.0
229	0x00000000	0.0
230	0x3ccd4546	0.025057446
231	0x3c7b3664	0.015332792
232	0x3d2a70e7	0.04161158
233	0x00000000	0.0
234	0x39c27a8e	0.00037093874
235	0x3d8679cd	0.065662004
236	0x3d86efe2	0.06588723
237	0x3e1e7fa4	0.15478379
238	0x3d1f5848	0.03890255
239	0x3d345ed9	0.044035766
240	0x3e0488b6	0.12942776
241	0x3c9e75cd	0.019343281
242	0x3c8856a2	0.016642872
243	0x3cdb1eb7	0.026748044
244	0x3caf603f	0.021408198
245	0x3da31f78	0.079649866
246	0x3c8753f0	0.016519517
247	0x3bac25be	0.0052535227
248	0x3dfc79b0	0.123278975
249	0x00000000	0.0
250	0x3d9ad8db	0.07560893
251	0x3d45d469	0.048298273
252	0x3b541807	0.0032362954
253	0x00000000	0.0
254	0x3cdf7573	0.027277684
255	0x39442b60	0.00018708175
