assets/dwight.safetensors (safetensors, 164892 bytes, 5 tensors)

gen_embedding f4 [1, 192]
0	0xbea6efc8	-0.32604814
1	0xbf853900	-1.040802
2	0x3f19723c	0.5993993
3	0xbf01b490	-0.5066614
4	0x3ebeb732	0.37249142
5	0xbf927f33	-1.1445068
6	0xbdaa4fb2	-0.08315982
7	0x3ea369dd	0.31916705
8	0xbec04d35	-0.37558904
9	0x3fc9ad61	1.5756036
10	0xbfa139db	-1.2595781
11	0xbf37fb1d	-0.71867543
12	0xbf1341ab	-0.57522076
13	0x3d8e2b77	0.06941884
14	0xbd569dba	-0.052396514
15	0x3f0e518e	0.5559319
16	0x3fc8da6c	1.5691657
17	0x3fa4fbd7	1.2889355
18	0xbd1a03d6	-0.037601314
19	0xbdedac51	-0.11605132
20	0x3dd46008	0.10369879
21	0x3f301943	0.68788546
22	0xbf0562af	-0.52103704
23	0xbfb4f282	-1.4136508
24	0x3fb44f56	1.4086711
25	0xbea249ff	-0.3169708
26	0xbf8109e8	-1.0081148
27	0x3fa5c422	1.295048
28	0xbfa9fd53	-1.3280433
29	0x3ef43897	0.47699425
30	0xbba70c76	-0.005097921
31	0xbf43c9b7	-0.7647967
32	0x3eadcfd4	0.33947623
33	0x3f2dcf62	0.67894566
34	0xbfb9a3b2	-1.4503081
35	0xbf7a8bb1	-0.978694
36	0xbe9392a8	-0.28822827
37	0xbf2ac814	-0.66711545
38	0xbe912fda	-0.2835682
39	0x3fcd83e1	1.6055871
40	0x3e5ea6fe	0.2174339
41	0x3e40e847	0.18838607
42	0xbf2f36b0	-0.6844282
43	0xbefde2e4	-0.49587166
44	0xbdcd2060	-0.10015941
45	0xbf91e7b3	-1.1398834
46	0x3ecd92a9	0.40150955
47	0x3c8c0705	0.01709319
48	0x3f26da3f	0.6517677
49	0xbe28e4fa	-0.16493598
50	0xbeb4b301	-0.3529282
51	0xbf88d459	-1.0689803
52	0x3f7fce40	0.9992409
53	0x3d6eb3e6	0.058277033
54	0xbc5bee0e	-0.013423456
55	0xbe4a200c	-0.19738787
56	0x3e8ff93c	0.28119838
57	0xbe464ba0	-0.19364786
58	0xbf794522	-0.97371113
59	0x3f5abe3f	0.8544654
60	0xbf0accf2	-0.5421897
61	0x3ea0db8c	0.314175
62	0xbf568ca8	-0.83808374
63	0x3e5535ee	0.20821354
64	0xbf55b406	-0.8347782
65	0x3f646848	0.8922162
66	0xbf8057b3	-1.0026764
67	0xbeaab219	-0.33339003
68	0xbe392be3	-0.18083148
69	0x3f173f39	0.59080845
70	0x3e277eb4	0.16356927
71	0x3f41e4b1	0.7573958
72	0x3e80ea2d	0.25178662
73	0x3f85f5dd	1.0465657
74	0xbf89ed0b	-1.0775465
75	0xbfb7e67a	-1.4367211
76	0xbe009a06	-0.12558755
77	0x3d02859f	0.031865712
78	0x3f3c3742	0.73521817
79	0x3fda134f	1.7037143
80	0x3ed359f1	0.41279557
81	0xbf4afd71	-0.7929297
82	0xbe4b063f	-0.19826601
83	0xbeb5d404	-0.35513318
84	0xbbb9505f	-0.005655333
85	0xbf6c6a31	-0.92349535
86	0x3fd71826	1.6804245
87	0xbfc6d8e1	-1.5534936
88	0xbf52ca1c	-0.82339644
89	0xbef78ba4	-0.48348725
90	0x3e9bc566	0.3042404
91	0x3da534be	0.080667004
92	0xbcbafe3a	-0.022826303
93	0xbf23e6f1	-0.64024264
94	0xbf5dabea	-0.86590445
95	0xbe593f1c	-0.2121548
96	0x3e9a6b8b	0.30160174
97	0xbe83d2e9	-0.2574685
98	0xbdd126cb	-0.10212477
99	0xbee00098	-0.43750453
100	0xbd0feedd	-0.035139907
101	0xbf61e73e	-0.8824347
102	0xbf3503c3	-0.70708865
103	0x3ce6fe20	0.028197348
104	0xbe54cb88	-0.20780766
105	0xbf087df2	-0.5331718
106	0x3f3ebc8e	0.7450646
107	0x3fc8f0da	1.5698502
108	0x3fa50d44	1.2894673
109	0x3ec2f9ca	0.380812
110	0xbf8eca52	-1.1155493
111	0xbdc86d86	-0.09786515
112	0xbf9be7fd	-1.2180172
113	0xbf8b35c2	-1.087578
114	0x3dc96896	0.09834401
115	0x3f3d6610	0.7398386
116	0x3f22e5f1	0.6363211
117	0xbf200d77	-0.62520546
118	0x3de139b9	0.10997338
119	0x3fa0dfce	1.25683
120	0xbdb8e878	-0.09028715
121	0xbefc8c6f	-0.49325892
122	0xbef9f819	-0.48822096
123	0xbf1470df	-0.5798473
124	0xbe990ecb	-0.298941
125	0xbfa22836	-1.2668521
126	0xbf3e1853	-0.74255866
127	0xbf0c55d8	-0.5481849
128	0xbf8e8582	-1.1134493
129	0xbfbc9ab2	-1.4734709
130	0xbf2ec00d	-0.68261796
131	0x3ebf08cd	0.37311402
132	0xbe488405	-0.19581611
133	0x3fcfae1f	1.6225013
134	0xbde3d154	-0.111239105
135	0xbd6a903e	-0.057266466
136	0x3ed90261	0.42384627
137	0xbf861eeb	-1.0478185
138	0xbc475cd7	-0.012168131
139	0xbed689d9	-0.41902044
140	0x40073627	2.1126802
141	0xbe98be2b	-0.29832587
142	0xbd52d827	-0.05147567
143	0xbe940b09	-0.2891467
144	0xbf672cb5	-0.9030259
145	0x3f2ee981	0.6832505
146	0x3f8019ce	1.0007875
147	0xbce31fcd	-0.027725125
148	0xbf426812	-0.7594005
149	0xbf15fb23	-0.5858633
150	0xbf874598	-1.0568113
151	0x3f693494	0.9109585
152	0x3fb22121	1.391636
153	0xbea2772f	-0.31731555
154	0xbf15ada1	-0.5846806
155	0xbf48708c	-0.7829673
156	0xbed114e2	-0.40836245
157	0xbfa566d5	-1.2922007
158	0x3f2fa14d	0.686055
159	0xbf08711f	-0.5329761
160	0xbff560c0	-1.9170151
161	0x3f394252	0.7236682
162	0x3fb3f19d	1.405811
163	0xbf955582	-1.166672
164	0x3f69d55c	0.91341186
165	0x3f500aea	0.81266654
166	0x3f681106	0.90650976
167	0xbfaea196	-1.3643062
168	0xbf0c4e0a	-0.5480658
169	0xbf84b3ed	-1.0367409
170	0xbdbd301e	-0.09237693
171	0x3f3b0801	0.7305909
172	0xbea40897	-0.32037804
173	0x3ed6ab9a	0.41927797
174	0x3f3763ff	0.71636957
175	0x3ece52ff	0.40297696
176	0xbeac50e8	-0.33655477
177	0x3f0a29a2	0.53969777
178	0x3ebf0b16	0.37313145
179	0x3e0e975d	0.13924928
180	0xbf93b17f	-1.1538543
181	0xbfb989b5	-1.449515
182	0xbf995e52	-1.1981909
183	0x3f844b04	1.0335393
184	0xbf1d0ea1	-0.61350447
185	0x3eab6412	0.33474785
186	0xbee7f9a6	-0.45307654
187	0xbe3d2a1c	-0.18473095
188	0x3f0d25b7	0.55135673
189	0xbe37f33f	-0.17963885
190	0x3f137814	0.576051
191	0x3d013c7a	0.031551816

gen_prompt_feat f4 [1, 500, 80]
0	0xc1080679	-8.50158
1	0xc10b0c9b	-8.6905775
2	0xc10950a6	-8.58219
3	0xc10c86d4	-8.782917
4	0xc11c0cbb	-9.753108
5	0xc119aa69	-9.604104
6	0xc11c2472	-9.758898
7	0xc12187b1	-10.095628
8	0xc12250b2	-10.144701
9	0xc12663f7	-10.3994055
10	0xc12774ca	-10.466013
11	0xc1255f0d	-10.335706
12	0xc1279e81	-10.476197
13	0xc130afaf	-11.0428915
14	0xc133177b	-11.193233
15	0xc134dae4	-11.30344
16	0xc1371715	-11.443135
17	0xc1293bca	-10.577097
18	0xc127c536	-10.485647
19	0xc12c3c57	-10.764731
20	0xc124fdb2	-10.311937
21	0xc11df752	-9.872881
22	0xc1292cef	-10.57347
23	0xc12924ec	-10.571514
24	0xc1270dce	-10.44087
25	0xc1275fb7	-10.460868
26	0xc126c992	-10.4242115
27	0xc12413be	-10.25482
28	0xc12e7c81	-10.905396
29	0xc12dc4c0	-10.860535
30	0xc12fcedf	-10.988006
31	0xc126fde0	-10.436981
32	0xc1263ec2	-10.390322
33	0xc1288867	-10.533301
34	0xc11eb5c6	-9.919378
35	0xc120a13d	-10.039365
36	0xc12578a6	-10.341955
37	0xc11f4d6f	-9.956405
38	0xc1242d87	-10.261115
39	0xc1168f13	-9.40993
40	0xc11e3658	-9.8882675
41	0xc12c9b33	-10.78789
42	0xc12c1a35	-10.756398
43	0xc127dd51	-10.491532
44	0xc128c26b	-10.547465
45	0xc12a8418	-10.657249
46	0xc123d060	-10.238373
47	0xc12adf20	-10.679474
48	0xc12920ec	-10.570538
49	0xc121d462	-10.114351
50	0xc121f8df	-10.12326
51	0xc124d6c1	-10.30243
52	0xc12db0fc	-10.855709
53	0xc129afe2	-10.60544
54	0xc12ad154	-10.6761055
55	0xc1257897	-10.341941
56	0xc12578ff	-10.34204
57	0xc127dca5	-10.491368
58	0xc1241f10	-10.257584
59	0xc122243b	-10.133845
60	0xc11ecae1	-9.924531
61	0xc1219c76	-10.100698
62	0xc1213441	-10.075257
63	0xc1290023	-10.562533
64	0xc12fefc2	-10.996035
65	0xc1314a39	-11.080621
66	0xc12dc21a	-10.859888
67	0xc12f1858	-10.943443
68	0xc132d636	-11.177298
69	0xc134236a	-11.258646
70	0xc1350485	-11.313603
71	0xc136765b	-11.403895
72	0xc13096f2	-11.036852
73	0xc12d43f3	-10.829089
74	0xc12b569f	-10.708648
75	0xc1330ca8	-11.19059
76	0xc13366d8	-11.212608
77	0xc12f3ead	-10.952802
78	0xc1329ccf	-11.163283
79	0xc12eed9d	-10.933011
80	0xc1013517	-8.075461
81	0xc10a48d5	-8.642781
82	0xc10669e4	-8.400852
83	0xc10c29e8	-8.760231
84	0xc117a50e	-9.477797
85	0xc117b8fe	-9.482664
86	0xc115a22b	-9.352092
87	0xc11783c8	-9.469673
88	0xc11f22dc	-9.946011
89	0xc11f7337	-9.965629
90	0xc114e3a7	-9.305579
91	0xc1117523	-9.091098
92	0xc112c18b	-9.172252
93	0xc11974fe	-9.591063
94	0xc11164f8	-9.087151
95	0xc10a4397	-8.641501
96	0xc1077f3c	-8.468563
97	0xc10c09ec	-8.752422
98	0xc1135156	-9.207357
99	0xc10cf860	-8.810638
100	0xc109dae5	-8.615941
101	0xc107f4dc	-8.49728
102	0xc0fca7d2	-7.895486
103	0xc102c069	-8.171975
104	0xc118edb6	-9.558035
105	0xc1185096	-9.519674
106	0xc10bbf2c	-8.734173
107	0xc108a9c2	-8.541445
108	0xc105efc2	-8.371035
109	0xc111f0be	-9.121275
110	0xc1034510	-8.204361
111	0xc0fbce8f	-7.8689647
112	0xc0ffbf24	-7.9920826
113	0xc0ffb6fc	-7.991087
114	0xc0f8861a	-7.76637
115	0xc0e5f321	-7.185929
116	0xc0e28e50	-7.079872
117	0xc0e2faba	-7.0931063
118	0xc0e12a09	-7.0363812
119	0xc0e7d1ec	-7.244375
120	0xc0f6c29d	-7.7112565
121	0xc109ba5c	-8.607998
122	0xc10ec73a	-8.923639
123	0xc10beabe	-8.74481
124	0xc10516cb	-8.318065
125	0xc1005afd	-8.022214
126	0xc10b4607	-8.7045965
127	0xc1107a59	-9.02987
128	0xc110f764	-9.060398
129	0xc112e551	-9.180985
130	0xc11464d3	-9.274615
131	0xc11486ba	-9.282892
132	0xc1145d0f	-9.272719
133	0xc117bd37	-9.483695
134	0xc11432e1	-9.262422
135	0xc11a96db	-9.66183
136	0xc11a3db3	-9.640063
137	0xc11cb14e	-9.793287
138	0xc11e82bb	-9.906917
139	0xc1157222	-9.340364
140	0xc1115fc8	-9.085884
141	0xc1153fd4	-9.328083
142	0xc11651c8	-9.394966
143	0xc1244cfb	-10.268794
144	0xc12a413d	-10.640927
145	0xc12801d5	-10.500447
146	0xc12c82e1	-10.781953
147	0xc12e9c52	-10.913164
148	0xc126ea4c	-10.432201
149	0xc1278f02	-10.472414
150	0xc124fbc7	-10.311469
151	0xc131b198	-11.105858
152	0xc12b7b97	-10.717673
153	0xc12795b4	-10.474049
154	0xc12c4127	-10.765906
155	0xc12ff8ca	-10.9982395
156	0xc12ce220	-10.805206
157	0xc12b46d8	-10.704796
158	0xc12d0a9e	-10.815092
159	0xc12a8954	-10.658527
160	0xc10362f4	-8.2116585
161	0xc1054171	-8.328477
162	0xc0f6b824	-7.709978
163	0xc0f10b2e	-7.5326147
164	0xc111ead1	-9.119828
165	0xc10ceb42	-8.807436
166	0xc106feae	-8.437178
167	0xc1022657	-8.13436
168	0xc104cb1c	-8.299587
169	0xc0faa3b1	-7.832482
170	0xc0e8fce9	-7.280873
171	0xc0e0f747	-7.030185
172	0xc0e36b76	-7.106868
173	0xc0ed9876	-7.424861
174	0xc0dea6fd	-6.9578843
175	0xc0ed999b	-7.4250007
176	0xc0efbbf8	-7.4916954
177	0xc0fc39b2	-7.882043
178	0xc0f575ba	-7.670621
179	0xc0fbf61d	-7.873793
180	0xc0f4d5f1	-7.651116
181	0xc0f5f1d0	-7.685768
182	0xc0de069f	-6.9383082
183	0xc0d8e519	-6.777966
184	0xc0ebabb0	-7.364708
185	0xc1000d65	-8.00327
186	0xc0fca1b2	-7.894738
187	0xc0dee7e8	-6.965809
188	0xc0d651fa	-6.697507
189	0xc0e39bcf	-7.1127696
190	0xc0e3ce63	-7.1189437
191	0xc0da411e	-6.820449
192	0xc0e11069	-7.033253
193	0xc0db4896	-6.8526106
194	0xc0b4badb	-5.6478095
195	0xc0a901fc	-5.281492
196	0xc09f132b	-4.97109
197	0xc09ee486	-4.965396
198	0xc094956b	-4.6432395
199	0xc0a27572	-5.0768366
200	0xc0c30cb7	-6.095302
201	0xc0eb30e3	-7.3497176
202	0xc0e4a99b	-7.145704
203	0xc0e2c22c	-7.0862026
204	0xc0e73fc0	-7.226532
205	0xc0e3754b	-7.108068
206	0xc0e95617	-7.291759
207	0xc0f30d93	-7.595407
208	0xc0fb24ab	-7.848226
209	0xc0f6f6a3	-7.717607
210	0xc0fa01e5	-7.8127313
211	0xc1041e81	-8.257447
212	0xc103709f	-8.214995
213	0xc100d9a4	-8.053135
214	0xc102c844	-8.173893
215	0xc100d77c	-8.0526085
216	0xc1051d86	-8.319708
217	0xc1084f20	-8.519318
218	0xc104d714	-8.302509
219	0xc1001151	-8.004228
220	0xc1035231	-8.207566
221	0xc10970ad	-8.590009
222	0xc10a5545	-8.645818
223	0xc1180274	-9.500599
224	0xc117b59d	-9.481839
225	0xc11e321d	-9.887235
226	0xc123704c	-10.214916
227	0xc129bab2	-10.60808
228	0xc12357cd	-10.208936
229	0xc121aaf2	-10.104235
230	0xc12306aa	-10.189127
231	0xc12b53a4	-10.70792
232	0xc12872ed	-10.528058
233	0xc127b165	-10.480809
234	0xc12aa209	-10.664559
235	0xc1252092	-10.320452
236	0xc1280999	-10.502343
237	0xc1264023	-10.390658
238	0xc129c83c	-10.611385
239	0xc125f99b	-10.373439
240	0xc1012d3f	-8.073546
241	0xc0f96927	-7.794086
242	0xc0f57dd7	-7.6716113
243	0xc0e4c130	-7.1485825
244	0xc108383f	-8.513732
245	0xc0fb0b6c	-7.8451443
246	0xc0fa5e84	-7.8240376
247	0xc0eea4c7	-7.4576144
248	0xc0f83c25	-7.757342
249	0xc0e87e74	-7.265436
250	0xc0e02e58	-7.005657
251	0xc0d0b79f	-6.5224147
252	0xc0d0020a	-6.500249
253	0xc0dfa5d2	-6.9889917
254	0xc0ce2224	-6.4416676
255	0xc0df5cd5	-6.980082

gen_prompt_token i4 [1, 250]
0	0x00000e66	3686
1	0x0000079e	1950
2	0x00000e40	3648
3	0x00000e43	3651
4	0x000006fc	1788
5	0x00000519	1305
6	0x000014da	5338
7	0x00001276	4726
8	0x00000a07	2567
9	0x00000230	560
10	0x00000d89	3465
11	0x00000b94	2964
12	0x00001432	5170
13	0x00001290	4752
14	0x00000f72	3954
15	0x00000e86	3718
16	0x00000459	1113
17	0x00001479	5241
18	0x00000889	2185
19	0x000002a8	680
20	0x00000332	818
21	0x0000027d	637
22	0x00000e5f	3679
23	0x000017a0	6048
24	0x00001893	6291
25	0x000010fb	4347
26	0x00000884	2180
27	0x000015cd	5581
28	0x000015cc	5580
29	0x000006c6	1734
30	0x00001893	6291
31	0x00001935	6453
32	0x00001986	6534
33	0x00000788	1928
34	0x00000161	353
35	0x000007fe	2046
36	0x000005c4	1476
37	0x00000020	32
38	0x0000031e	798
39	0x00000042	66
40	0x00000980	2432
41	0x00000bc7	3015
42	0x000005c8	1480
43	0x00000efc	3836
44	0x000010d7	4311
45	0x000000cb	203
46	0x00000076	118
47	0x0000123f	4671
48	0x000002ca	714
49	0x00000227	551
50	0x000005c8	1480
51	0x000007c2	1986
52	0x00000e40	3648
53	0x00001177	4471
54	0x000003b4	948
55	0x0000057c	1404
56	0x00001012	4114
57	0x00000003	3
58	0x00000936	2358
59	0x00000b26	2854
60	0x00000852	2130
61	0x0000014e	334
62	0x000003a8	936
63	0x000008ea	2282
64	0x000012bb	4795
65	0x000012de	4830
66	0x00000bc5	3013
67	0x0000107a	4218
68	0x0000107a	4218
69	0x0000107a	4218
70	0x00000f33	3891
71	0x000016cb	5835
72	0x00000f33	3891
73	0x00000f36	3894
74	0x00001029	4137
75	0x00000f3d	3901
76	0x00001495	5269
77	0x0000094e	2382
78	0x000003cf	975
79	0x00001894	6292
80	0x00000282	642
81	0x000016ac	5804
82	0x000000fe	254
83	0x0000000b	11
84	0x0000070b	1803
85	0x000004f5	1269
86	0x00000044	68
87	0x000005ca	1482
88	0x00000200	512
89	0x00000776	1910
90	0x0000058a	1418
91	0x0000067a	1658
92	0x000002ff	767
93	0x00000709	1801
94	0x000010da	4314
95	0x000013c6	5062
96	0x00001678	5752
97	0x00000c23	3107
98	0x000006f9	1785
99	0x000000a2	162
100	0x00000804	2052
101	0x000010aa	4266
102	0x000003c8	968
103	0x0000014a	330
104	0x000000a5	165
105	0x00000026	38
106	0x00001248	4680
107	0x0000085e	2142
108	0x00001112	4370
109	0x00000c05	3077
110	0x000003c2	962
111	0x00000764	1892
112	0x000010fd	4349
113	0x00000e8f	3727
114	0x000016cb	5835
115	0x000016cd	5837
116	0x00001535	5429
117	0x0000058e	1422
118	0x00000071	113
119	0x0000098f	2447
120	0x00000f9b	3995
121	0x00000104	260
122	0x000007ba	1978
123	0x00000209	521
124	0x00000aee	2798
125	0x00000320	800
126	0x000007e2	2018
127	0x000010a5	4261
128	0x00000214	532
129	0x00000951	2385
130	0x0000186f	6255
131	0x00000967	2407
132	0x000008d7	2263
133	0x000011a1	4513
134	0x000006ea	1770
135	0x0000114c	4428
136	0x00001402	5122
137	0x00001442	5186
138	0x00000bc0	3008
139	0x00000fe4	4068
140	0x00000b21	2849
141	0x0000079f	1951
142	0x00000da3	3491
143	0x0000162e	5678
144	0x0000136c	4972
145	0x00001986	6534
146	0x00001986	6534
147	0x0000100a	4106
148	0x000017aa	6058
149	0x00000f17	3863
150	0x000007ba	1978
151	0x000007bb	1979
152	0x00000b24	2852
153	0x000013b8	5048
154	0x00001912	6418
155	0x00001822	6178
156	0x00001965	6501
157	0x00000482	1154
158	0x000012ce	4814
159	0x00001328	4904
160	0x000005d4	1492
161	0x000007a2	1954
162	0x000015d7	5591
163	0x000009e2	2530
164	0x00000ea3	3747
165	0x0000002c	44
166	0x000006ab	1707
167	0x00001029	4137
168	0x00001029	4137
169	0x000006ad	1709
170	0x000012b2	4786
171	0x00001498	5272
172	0x00000867	2151
173	0x000010b3	4275
174	0x00001105	4357
175	0x00001991	6545
176	0x000018a7	6311
177	0x00000c4d	3149
178	0x00000ac1	2753
179	0x000008ac	2220
180	0x0000193b	6459
181	0x000002fd	765
182	0x00000023	35
183	0x00000074	116
184	0x000003f8	1016
185	0x000006bf	1727
186	0x000006be	1726
187	0x0000079f	1951
188	0x00001029	4137
189	0x000007a7	1959
190	0x000010de	4318
191	0x000010f8	4344
192	0x000013de	5086
193	0x000003ba	954
194	0x000008bc	2236
195	0x00001718	5912
196	0x00001527	5415
197	0x00000ced	3309
198	0x000006a1	1697
199	0x0000068c	1676
200	0x00000e56	3670
201	0x000002f0	752
202	0x0000116f	4463
203	0x000013c8	5064
204	0x000000bb	187
205	0x0000084f	2127
206	0x00000637	1591
207	0x00001332	4914
208	0x00001332	4914
209	0x00000404	1028
210	0x00000764	1892
211	0x00000efc	3836
212	0x0000178f	6031
213	0x0000178e	6030
214	0x000006a8	1704
215	0x00001905	6405
216	0x00001029	4137
217	0x00001029	4137
218	0x0000107a	4218
219	0x00000825	2085
220	0x00000868	2152
221	0x00000790	1936
222	0x000001cd	461
223	0x000010be	4286
224	0x000008c6	2246
225	0x00001250	4688
226	0x00000376	886
227	0x000002db	731
228	0x00000145	325
229	0x00001612	5650
230	0x000011f5	4597
231	0x000003a5	933
232	0x00000695	1685
233	0x00001111	4369
234	0x00000f2c	3884
235	0x000000e0	224
236	0x00000b30	2864
237	0x0000168d	5773
238	0x00001086	4230
239	0x00000002	2
240	0x0000121a	4634
241	0x00001262	4706
242	0x00000c18	3096
243	0x0000177f	6015
244	0x00000f96	3990
245	0x00001074	4212
246	0x0000107a	4218
247	0x00001029	4137
248	0x0000107a	4218
249	0x000006b2	1714

t3_cond_prompt_speech_tokens i4 [1, 373]
0	0x00000e66	3686
1	0x0000079e	1950
2	0x00000e40	3648
3	0x00000e43	3651
4	0x000006fc	1788
5	0x00000519	1305
6	0x000014da	5338
7	0x00001225	4645
8	0x00000a07	2567
9	0x00000230	560
10	0x00000d89	3465
11	0x00000baf	2991
12	0x00001432	5170
13	0x00001290	4752
14	0x000017fd	6141
15	0x00000e86	3718
16	0x00000459	1113
17	0x00001479	5241
18	0x00000889	2185
19	0x000002a8	680
20	0x00000059	89
21	0x00000286	646
22	0x00000e5e	3678
23	0x000017a0	6048
24	0x00001893	6291
25	0x000010fb	4347
26	0x00000884	2180
27	0x000015cd	5581
28	0x000015cc	5580
29	0x000006c6	1734
30	0x00001893	6291
31	0x00001935	6453
32	0x00001986	6534
33	0x00000788	1928
34	0x00000161	353
35	0x000007fe	2046
36	0x000005c4	1476
37	0x00000020	32
38	0x0000031e	798
39	0x00000042	66
40	0x000000f5	245
41	0x00000bc7	3015
42	0x000005c8	1480
43	0x00000efc	3836
44	0x000010d7	4311
45	0x000000cb	203
46	0x00000076	118
47	0x0000123f	4671
48	0x000002ca	714
49	0x00000227	551
50	0x000005c7	1479
51	0x000004e9	1257
52	0x00000e43	3651
53	0x00001177	4471
54	0x000003b4	948
55	0x0000057c	1404
56	0x00001012	4114
57	0x00000003	3
58	0x0000093a	2362
59	0x00000a33	2611
60	0x00000852	2130
61	0x0000014e	334
62	0x000003a8	936
63	0x00000899	2201
64	0x000012bb	4795
65	0x000012de	4830
66	0x00000bc4	3012
67	0x0000107a	4218
68	0x0000107a	4218
69	0x0000107a	4218
70	0x00000e40	3648
71	0x000016cb	5835
72	0x00000f33	3891
73	0x00001029	4137
74	0x0000107a	4218
75	0x000006a9	1705
76	0x00001498	5272
77	0x0000094e	2382
78	0x000003cf	975
79	0x00001894	6292
80	0x00000282	642
81	0x000016ac	5804
82	0x000000fe	254
83	0x0000000b	11
84	0x0000070e	1806
85	0x000004f5	1269
86	0x00000044	68
87	0x000005ca	1482
88	0x00000200	512
89	0x00000776	1910
90	0x0000058a	1418
91	0x0000067a	1658
92	0x000002ff	767
93	0x00000709	1801
94	0x000010da	4314
95	0x000013c6	5062
96	0x00001678	5752
97	0x00000c23	3107
98	0x000006fc	1788
99	0x000000a2	162
100	0x000007e9	2025
101	0x000010aa	4266
102	0x000003c8	968
103	0x0000014a	330
104	0x000000a8	168
105	0x00000041	65
106	0x00001248	4680
107	0x0000085e	2142
108	0x00001112	4370
109	0x00000c05	3077
110	0x000003c2	962
111	0x00000764	1892
112	0x0000077f	1919
113	0x00000e8f	3727
114	0x000016cb	5835
115	0x000016cd	5837
116	0x00001535	5429
117	0x0000058e	1422
118	0x00000071	113
119	0x0000098f	2447
120	0x00000f9b	3995
121	0x00000104	260
122	0x000007ba	1978
123	0x00000209	521
124	0x00000263	611
125	0x00000320	800
126	0x000007e2	2018
127	0x000010c0	4288
128	0x00000214	532
129	0x00000951	2385
130	0x0000186f	6255
131	0x00000967	2407
132	0x000008d7	2263
133	0x000011a1	4513
134	0x000006ea	1770
135	0x0000114c	4428
136	0x00001402	5122
137	0x00000bc0	3008
138	0x00000bc0	3008
139	0x00000fe4	4068
140	0x00000b21	2849
141	0x0000079f	1951
142	0x00000da3	3491
143	0x0000162e	5678
144	0x0000136c	4972
145	0x00001986	6534
146	0x00001986	6534
147	0x00000fef	4079
148	0x000017aa	6058
149	0x00000f17	3863
150	0x000007ba	1978
151	0x000007bb	1979
152	0x00000b24	2852
153	0x00001367	4967
154	0x00001912	6418
155	0x00001822	6178
156	0x00001965	6501
157	0x00000482	1154
158	0x000012ce	4814
159	0x00001328	4904
160	0x000005d4	1492
161	0x000007a2	1954
162	0x000015d7	5591
163	0x00000157	343
164	0x00000ea3	3747
165	0x00000305	773
166	0x000006ab	1707
167	0x00001029	4137
168	0x0000107a	4218
169	0x000006ad	1709
170	0x000012b2	4786
171	0x00001498	5272
172	0x00000867	2151
173	0x000010b3	4275
174	0x00001105	4357
175	0x00001991	6545
176	0x000018a7	6311
177	0x00000c4d	3149
178	0x00000ac1	2753
179	0x000008ac	2220
180	0x0000193b	6459
181	0x000002fd	765
182	0x00000023	35
183	0x00000167	359
184	0x0000011f	287
185	0x000006bf	1727
186	0x000006be	1726
187	0x0000079e	1950
188	0x00001029	4137
189	0x000007a7	1959
190	0x000010de	4318
191	0x000010f8	4344
192	0x000013de	5086
193	0x000003ba	954
194	0x000008bc	2236
195	0x0000143f	5183
196	0x00001527	5415
197	0x00000ced	3309
198	0x000006a1	1697
199	0x00000695	1685
200	0x00000ea7	3751
201	0x000002f0	752
202	0x0000116f	4463
203	0x000013c9	5065
204	0x000000bb	187
205	0x0000084f	2127
206	0x00000637	1591
207	0x00001332	4914
208	0x00001332	4914
209	0x00000404	1028
210	0x00000764	1892
211	0x00000efc	3836
212	0x0000178f	6031
213	0x0000178e	6030
214	0x00000f33	3891
215	0x00001905	6405
216	0x00001029	4137
217	0x00001029	4137
218	0x0000107a	4218
219	0x00000825	2085
220	0x00000883	2179
221	0x00000790	1936
222	0x0000017c	380
223	0x000010be	4286
224	0x000008c6	2246
225	0x00001250	4688
226	0x00000376	886
227	0x000002db	731
228	0x0000006d	109
229	0x00001612	5650
230	0x000011a4	4516
231	0x000003a5	933
232	0x00000695	1685
233	0x00000886	2182
234	0x00000f2c	3884
235	0x000000e0	224
236	0x00000b30	2864
237	0x00000e02	3586
238	0x00000f93	3987
239	0x00000002	2
240	0x0000098f	2447
241	0x00001211	4625
242	0x00000c18	3096
243	0x0000177f	6015
244	0x00000f96	3990
245	0x00001023	4131
246	0x0000107a	4218
247	0x00001029	4137
248	0x0000107a	4218
249	0x000007a5	1957
250	0x000007ff	2047
251	0x000007ef	2031
252	0x0000079e	1950
253	0x0000079e	1950
254	0x000007b7	1975
255	0x00000161	353

t3_speaker_emb f4 [1, 256]
0	0x3bd22032	0.0064125294
1	0x00000000	0.0
2	0x3dcb619c	0.09930727
3	0x3d3de352	0.046359368
4	0x3bf180c7	0.007370088
5	0x3d1d497c	0.03840016
6	0x3d045c0c	0.032314345
7	0x3d828d87	0.063746504
8	0x3d2e5a72	0.042566724
9	0x3c18221a	0.009285474
10	0x3dbf3526	0.09336309
11	0x3dc43be1	0.095817335
12	0x3bb1e0d7	0.0054284143
13	0x3c60dc42	0.013724389
14	0x3cd0aee9	0.025474029
15	0x3c9bb837	0.019008739
16	0x3deef702	0.11668207
17	0x3c41b9fb	0.011824126
18	0x3bfc0cb1	0.0076919426
19	0x3c86cde7	0.016455604
20	0x3b7bc1d8	0.00384151
21	0x3d292215	0.04129227
22	0x00000000	0.0
23	0x3e0ee93e	0.13956162
24	0x00000000	0.0
25	0x3dfcb00b	0.12338265
26	0x00000000	0.0
27	0x00000000	0.0
28	0x00000000	0.0
29	0x00000000	0.0
30	0x3e20053d	0.15626998
31	0x3d6f2f11	0.058394495
32	0x00000000	0.0
33	0x3cc86f6b	0.02446719
34	0x3d12983b	0.03578971
35	0x3dbdb402	0.092628494
36	0x3da2dbbc	0.07952067
37	0x3c4052bf	0.011738478
38	0x3d00b5ff	0.031423565
39	0x3c5db0fb	0.013530965
40	0x00000000	0.0
41	0x3caa8a46	0.020817887
42	0x3d0894e0	0.033345103
43	0x3d61e95a	0.055154182
44	0x3b9b1eb1	0.0047338833
45	0x3c938828	0.01800926
46	0x3d0299a1	0.031884793
47	0x3df4651d	0.11933348
48	0x3c467649	0.012113162
49	0x00000000	0.0
50	0x00000000	0.0
51	0x3c97f0f5	0.018547514
52	0x00000000	0.0
53	0x00000000	0.0
54	0x00000000	0.0
55	0x00000000	0.0
56	0x3d0ad174	0.033891156
57	0x3b712573	0.0036796003
58	0x3ce0137c	0.02735304
59	0x3affb223	0.0019508045
60	0x00000000	0.0
61	0x3d8e3071	0.06942833
62	0x3dce145d	0.10062478
63	0x3da60e5b	0.08108207
64	0x3c879b40	0.016553521
65	0x00000000	0.0
66	0x3e1f1862	0.15536645
67	0x3d195385	0.037433166
68	0x3b9a2d8d	0.004705137
69	0x00000000	0.0
70	0x00000000	0.0
71	0x3d599718	0.05312261
72	0x00000000	0.0
73	0x3dd9aaba	0.10628267
74	0x3d96083c	0.07325789
75	0x3c802f63	0.015647596
76	0x00000000	0.0
77	0x3c04a4a9	0.008095899
78	0x3b2750a1	0.0025530236
79	0x3d96adfe	0.07357405
80	0x00000000	0.0
81	0x3b3398c8	0.0027404297
82	0x3dc04f69	0.09390146
83	0x3d512174	0.051057294
84	0x00000000	0.0
85	0x3da1ebc8	0.079063
86	0x3b2b2f0e	0.0026120576
87	0x3db7b74e	0.089705095
88	0x00000000	0.0
89	0x3de11179	0.10989661
90	0x3d88aaa9	0.06673176
91	0x00000000	0.0
92	0x3a20c4ec	0.0006132859
93	0x00000000	0.0
94	0x3c8e42ee	0.017365899
95	0x3ce64050	0.028106838
96	0x3c97aaa9	0.018513994
97	0x3b970676	0.0046089245
98	0x3c4fa9c1	0.01267475
99	0x00000000	0.0
100	0x00000000	0.0
101	0x00000000	0.0
102	0x3d0dd8ea	0.034630693
103	0x3dcd03e0	0.10010505
104	0x3bdbae80	0.0067041516
105	0x3da10190	0.07861626
106	0x3dc6c8af	0.09706246
107	0x3dda29f6	0.10652535
108	0x00000000	0.0
109	0x3e7b192b	0.2452132
110	0x00000000	0.0
111	0x3d71e2b5	0.059054095
112	0x00000000	0.0
113	0x3e0da641	0.13832952
114	0x3d8ab4a7	0.06772738
115	0x00000000	0.0
116	0x3ca68fb0	0.020332187
117	0x3ca1a05f	0.019729791
118	0x3d9e45d2	0.07728161
119	0x00000000	0.0
120	0x3dc0011a	0.0937521
121	0x3e0422c9	0.12903894
122	0x3d835763	0.06413152
123	0x3bb5596c	0.0055343416
124	0x3dcd9b99	0.100394435
125	0x3e387e2f	0.18016885
126	0x380dbd47	3.3793298e-05
127	0x3df29967	0.118456654
128	0x3c30edaf	0.010798856
129	0x00000000	0.0
130	0x3cd4be34	0.025969602
131	0x00000000	0.0
132	0x3d399063	0.045303714
133	0x3dd59863	0.10429456
134	0x3dfceefd	0.12350271
135	0x3dbaec0e	0.09127055
136	0x3d13d520	0.036091924
137	0x3cbbce93	0.02292565
138	0x3d815618	0.06315249
139	0x3d561b8e	0.052272372
140	0x3b84aa06	0.0040485887
141	0x3d84d55f	0.0648601
142	0x3d93ffb9	0.072265096
143	0x3db75b1b	0.08952924
144	0x3e20600c	0.15661639
145	0x3d8d983a	0.069138005
146	0x3deac026	0.11462431
147	0x00000000	0.0
148	0x3e1c2f68	0.15252459
149	0x3cbf5eb0	0.02336058
150	0x3be01a4e	0.0068390733
151	0x3dcb8a8f	0.09938537
152	0x3ad6b34a	0.0016380337
153	0x3c6a3f0d	0.014297259
154	0x3b4c97e9	0.0031218475
155	0x3ddbf068	0.10739213
156	0x00000000	0.0
157	0x00000000	0.0
158	0x3d5f6ceb	0.05454723
159	0x3c4eed4e	0.01262982
160	0x3d14f527	0.036366608
161	0x00000000	0.0
162	0x3dc67c13	0.09691634
163	0x3cb001d0	0.02148524
164	0x3bc779a6	0.0060874997
165	0x3d95a285	0.07306389
166	0x3d0718e9	0.03298274
167	0x3cb611f8	0.022225365
168	0x3d066899	0.032814596
169	0x3d61bf1c	0.055113897
170	0x00000000	0.0
171	0x00000000	0.0
172	0x3decb6b3	0.115582846
173	0x3a40ca32	0.0007354348
174	0x3c909080	0.017647028
175	0x3d4cee27	0.050031807
176	0x3e0b24f4	0.13588315
177	0x3dc57bca	0.096427515
178	0x3cc725fc	0.024310105
179	0x3c8f4a46	0.017491471
180	0x3ce9656a	0.02849074
181	0x3d880428	0.06641418
182	0x00000000	0.0
183	0x3c86649d	0.016405398
184	0x3cc8282e	0.024433222
185	0x00000000	0.0
186	0x00000000	0.0
187	0x3dbbe4d0	0.09174502
188	0x3dd9fc01	0.10643769
189	0x3a63dcdb	0.0008692273
190	0x3c4a515c	0.012348499
191	0x3c69a926	0.01426152
192	0x00000000	0.0
193	0x3d83406d	0.064087726
194	0x00000000	0.0
195	0x3c904a82	0.017613653
196	0x3d9e9531	0.077433
197	0x3e14b17e	0.14520833
198	0x3cfc8703	0.030826097
199	0x3e18dcf8	0.14928043
200	0x3d73f6b8	0.05956146
201	0x3c8956a5	0.016764948
202	0x00000000	0.0
203	0x3ccb5554	0.024820961
204	0x00000000	0.0
205	0x00000000	0.0
206	0x3d4c2200	0.049837112
207	0x3d008163	0.031373393
208	0x3d88c701	0.06678582
209	0x00000000	0.0
210	0x00000000	0.0
211	0x3c485c21	0.0122289965
212	0x3e121e2b	0.1426932
213	0x3dab2a44	0.08357671
214	0x00000000	0.0
215	0x3d84cf71	0.06484879
216	0x3bd71bb3	0.0065645813
217	0x3e2c4190	0.16821885
218	0x3d925f92	0.07147135
219	0x00000000	0.0
220	0x3c75b620	0.014997035
221	0x3c9fa667	0.019488527
222	0x3c42e9c5	0.011896555
223	0x00000000	0.0
224	0x00000000	0.0
225	0x3d971631	0.073772795
226	0x3bc50fc9	0.0060138446
227	0x3d0e379e	0.03472101
228	0x00000000	0.0
229	0x00000000	0.0
230	0x3b9a47b8	0.0047082566
231	0x00000000	0.0
232	0x3ddf71d4	0.10910383
233	0x00000000	0.0
234	0x3d861ee1	0.065488584
235	0x3d631032	0.055435367
236	0x3cc55a90	0.024091035
237	0x3df57891	0.11985887
238	0x3dd53160	0.10409808
239	0x3b9bda26	0.00475623
240	0x3ccb68ae	0.024830189
241	0x3ca7684b	0.020435473
242	0x3cb5c9c1	0.02219093
243	0x3e0b4f77	0.13604532
244	0x00000000	0.0
245	0x3dcb9290	0.09940064
246	0x3dba2874	0.09089747
247	0x3c132999	0.008982086
248	0x3e079118	0.13238943
249	0x3d17d5e8	0.03706923
250	0x3c49dc1f	0.012320547
251	0x3df2ff1b	0.11865064
252	0x3d2e22d6	0.04251369
253	0x00000000	0.0
254	0x3cd7e793	0.02635554
255	0x00000000	0.0
