assets/jerry.safetensors (safetensors, 164900 bytes, 5 tensors)

gen_embedding f4 [1, 192]
0	0xbf54ced5	-0.831281
1	0x3f7a28ce	0.97718513
2	0x3f14c384	0.58110833
3	0xbe896c17	-0.26840279
4	0x3e5e8d3c	0.21733564
5	0xbf6eea00	-0.93325806
6	0xbfcbbabe	-1.5916364
7	0xbfe50a66	-1.7893798
8	0xbeba6de1	-0.36411956
9	0x3fe6f5c9	1.8043758
10	0xbf897bd1	-1.0740911
11	0xbed0eb9a	-0.4080475
12	0xbeb88ec4	-0.36046422
13	0xbf3e3e75	-0.7431405
14	0x3f56d79a	0.8392273
15	0xbfa9fd2e	-1.3280389
16	0x3ff4123e	1.9068067
17	0x3f02196a	0.5082003
18	0xbe7f55d9	-0.24935092
19	0xbeb3167b	-0.3497809
20	0xbec016fa	-0.3751753
21	0x3f9f1b43	1.2430195
22	0xbf67c04d	-0.905278
23	0xbfa66e4c	-1.300241
24	0xbf9adeb8	-1.2099218
25	0x3f9926e7	1.1964997
26	0xbee73831	-0.45160058
27	0x400d7e04	2.2108164
28	0xbfde56dc	-1.7370257
29	0x3f256839	0.64612156
30	0xbf3697c2	-0.71325314
31	0xc019c89d	-2.4028695
32	0x3c19d57b	0.009389277
33	0x3faef271	1.3667737
34	0xbd89938d	-0.06717596
35	0x3eaf6e29	0.34263733
36	0x3f04b69a	0.5184113
37	0xbf007320	-0.50175667
38	0xbf88c21d	-1.0684239
39	0x3f18452f	0.59480566
40	0x3f082e20	0.5319538
41	0xbf006588	-0.50154924
42	0xbefe5d92	-0.49680763
43	0xbe45752b	-0.19282977
44	0xbf53d780	-0.827507
45	0xc000b2a3	-2.0109031
46	0x3eae8de8	0.3409264
47	0xbfcc39d5	-1.5955149
48	0x3e8208b9	0.2539728
49	0xbe5b5302	-0.21418384
50	0x3f8a3317	1.0796841
51	0xbee0c4c0	-0.43900108
52	0x4021946a	2.5246835
53	0xbc897969	-0.016781526
54	0xbe5f54fc	-0.21809763
55	0xbf08ccbb	-0.53437394
56	0xbc8b1749	-0.016978877
57	0xbf87f681	-1.0622102
58	0xbfd2e18e	-1.6475084
59	0x3fa6bf57	1.3027142
60	0xbea0c8c8	-0.31403184
61	0x3af15ce8	0.0018414529
62	0xbf66ea0c	-0.9020088
63	0x3f88396c	1.0642524
64	0xbf8425d9	-1.032405
65	0x3fcb4a8c	1.5882125
66	0xbf4d00b7	-0.80079216
67	0xbefc54f2	-0.49283558
68	0xbe8886ee	-0.26665443
69	0x3f62aaaa	0.8854166
70	0x3f2a8971	0.6661597
71	0x3f16df53	0.58934516
72	0xbf3509cf	-0.7071809
73	0x3e602f73	0.218931
74	0xc04162ad	-3.0216477
75	0xbe9a7cce	-0.30173343
76	0xbeba7f56	-0.36425275
77	0xbdb9f33e	-0.09079598
78	0x3ff80916	1.9377773
79	0x400c1e76	2.1893592
80	0x3f1b9a21	0.6078206
81	0x3dd2c796	0.10291974
82	0x3fb2b0e5	1.3960234
83	0xbf63f755	-0.89049274
84	0x3eaa4246	0.33253688
85	0xbfb1e036	-1.3896549
86	0x3f686c8c	0.9079063
87	0x3f03a21c	0.51419234
88	0xbfb18902	-1.3869936
89	0xbf18739f	-0.59551424
90	0x3eea5eea	0.4577554
91	0x3fb2f118	1.3979826
92	0xbe66c981	-0.22537805
93	0x3ddefbcf	0.108878724
94	0xbfab3e98	-1.3378477
95	0xbfc40137	-1.5312871
96	0x3da6cd22	0.08144595
97	0x3f811dbb	1.0087198
98	0xbecce8b7	-0.40021297
99	0xbe420b8f	-0.18949722
100	0x3fc78deb	1.5590185
101	0xbf7931fa	-0.97341883
102	0xbeab4bdf	-0.33456323
103	0x3ff66be3	1.9251674
104	0xbf9c7007	-1.2221688
105	0xbfc335d7	-1.5250806
106	0x3f5d34a4	0.8640845
107	0x402c794a	2.694903
108	0x3fafd011	1.3735372
109	0x3e38e464	0.18055874
110	0xbfb8ce5a	-1.4437973
111	0x3f9ace8d	1.2094284
112	0xc0116d41	-2.2722933
113	0xbfa60eb7	-1.2973241
114	0x3e181536	0.14851841
115	0x3e853c57	0.26022598
116	0x3f01fca2	0.5077611
117	0xbfa3f92e	-1.2810419
118	0xbfb6711c	-1.4253268
119	0x3fe796fe	1.8092954
120	0x3ee7fe98	0.45311427
121	0xbf7d60e1	-0.9897595
122	0x3edb009f	0.4277391
123	0xbf8def1e	-1.1088598
124	0xbfdc21d1	-1.719782
125	0x3e0b880f	0.13626121
126	0xbfd1c03b	-1.6386789
127	0x3f4f8796	0.8106626
128	0xbfa90600	-1.3204956
129	0xbf857e29	-1.0429126
130	0xbf6f726b	-0.9353396
131	0x3ec17583	0.37784967
132	0x3f114921	0.5675221
133	0x400b7f63	2.17965
134	0xbe9d0c9e	-0.3067369
135	0x402e73f8	2.7258282
136	0x3cbe8de0	0.02326101
137	0xbf88045e	-1.0626333
138	0x3f48663d	0.78281003
139	0xc0048300	-2.0704956
140	0x3fe532c4	1.7906117
141	0x3f42adeb	0.7604663
142	0xbf45d5ad	-0.7727917
143	0xbf1fea76	-0.62467134
144	0x3fe6eef9	1.8041679
145	0x3cbaf5a8	0.022822216
146	0xbf019c80	-0.50629425
147	0x3f4425c4	0.76620126
148	0x3e11fc60	0.1425643
149	0xbfcc5644	-1.5963826
150	0xbf6375a3	-0.88851374
151	0xbeec3d16	-0.46140355
152	0x3fce3c34	1.6112123
153	0xbde3b1cc	-0.111178964
154	0xbe89195e	-0.26777166
155	0x3fb2f163	1.3979915
156	0xbec0d224	-0.37660325
157	0x3e5e0d47	0.21684752
158	0xbece017f	-0.40235516
159	0xbffc8aaf	-1.9729823
160	0xbf7e0660	-0.9922848
161	0xbe6d7387	-0.23188601
162	0xbfa35a77	-1.2761983
163	0xbfff19f7	-1.9929799
164	0x3f44133a	0.7659184
165	0x3e123ead	0.14281721
166	0x3f3d59f7	0.739654
167	0xbff24392	-1.8926871
168	0xbfaadfe7	-1.334958
169	0xbf934967	-1.1506776
170	0xbf1dfe7a	-0.61716425
171	0x3fc83a4b	1.564279
172	0x3f5f3978	0.87197065
173	0xbef78cff	-0.4834976
174	0xbf7ff171	-0.99977785
175	0x3ef0627f	0.46950147
176	0xbdbade3a	-0.091244176
177	0x3fc15512	1.5104086
178	0x3f0f033c	0.5586431
179	0x3e79e16d	0.244024
180	0xc005096c	-2.0787
181	0xbf8a3296	-1.0796688
182	0x3f564685	0.83701354
183	0x3feed0ea	1.8657506
184	0xc008098e	-2.1255832
185	0xbe848d57	-0.25889084
186	0xbf1a117c	-0.6018293
187	0xbf5523a5	-0.83257514
188	0x3fba3c4f	1.4549655
189	0xbf943b90	-1.1580677
190	0x3e0c67af	0.13711427
191	0xbf802ea8	-1.0014238

gen_prompt_feat f4 [1, 500, 80]
0	0xc0c9ed37	-6.310207
1	0xc0c990de	-6.298934
2	0xc09d8cc6	-4.9234343
3	0xc0980236	-4.75027
4	0xc0bfa12b	-5.988424
5	0xc0c7cfa0	-6.244095
6	0xc0bc2bdb	-5.8803535
7	0xc0e18746	-7.047763
8	0xc0df60b8	-6.9805565
9	0xc0c9e5ab	-6.3092856
10	0xc0ed7da8	-7.421589
11	0xc0fc2561	-7.879563
12	0xc0f750fd	-7.7286363
13	0xc0f13d98	-7.538769
14	0xc0f0aff4	-7.5214787
15	0xc0e6356f	-7.1940227
16	0xc0e75ce2	-7.230088
17	0xc0e5afe5	-7.1777215
18	0xc0dd2b30	-6.911522
19	0xc0e08518	-7.016247
20	0xc0ee8afe	-7.454467
21	0xc0e3ed6d	-7.1227326
22	0xc0e328f7	-7.0987506
23	0xc0ee6a33	-7.450464
24	0xc0dd7016	-6.9199324
25	0xc0de72d0	-6.951515
26	0xc0d9ef72	-6.810479
27	0xc0e17444	-7.0454426
28	0xc0e4bdba	-7.14816
29	0xc0f7e751	-7.746987
30	0xc0f38cd6	-7.610942
31	0xc0ed3302	-7.4124765
32	0xc0e39bb4	-7.1127567
33	0xc0e716f5	-7.2215524
34	0xc0ed65ef	-7.418693
35	0xc0cc2d44	-6.3805256
36	0xc0cc450f	-6.38343
37	0xc0cf7ac5	-6.4837365
38	0xc0c60aa2	-6.188798
39	0xc0beb359	-5.959393
40	0xc0c39786	-6.1122465
41	0xc0b4461b	-5.633558
42	0xc0b31544	-5.596346
43	0xc0b50cc7	-5.6578097
44	0xc0aea683	-5.457826
45	0xc0acbf37	-5.3983417
46	0xc0bfc356	-5.9925947
47	0xc0b137a8	-5.538044
48	0xc0b03406	-5.5063505
49	0xc0a70193	-5.218942
50	0xc0a5a3a2	-5.1762247
51	0xc0a45aa4	-5.1360645
52	0xc0ae2282	-5.4417124
53	0xc0aaec7f	-5.341369
54	0xc0970e59	-4.7205014
55	0xc0a82e0a	-5.25562
56	0xc092bfa4	-4.5858936
57	0xc08c31bf	-4.3810725
58	0xc06a26b1	-3.6586115
59	0xc06f33fb	-3.7375476
60	0xc0841a26	-4.128192
61	0xc08aee29	-4.3415723
62	0xc080b265	-4.0217767
63	0xc0442c0a	-3.065188
64	0xc037f73b	-2.8744648
65	0xc031adb0	-2.776226
66	0xc01c22b8	-2.439619
67	0xc000fe31	-2.0155146
68	0xc027e963	-2.6236198
69	0xc0398ee3	-2.899346
70	0xc03bbd73	-2.933438
71	0xc0373c6f	-2.8630636
72	0xc03dc960	-2.965416
73	0xc040a9d2	-3.010365
74	0xc03df7b9	-2.9682448
75	0xc03d3ee2	-2.956963
76	0xc04a3b03	-3.1598518
77	0xc05f52b7	-3.4894235
78	0xc0628d7b	-3.5398853
79	0xc067d9dd	-3.6226723
80	0xc0d4a767	-6.645435
81	0xc0d19b9b	-6.550245
82	0xc0b430d1	-5.630959
83	0xc0b05960	-5.51091
84	0xc0c5456f	-6.164726
85	0xc0dd566f	-6.916801
86	0xc0d5f3c1	-6.686005
87	0xc0f5e51f	-7.684219
88	0xc0ef2d15	-7.474253
89	0xc0e90d6a	-7.2828875
90	0xc0eee3ee	-7.4653234
91	0xc0fda154	-7.9259434
92	0xc0fcccec	-7.900015
93	0xc10491f2	-8.285631
94	0xc10958af	-8.584151
95	0xc0f44b48	-7.6341896
96	0xc0f31bed	-7.597159
97	0xc0f4ae04	-7.646242
98	0xc0f6a9c2	-7.7082224
99	0xc0f42d76	-7.6305494
100	0xc0f65df3	-7.6989684
101	0xc0f3b684	-7.6160297
102	0xc0ef4005	-7.476565
103	0xc0f34030	-7.6015854
104	0xc0fb3a14	-7.8508396
105	0xc0e82419	-7.2544065
106	0xc0c5145f	-6.1587367
107	0xc0bf171a	-5.97157
108	0xc0b7d3dd	-5.744612
109	0xc0d2b23d	-6.5842576
110	0xc0dbe515	-6.871714
111	0xc0d5582e	-6.667014
112	0xc0d72cba	-6.72421
113	0xc0d7736e	-6.7328405
114	0xc0c58d69	-6.173512
115	0xc0baa977	-5.8331866
116	0xc0b827f4	-5.754877
117	0xc0c70b50	-6.220131
118	0xc0b95c5d	-5.792525
119	0xc0b0e84d	-5.528357
120	0xc0bc0bf6	-5.87646
121	0xc0b59644	-5.674593
122	0xc0b668c7	-5.70029
123	0xc0b96cb9	-5.794522
124	0xc0b87d38	-5.7652855
125	0xc0bd4ac5	-5.915377
126	0xc0be86dd	-5.953963
127	0xc0b95381	-5.7914433
128	0xc0b8ef85	-5.779238
129	0xc0b357fe	-5.604491
130	0xc0b099dc	-5.5187817
131	0xc0b26545	-5.574862
132	0xc0aabaf3	-5.335321
133	0xc0b33f94	-5.601511
134	0xc0a9a9ff	-5.3020015
135	0xc0a4bc18	-5.1479607
136	0xc09db1b7	-4.9279437
137	0xc0949fa7	-4.644489
138	0xc08a7542	-4.3268137
139	0xc07a84f0	-3.9143639
140	0xc06d0084	-3.7031565
141	0xc0878256	-4.23466
142	0xc08a7ebd	-4.327971
143	0xc0649f69	-3.5722296
144	0xc02fb368	-2.745325
145	0xc0203114	-2.5029955
146	0xc00219b6	-2.0328193
147	0xbff6e1bf	-1.9287642
148	0xc0174912	-2.3638349
149	0xc026a188	-2.603609
150	0xc044f26a	-3.0772958
151	0xc0336393	-2.8029525
152	0xc028de77	-2.6385782
153	0xc036fa42	-2.8590245
154	0xc037b59a	-2.870459
155	0xc030070a	-2.7504296
156	0xc0369394	-2.8527575
157	0xc04ef807	-3.2338884
158	0xc05fc048	-3.496111
159	0xc06fc260	-3.7462387
160	0xc0d981fa	-6.7971163
161	0xc0ca8d28	-6.329731
162	0xc0b709fd	-5.7199693
163	0xc0b9db0f	-5.8079906
164	0xc0acca5c	-5.399702
165	0xc0b41583	-5.627626
166	0xc0d6f6e7	-6.7176394
167	0xc0d936ce	-6.78794
168	0xc0d8eae1	-6.7786717
169	0xc0d30c74	-6.59527
170	0xc0e78495	-7.2349343
171	0xc0d41eb3	-6.6287475
172	0xc0d56043	-6.6680007
173	0xc0eb8afe	-7.360717
174	0xc0e83ceb	-7.2574363
175	0xc0d4de97	-6.6521716
176	0xc0d7dbd9	-6.745587
177	0xc0ce2ce7	-6.4429812
178	0xc0d2dbbc	-6.589323
179	0xc0d19c38	-6.5503197
180	0xc0d38523	-6.610002
181	0xc0d6169a	-6.690259
182	0xc0d6c649	-6.7117047
183	0xc0ce1933	-6.440576
184	0xc0c5cfe0	-6.1816254
185	0xc0c74693	-6.227365
186	0xc0bac0da	-5.8360415
187	0xc0ac6f08	-5.3885536
188	0xc0ace529	-5.4029737
189	0xc0b9d5da	-5.807355
190	0xc0c2c129	-6.086079
191	0xc0be2fe1	-5.9433446
192	0xc0b77830	-5.7334213
193	0xc0b43ccc	-5.6324215
194	0xc0b66dd5	-5.700907
195	0xc0a96ee9	-5.294789
196	0xc0a5ed16	-5.185191
197	0xc0ad8f9f	-5.423782
198	0xc0ae3395	-5.4437966
199	0xc0abbebf	-5.3670344
200	0xc0a1bd44	-5.0543537
201	0xc09f8205	-4.9846215
202	0xc0a205fb	-5.06323
203	0xc0b016d3	-5.502786
204	0xc0b6a596	-5.707713
205	0xc0bf8860	-5.9853973
206	0xc0b703d0	-5.7192154
207	0xc0ae5996	-5.448436
208	0xc0b270c3	-5.576265
209	0xc0a12a81	-5.0364385
210	0xc0ae5158	-5.4474297
211	0xc0adb85f	-5.428756
212	0xc0af752a	-5.4830523
213	0xc0abffb4	-5.3749638
214	0xc0a3c4fb	-5.1177955
215	0xc0a62336	-5.191798
216	0xc09d3aa0	-4.9134064
217	0xc096c007	-4.710941
218	0xc08e3c50	-4.4448624
219	0xc088af8b	-4.2714286
220	0xc06d1999	-3.7046874
221	0xc08534a5	-4.1626763
222	0xc08660b9	-4.199307
223	0xc0658c11	-3.586674
224	0xc03c0e40	-2.9383698
225	0xc01634c4	-2.3469706
226	0xc001d316	-2.0285087
227	0xbfb8c667	-1.4435548
228	0xc00bc8eb	-2.184138
229	0xc0207791	-2.5072978
230	0xc0265ff4	-2.5996065
231	0xc034589c	-2.8179083
232	0xc02f44b4	-2.7385683
233	0xc0386cc2	-2.881638
234	0xc03ea23c	-2.978652
235	0xc030415a	-2.7539887
236	0xc03fa995	-2.9947255
237	0xc060ca3b	-3.5123432
238	0xc06c1587	-3.688814
239	0xc06bb19a	-3.682715
240	0xc0d6b265	-6.7092767
241	0xc0aa761e	-5.3269186
242	0xc089c901	-4.3057866
243	0xc03a67d1	-2.9125865
244	0xc023b466	-2.5578856
245	0xc07e1bc7	-3.9704454
246	0xc09606a9	-4.688313
247	0xc09b970a	-4.8621874
248	0xc0988223	-4.765886
249	0xc0a8b84e	-5.272498
250	0xc0b957c7	-5.791965
251	0xc0b591e9	-5.6740613
252	0xc0b73063	-5.7246566
253	0xc0c2aafb	-6.0833716
254	0xc0b326af	-5.598472
255	0xc0ba882f	-5.829124

gen_prompt_token i4 [1, 250]
0	0x00000e5d	3677
1	0x00001333	4915
2	0x0000040b	1035
3	0x00000e46	3654
4	0x000016c8	5832
5	0x000017bd	6077
6	0x000013bc	5052
7	0x0000139c	5020
8	0x00000d97	3479
9	0x00000d7e	3454
10	0x000015e6	5606
11	0x0000135b	4955
12	0x0000135b	4955
13	0x0000134f	4943
14	0x0000135b	4955
15	0x000017d1	6097
16	0x000009fe	2558
17	0x00000fd4	4052
18	0x000011a2	4514
19	0x000006e7	1767
20	0x0000040b	1035
21	0x00001250	4688
22	0x0000139d	5021
23	0x0000139d	5021
24	0x00000bb4	2996
25	0x000011f1	4593
26	0x000014cd	5325
27	0x0000147c	5244
28	0x00001479	5241
29	0x00000e8c	3724
30	0x00000c41	3137
31	0x000011d8	4568
32	0x000011d8	4568
33	0x000011d8	4568
34	0x000004ad	1197
35	0x000010e6	4326
36	0x000018e7	6375
37	0x00001182	4482
38	0x0000123f	4671
39	0x0000123f	4671
40	0x0000123f	4671
41	0x0000123f	4671
42	0x0000123f	4671
43	0x000005d0	1488
44	0x0000079e	1950
45	0x00001029	4137
46	0x00000d50	3408
47	0x0000098d	2445
48	0x000008a5	2213
49	0x000008ea	2282
50	0x00001178	4472
51	0x000011c5	4549
52	0x000010df	4319
53	0x00000e36	3638
54	0x000015d4	5588
55	0x000002d7	727
56	0x0000016e	366
57	0x000000ce	206
58	0x0000116b	4459
59	0x0000031b	795
60	0x0000080a	2058
61	0x000004fe	1278
62	0x0000115a	4442
63	0x0000115a	4442
64	0x0000123f	4671
65	0x00000453	1107
66	0x0000075c	1884
67	0x00000d0d	3341
68	0x000008ff	2303
69	0x000011e4	4580
70	0x000011c9	4553
71	0x00000cbb	3259
72	0x00000890	2192
73	0x00000324	804
74	0x0000080a	2058
75	0x00001610	5648
76	0x0000088e	2190
77	0x00000b72	2930
78	0x00001498	5272
79	0x00000952	2386
80	0x00000fe7	4071
81	0x00000fe7	4071
82	0x000011c3	4547
83	0x000008ee	2286
84	0x0000113f	4415
85	0x0000008f	143
86	0x0000064e	1614
87	0x0000085b	2139
88	0x00000870	2160
89	0x00001106	4358
90	0x0000100a	4106
91	0x000011b9	4537
92	0x000011db	4571
93	0x000013e5	5093
94	0x00000b62	2914
95	0x0000107a	4218
96	0x000007d4	2004
97	0x000010e9	4329
98	0x00001991	6545
99	0x0000189e	6302
100	0x000014ae	5294
101	0x000008ff	2303
102	0x0000170b	5899
103	0x000014ca	5322
104	0x0000147c	5244
105	0x00000ba9	2985
106	0x00000c4a	3146
107	0x00001448	5192
108	0x000013f4	5108
109	0x000013f1	5105
110	0x000013a0	5024
111	0x000013e4	5092
112	0x000013e2	5090
113	0x000015a1	5537
114	0x000014c9	5321
115	0x000014c9	5321
116	0x000017a5	6053
117	0x00000eb3	3763
118	0x00000f8d	3981
119	0x000007ef	2031
120	0x00001029	4137
121	0x00001029	4137
122	0x00000f36	3894
123	0x00001383	4995
124	0x00000322	802
125	0x00000047	71
126	0x0000139d	5021
127	0x0000028e	654
128	0x00000a70	2672
129	0x000008f8	2296
130	0x000007d1	2001
131	0x000008ab	2219
132	0x00000c93	3219
133	0x000011f2	4594
134	0x0000094e	2382
135	0x000011c8	4552
136	0x0000176d	5997
137	0x00001988	6536
138	0x00001106	4358
139	0x000000e9	233
140	0x00000236	566
141	0x00000783	1923
142	0x00000870	2160
143	0x000014e1	5345
144	0x00000ac1	2753
145	0x00000287	647
146	0x000000e6	230
147	0x00000161	353
148	0x00000203	515
149	0x00000203	515
150	0x00000275	629
151	0x00000b63	2915
152	0x00000b5f	2911
153	0x00000d56	3414
154	0x00000d4d	3405
155	0x000007b1	1969
156	0x00000f62	3938
157	0x00000f95	3989
158	0x00000ea2	3746
159	0x00000293	659
160	0x000005b1	1457
161	0x00000914	2324
162	0x000004fb	1275
163	0x0000013d	317
164	0x00001169	4457
165	0x00001168	4456
166	0x000004fb	1275
167	0x00001333	4915
168	0x00000132	306
169	0x000004ad	1197
170	0x000005a9	1449
171	0x00000b4e	2894
172	0x0000021e	542
173	0x0000123f	4671
174	0x00001383	4995
175	0x00000f79	3961
176	0x00000879	2169
177	0x000003c5	965
178	0x0000008f	143
179	0x00000143	323
180	0x00000ac1	2753
181	0x0000139c	5020
182	0x00000d2d	3373
183	0x00000156	342
184	0x000000b6	182
185	0x000005c8	1480
186	0x000018e7	6375
187	0x00001989	6537
188	0x00001938	6456
189	0x0000110d	4365
190	0x000017aa	6058
191	0x000015c4	5572
192	0x000016c7	5831
193	0x00000883	2179
194	0x000006e1	1761
195	0x000014ca	5322
196	0x000014cd	5325
197	0x00000969	2409
198	0x00000974	2420
199	0x000008e1	2273
200	0x000005b4	1460
201	0x000002ab	683
202	0x000005a5	1445
203	0x0000100a	4106
204	0x00000ba8	2984
205	0x00001290	4752
206	0x0000075c	1884
207	0x000010d8	4312
208	0x00000b1b	2843
209	0x00000e15	3605
210	0x00001013	4115
211	0x00000e24	3620
212	0x0000138b	5003
213	0x00001301	4865
214	0x00000535	1333
215	0x00001107	4359
216	0x00000077	119
217	0x00000013	19
218	0x0000181f	6175
219	0x00000026	38
220	0x00000e50	3664
221	0x00000f97	3991
222	0x000007fc	2044
223	0x000008a8	2216
224	0x000008c6	2246
225	0x000008d5	2261
226	0x00001248	4680
227	0x0000123f	4671
228	0x0000160b	5643
229	0x00001518	5400
230	0x00001518	5400
231	0x00000f4e	3918
232	0x00001029	4137
233	0x00001029	4137
234	0x0000107a	4218
235	0x00000570	1392
236	0x000016ab	5803
237	0x00001372	4978
238	0x000011b8	4536
239	0x0000134e	4942
240	0x00001352	4946
241	0x00000b4e	2894
242	0x0000199a	6554
243	0x00000723	1827
244	0x0000007b	123
245	0x000011fd	4605
246	0x00000bc7	3015
247	0x00000341	833
248	0x000002db	731
249	0x00000a7f	2687

t3_cond_prompt_speech_tokens i4 [1, 375]
0	0x00000e5d	3677
1	0x00001333	4915
2	0x0000040b	1035
3	0x00000e46	3654
4	0x000016c8	5832
5	0x000017bd	6077
6	0x000013bc	5052
7	0x0000139c	5020
8	0x00000d97	3479
9	0x00000d7e	3454
10	0x000015e6	5606
11	0x0000135b	4955
12	0x0000135b	4955
13	0x0000134f	4943
14	0x0000135b	4955
15	0x000017d1	6097
16	0x000009fe	2558
17	0x00000fd4	4052
18	0x000011a2	4514
19	0x000006f0	1776
20	0x0000040b	1035
21	0x00001250	4688
22	0x0000139d	5021
23	0x0000139d	5021
24	0x00000bb4	2996
25	0x000011f1	4593
26	0x000014cd	5325
27	0x0000147c	5244
28	0x00001479	5241
29	0x00000e8c	3724
30	0x00000c41	3137
31	0x000011d8	4568
32	0x000011d8	4568
33	0x000011d8	4568
34	0x000004ad	1197
35	0x0000080a	2058
36	0x000018e7	6375
37	0x00001182	4482
38	0x0000123f	4671
39	0x0000123f	4671
40	0x0000123f	4671
41	0x0000123f	4671
42	0x0000123f	4671
43	0x000005d3	1491
44	0x0000079e	1950
45	0x00001029	4137
46	0x00000d50	3408
47	0x0000098d	2445
48	0x000008a5	2213
49	0x000008ea	2282
50	0x00001178	4472
51	0x000011c5	4549
52	0x000010df	4319
53	0x00000e36	3638
54	0x000015d4	5588
55	0x000002d7	727
56	0x0000016e	366
57	0x000000ce	206
58	0x0000116b	4459
59	0x00000318	792
60	0x0000080a	2058
61	0x000004fe	1278
62	0x0000115a	4442
63	0x0000115a	4442
64	0x0000123f	4671
65	0x00000453	1107
66	0x00000fe7	4071
67	0x00000cbc	3260
68	0x000008ff	2303
69	0x000011e4	4580
70	0x000011c9	4553
71	0x00000cbb	3259
72	0x00000890	2192
73	0x00000324	804
74	0x0000080a	2058
75	0x00001610	5648
76	0x0000088e	2190
77	0x00000b72	2930
78	0x00001498	5272
79	0x00000952	2386
80	0x00000fe7	4071
81	0x00000fe7	4071
82	0x000011c3	4547
83	0x0000093f	2367
84	0x0000113f	4415
85	0x00000917	2327
86	0x0000064e	1614
87	0x0000085b	2139
88	0x00000870	2160
89	0x00001106	4358
90	0x0000100a	4106
91	0x000011b9	4537
92	0x000011db	4571
93	0x000013e5	5093
94	0x00000b62	2914
95	0x0000107a	4218
96	0x000007d4	2004
97	0x000010ce	4302
98	0x00001991	6545
99	0x0000189e	6302
100	0x000014ae	5294
101	0x000008ff	2303
102	0x0000170b	5899
103	0x000014ca	5322
104	0x0000147c	5244
105	0x0000031e	798
106	0x00000c4a	3146
107	0x00001448	5192
108	0x000013f4	5108
109	0x000013f1	5105
110	0x000013a0	5024
111	0x000013e4	5092
112	0x000013e2	5090
113	0x000015a1	5537
114	0x000014c9	5321
115	0x000014c9	5321
116	0x0000178a	6026
117	0x00000eb3	3763
118	0x00000f8d	3981
119	0x000007ef	2031
120	0x00001029	4137
121	0x00001029	4137
122	0x00000f36	3894
123	0x00001383	4995
124	0x00000322	802
125	0x00000047	71
126	0x0000139d	5021
127	0x0000028e	654
128	0x00000a70	2672
129	0x000008f8	2296
130	0x000007d1	2001
131	0x000008ab	2219
132	0x00000c93	3219
133	0x000011f2	4594
134	0x0000094e	2382
135	0x000011c8	4552
136	0x0000176d	5997
137	0x00001895	6293
138	0x00001106	4358
139	0x000000e9	233
140	0x00000236	566
141	0x0000078c	1932
142	0x00000870	2160
143	0x000014e1	5345
144	0x00000ac1	2753
145	0x00000287	647
146	0x000000e6	230
147	0x00000161	353
148	0x00000203	515
149	0x00000203	515
150	0x00000275	629
151	0x00000b63	2915
152	0x00000b0e	2830
153	0x00000d56	3414
154	0x00000d4d	3405
155	0x000007b1	1969
156	0x00000f62	3938
157	0x00000f95	3989
158	0x00000ea2	3746
159	0x00000293	659
160	0x00000596	1430
161	0x00000914	2324
162	0x000004fb	1275
163	0x0000013d	317
164	0x00001169	4457
165	0x00001168	4456
166	0x000004fb	1275
167	0x00001333	4915
168	0x00000132	306
169	0x000004b6	1206
170	0x000005a9	1449
171	0x00000b4e	2894
172	0x0000021e	542
173	0x00001248	4680
174	0x00001383	4995
175	0x00000f79	3961
176	0x00000879	2169
177	0x000003c5	965
178	0x0000008f	143
179	0x00000143	323
180	0x00000ac1	2753
181	0x0000139c	5020
182	0x00000d2d	3373
183	0x0000042f	1071
184	0x000000b6	182
185	0x000005c8	1480
186	0x000018e7	6375
187	0x00001989	6537
188	0x00001938	6456
189	0x0000110d	4365
190	0x000017aa	6058
191	0x000015c4	5572
192	0x000016c4	5828
193	0x00000883	2179
194	0x000006e1	1761
195	0x000014ca	5322
196	0x000014cd	5325
197	0x00000969	2409
198	0x00000974	2420
199	0x000008e1	2273
200	0x000005b4	1460
201	0x000002c6	710
202	0x000005a5	1445
203	0x0000100a	4106
204	0x00000ba8	2984
205	0x00001290	4752
206	0x0000075c	1884
207	0x000010d8	4312
208	0x00000b1b	2843
209	0x00000e15	3605
210	0x00001013	4115
211	0x00000e24	3620
212	0x00000b00	2816
213	0x00001301	4865
214	0x00000535	1333
215	0x0000087c	2172
216	0x00000077	119
217	0x000002ec	748
218	0x00000f94	3988
219	0x00000026	38
220	0x00000e50	3664
221	0x00000f97	3991
222	0x000007fc	2044
223	0x000008a8	2216
224	0x000008c6	2246
225	0x00000bae	2990
226	0x00001248	4680
227	0x0000123f	4671
228	0x0000160b	5643
229	0x00001518	5400
230	0x00001518	5400
231	0x00000f4e	3918
232	0x00001029	4137
233	0x00001029	4137
234	0x0000107a	4218
235	0x00000570	1392
236	0x000016aa	5802
237	0x000013c3	5059
238	0x000011b8	4536
239	0x0000134e	4942
240	0x00001351	4945
241	0x00000b4e	2894
242	0x0000199a	6554
243	0x00000fae	4014
244	0x00000906	2310
245	0x000011fd	4605
246	0x00000c18	3096
247	0x0000035c	860
248	0x000002db	731
249	0x00000a7f	2687
250	0x0000137f	4991
251	0x00001473	5235
252	0x000013d2	5074
253	0x00001434	5172
254	0x0000114c	4428
255	0x0000123f	4671

t3_speaker_emb f4 [1, 256]
0	0x3cf76d1f	0.0302034
1	0x00000000	0.0
2	0x3b0ae95e	0.0021196227
3	0x00000000	0.0
4	0x3c8116e7	0.015757991
5	0x3ca68afa	0.020329941
6	0x3d807908	0.06273085
7	0x3d05ffe0	0.032714725
8	0x00000000	0.0
9	0x3bf77280	0.0075514913
10	0x3e0f7606	0.14009866
11	0x3de5fe36	0.112301275
12	0x3c57e915	0.01317813
13	0x00000000	0.0
14	0x3d0298d3	0.031884026
15	0x00000000	0.0
16	0x3e31baf4	0.17356473
17	0x3c48662d	0.012231392
18	0x3d3fbe97	0.04681262
19	0x3e128a9b	0.14310686
20	0x3e2ccc96	0.16874918
21	0x00000000	0.0
22	0x00000000	0.0
23	0x3c113e9b	0.008865024
24	0x00000000	0.0
25	0x3cba5122	0.022743765
26	0x00000000	0.0
27	0x3b52756f	0.0032113453
28	0x00000000	0.0
29	0x00000000	0.0
30	0x3defd500	0.117105484
31	0x3d698ca5	0.057018895
32	0x00000000	0.0
33	0x00000000	0.0
34	0x3be63a77	0.0070260125
35	0x3df4499e	0.11928104
36	0x3c838e44	0.016059048
37	0x3d331b58	0.04372725
38	0x3d74d6b6	0.059775077
39	0x3e018650	0.12648892
40	0x00000000	0.0
41	0x39a3f6b6	0.00031273597
42	0x3c252d30	0.010081574
43	0x3c4acb1c	0.012377527
44	0x3cda5b38	0.026654825
45	0x3a8dba6d	0.0010813006
46	0x3db1371d	0.0865309
47	0x3d844350	0.06458151
48	0x3d5acfbf	0.05342078
49	0x00000000	0.0
50	0x00000000	0.0
51	0x00000000	0.0
52	0x00000000	0.0
53	0x00000000	0.0
54	0x3a89e76c	0.001052124
55	0x3c337135	0.010952284
56	0x00000000	0.0
57	0x00000000	0.0
58	0x00000000	0.0
59	0x00000000	0.0
60	0x3b92ab69	0.004476
61	0x00000000	0.0
62	0x3da684c4	0.08130792
63	0x3d8e20bf	0.069398396
64	0x3cc334ce	0.02382889
65	0x00000000	0.0
66	0x3e2214f5	0.15828307
67	0x3e00cba2	0.1257768
68	0x00000000	0.0
69	0x00000000	0.0
70	0x00000000	0.0
71	0x3e38c87e	0.18045232
72	0x00000000	0.0
73	0x3dc4d3d2	0.09610714
74	0x3d9cc3ae	0.076545104
75	0x3c0a15ad	0.0084280195
76	0x00000000	0.0
77	0x3cabb446	0.020959985
78	0x3d4a1443	0.04933573
79	0x3dc33aff	0.09532737
80	0x00000000	0.0
81	0x00000000	0.0
82	0x3da7a820	0.08186364
83	0x3a1563fd	0.00056987983
84	0x00000000	0.0
85	0x3c86b8a0	0.016445458
86	0x3c38db54	0.011282761
87	0x00000000	0.0
88	0x00000000	0.0
89	0x3e16f796	0.14742884
90	0x3d9d76b1	0.07688654
91	0x00000000	0.0
92	0x3bc10b3b	0.0058912314
93	0x00000000	0.0
94	0x3c907fdf	0.017639099
95	0x3dab5f56	0.08367793
96	0x3d5db261	0.054125194
97	0x00000000	0.0
98	0x00000000	0.0
99	0x00000000	0.0
100	0x3c183883	0.009290817
101	0x00000000	0.0
102	0x3dcb3ca9	0.099236794
103	0x3dd407d1	0.10353053
104	0x3d237873	0.03990979
105	0x3e77a87c	0.24185365
106	0x3dbbb058	0.09164494
107	0x3d9f5d5d	0.077814795
108	0x00000000	0.0
109	0x3e3da34c	0.18519324
110	0x00000000	0.0
111	0x3cbef252	0.023308907
112	0x00000000	0.0
113	0x3d62000d	0.05517583
114	0x3bf963e2	0.007610784
115	0x00000000	0.0
116	0x00000000	0.0
117	0x3c90daf5	0.017682532
118	0x3cadb237	0.021203144
119	0x3cdc8268	0.026917651
120	0x3dc2c14d	0.095095254
121	0x3d77836f	0.06042808
122	0x3d807f4b	0.06274279
123	0x00000000	0.0
124	0x3d67b230	0.056566417
125	0x3dab131b	0.083532535
126	0x3ab89941	0.0014083759
127	0x3e459f61	0.1929908
128	0x3d4378f8	0.047722787
129	0x00000000	0.0
130	0x3d446eee	0.047957353
131	0x00000000	0.0
132	0x3dce0662	0.10059811
133	0x3ccc6a32	0.024952982
134	0x3e1daddb	0.15398352
135	0x3dcb6d63	0.09932973
136	0x3daa0cab	0.083031975
137	0x00000000	0.0
138	0x3d902111	0.07037557
139	0x3af7ac3b	0.0018895933
140	0x00000000	0.0
141	0x00000000	0.0
142	0x3d98283f	0.07429551
143	0x3d118d86	0.035535358
144	0x3db3d0e4	0.08780077
145	0x3d88661b	0.066601
146	0x3e203aba	0.15647402
147	0x00000000	0.0
148	0x3e34d96f	0.1766107
149	0x3bcf1629	0.0063197804
150	0x3e01a59f	0.12660836
151	0x3ccad2f1	0.024758788
152	0x00000000	0.0
153	0x3b83ebd3	0.004025915
154	0x00000000	0.0
155	0x3d1045aa	0.035222687
156	0x00000000	0.0
157	0x00000000	0.0
158	0x3d7b9c57	0.061428394
159	0x00000000	0.0
160	0x3cfa835d	0.030580217
161	0x00000000	0.0
162	0x3dd751b3	0.1051363
163	0x3dfdab29	0.12386162
164	0x3d1307ab	0.035895985
165	0x3d6889fd	0.05677222
166	0x3c2a3d24	0.010390554
167	0x3e084986	0.13309297
168	0x3e16dfa2	0.14733747
169	0x3df6c482	0.120492
170	0x00000000	0.0
171	0x00000000	0.0
172	0x3b832796	0.0040025217
173	0x3bb7f404	0.0056138057
174	0x3ba69b1c	0.0050844084
175	0x3b2def3d	0.0026540302
176	0x3d9ebfcb	0.07751425
177	0x3d67a547	0.056554105
178	0x3c222048	0.009895392
179	0x3c8cbfa3	0.017181223
180	0x3dc3ac1f	0.09554314
181	0x3d095ca8	0.03353563
182	0x00000000	0.0
183	0x3d3a8ae2	0.045542605
184	0x00000000	0.0
185	0x00000000	0.0
186	0x00000000	0.0
187	0x3c987909	0.018612402
188	0x00000000	0.0
189	0x3c1d41ae	0.009598179
190	0x3d36dffe	0.04464721
191	0x3d6823b6	0.05667468
192	0x00000000	0.0
193	0x3e0670ec	0.13129014
194	0x00000000	0.0
195	0x00000000	0.0
196	0x3cac0231	0.020997139
197	0x3b95bb7f	0.0045694704
198	0x3c24d0c6	0.010059541
199	0x3de12bf9	0.10994715
200	0x3b0139f9	0.0019718392
201	0x3cbb9e0c	0.022902511
202	0x39b2f7a3	0.0003413531
203	0x00000000	0.0
204	0x00000000	0.0
205	0x00000000	0.0
206	0x3a914109	0.0011082004
207	0x3d9cbcc3	0.07653191
208	0x3cb7696c	0.022389136
209	0x3c440633	0.011964369
210	0x00000000	0.0
211	0x00000000	0.0
212	0x3df44525	0.11927251
213	0x3dd1b5be	0.10239743
214	0x00000000	0.0
215	0x00000000	0.0
216	0x3a8187c3	0.0009882379
217	0x3c64e2bc	0.013970073
218	0x3dffd5e8	0.12491971
219	0x00000000	0.0
220	0x3cf68546	0.030092847
221	0x3d6a10ff	0.057145115
222	0x00000000	0.0
223	0x00000000	0.0
224	0x3ce6ac8b	0.028158447
225	0x3d921efc	0.07134816
226	0x00000000	0.0
227	0x3c952c2d	0.018209541
228	0x00000000	0.0
229	0x00000000	0.0
230	0x3c119a0e	0.008886827
231	0x00000000	0.0
232	0x3aaab68f	0.0013024377
233	0x00000000	0.0
234	0x00000000	0.0
235	0x3e0c8fb5	0.13726695
236	0x3da79711	0.081831105
237	0x3d8839c8	0.06651646
238	0x3dc067b5	0.093947805
239	0x3d35f299	0.044420812
240	0x3e41e0fd	0.18933482
241	0x3a84b59a	0.0010124922
242	0x00000000	0.0
243	0x3cb4cd2c	0.02207049
244	0x00000000	0.0
245	0x3d959977	0.07304662
246	0x3c36f4ef	0.011166795
247	0x00000000	0.0
248	0x3ddbf384	0.10739806
249	0x3b93dc5b	0.0045123524
250	0x00000000	0.0
251	0x3c69c105	0.014267211
252	0x3c674dfc	0.014117714
253	0x3905c567	0.00012757407
254	0x3b83d2a0	0.004022911
255	0x00000000	0.0
