assets/scarlett.safetensors (safetensors, 164900 bytes, 5 tensors)

gen_embedding f4 [1, 192]
0	0xbf0eee14	-0.5583203
1	0x3f288f22	0.65843403
2	0x3ea2d36a	0.3180192
3	0x3ea446ff	0.32085416
4	0x3e295e7e	0.16539952
5	0xbfc55df2	-1.5419295
6	0x3e129549	0.1431476
7	0xbc94fa27	-0.018185688
8	0x3d86b7ec	0.06578049
9	0x3f9c368d	1.2204148
10	0xbef05c93	-0.4694563
11	0xbe8ff7d5	-0.28118768
12	0x3f11a477	0.5689158
13	0x3f07b679	0.53012806
14	0xbe8e7916	-0.27826756
15	0xbf67d5e2	-0.90560734
16	0x3f1d097b	0.6134259
17	0xbed79419	-0.42105177
18	0xbd8957ed	-0.06706224
19	0x3e337406	0.17524728
20	0xbe7a5845	-0.24447735
21	0xbf55b350	-0.83476734
22	0x3d3f0f8a	0.04664568
23	0xbdec6e56	-0.115444824
24	0xbfc6850e	-1.5509355
25	0xbed3b6fb	-0.4135054
26	0x3e689159	0.22711696
27	0x3f976c98	1.1830015
28	0x3e714bb5	0.23564036
29	0x3d8ba9bd	0.068194844
30	0xbf0811ef	-0.53152364
31	0x3e099bbd	0.13438316
32	0xbdebfc2c	-0.11522707
33	0xbf1f0b1d	-0.6212633
34	0x3d757665	0.059927363
35	0xbf85aa6e	-1.0442636
36	0xbf2d3b71	-0.67668825
37	0x3e6a95d5	0.22908719
38	0x3da6eb68	0.08150369
39	0xbf9ddfe9	-1.2333957
40	0x3f90f893	1.1325859
41	0xbf64f7cf	-0.89440626
42	0xbf53dc11	-0.8275767
43	0x3eee2c2f	0.46518084
44	0x3ce19bd2	0.027540121
45	0xbe8d9a43	-0.27656755
46	0x3fe7ca90	1.8108692
47	0xbd53e786	-0.05173447
48	0xbf925cd8	-1.1434584
49	0x3ee19d99	0.4406555
50	0x3f561d0e	0.83638084
51	0xc0052fcb	-2.081042
52	0xbf2453bf	-0.64190286
53	0xbdb6f445	-0.089333095
54	0x3ea1e631	0.31620935
55	0xbf54835b	-0.8301293
56	0xbe3cb45d	-0.18428178
57	0xbe7e08f9	-0.2480811
58	0x3e9c914c	0.30579603
59	0x3f9e9d70	1.2391796
60	0xbeb6368c	-0.3558849
61	0x3f4e7c18	0.806581
62	0xbeee44e8	-0.46536946
63	0xbd3f575d	-0.046714175
64	0xbfb6ee26	-1.4291427
65	0x3eb07006	0.34460467
66	0xbf8a508c	-1.0805831
67	0xbf42a6d9	-0.7603584
68	0x3eb9bd41	0.36277202
69	0xbe0acf69	-0.13555683
70	0xbed77e86	-0.42088717
71	0xbe58f258	-0.21186197
72	0xbf4c635b	-0.79839104
73	0xbf579a97	-0.8422026
74	0xbf1b55e6	-0.60677946
75	0x3cafc999	0.021458434
76	0xbdafee17	-0.08590334
77	0x3ea3b22b	0.3197187
78	0x3f25ac69	0.647162
79	0x3f63eed4	0.890363
80	0xbf630d47	-0.88692135
81	0x3f4eb18d	0.8073967
82	0x3efd1730	0.49431753
83	0x3eb5aef0	0.3548503
84	0xbfb8e8c3	-1.4446033
85	0xbe209521	-0.15681888
86	0x3eeaac04	0.45834363
87	0xbfd240e5	-1.6426054
88	0xbf5df6c4	-0.8670466
89	0xbf6b0ff0	-0.91821194
90	0x3eebb3dc	0.4603566
91	0x3eeb6d69	0.4598191
92	0xbed8bd06	-0.42331713
93	0x3fb59a45	1.4187704
94	0x3f002442	0.50055325
95	0xc00eed53	-2.2332351
96	0x3f98d943	1.1941303
97	0x3f3cc029	0.73730713
98	0x3e10f624	0.14156395
99	0x3f47cfd1	0.7805148
100	0x3f44b306	0.7683567
101	0x3f990025	1.1953169
102	0x3f838f28	1.0278063
103	0xbe57bed2	-0.21068886
104	0xbd5c506c	-0.053787634
105	0x3ef21e44	0.47288716
106	0xbf1dd691	-0.6165553
107	0x3e37ac01	0.17936708
108	0x3ee56402	0.44802862
109	0x3ce91452	0.028452072
110	0x3ef4222e	0.47682327
111	0x3d16d8d8	0.036827892
112	0xbe34d982	-0.17661098
113	0x3dc909c0	0.09816313
114	0x3f4a965f	0.791357
115	0x3fab20ec	1.3369422
116	0xbee58dc6	-0.44834727
117	0xc01ed562	-2.4817739
118	0xbf2797e1	-0.65466124
119	0xbd2f92cc	-0.042864606
120	0x3f352603	0.70761126
121	0xbec04dd5	-0.3755938
122	0x3f440014	0.7656262
123	0x3e325606	0.17415628
124	0x3f0403c2	0.51568234
125	0x3f859ad9	1.0437881
126	0xbfa25fb9	-1.2685462
127	0xbf9cb643	-1.2243122
128	0x3ece2fc7	0.40270826
129	0xbf57c0af	-0.84278387
130	0xbf43ceb4	-0.7648728
131	0xbe55f594	-0.20894462
132	0xbe215cad	-0.15758009
133	0x4002e1ca	2.045031
134	0x3e5dc287	0.21656238
135	0xbc4af513	-0.012387532
136	0x3f765147	0.9621777
137	0xbf9e804f	-1.2382907
138	0xbe2d2ff0	-0.16912818
139	0xbf21899c	-0.631006
140	0xbfac5f7e	-1.3466642
141	0xbf4c1800	-0.7972412
142	0xbf0be5c8	-0.54647493
143	0xbfc82081	-1.563492
144	0x3fee766d	1.8629891
145	0xbf81658b	-1.0109113
146	0x3f79e79a	0.9761902
147	0x3ff6e9d7	1.9290112
148	0x3ebfa40e	0.3742985
149	0xbf5bd85b	-0.8587701
150	0xbfb43a56	-1.4080303
151	0x3efbd66c	0.49187028
152	0x3cc725aa	0.024309952
153	0x3f743c88	0.95404863
154	0xbf5b246c	-0.8560245
155	0xbf51f3eb	-0.82012814
156	0xbf058ab1	-0.5216475
157	0xbf0d8aa4	-0.55289674
158	0xbecaa031	-0.3957534
159	0xbe0a4ccc	-0.13505858
160	0xbf7297e1	-0.94763
161	0xbc908d49	-0.017645495
162	0x3e15bb30	0.14622188
163	0xc00cbdef	-2.1990926
164	0xbf00d912	-0.50331223
165	0x3ddfbb21	0.10924364
166	0xbf3a66a1	-0.7281285
167	0x3e34e3bf	0.17665003
168	0xbf2cc22a	-0.6748377
169	0xbeed1d87	-0.4631159
170	0xbe951592	-0.2911802
171	0xbe09fdad	-0.13475676
172	0x3f5dad83	0.8659288
173	0x3ef1c9b0	0.47224188
174	0xbf39957f	-0.7249374
175	0x3f2b92e8	0.67021036
176	0x3ec75a93	0.3893629
177	0xc005c4a4	-2.090127
178	0x3fa062ca	1.2530148
179	0x3fd73680	1.6813507
180	0x3f3d575c	0.73961425
181	0xbe39da88	-0.1814977
182	0x3f8d59f8	1.1043081
183	0x3fd4b529	1.6617786
184	0xbe9aa29a	-0.3020218
185	0x3f09b74e	0.53795326
186	0xbf24f804	-0.6444094
187	0xbf4e8def	-0.80685323
188	0x3c91cddf	0.017798362
189	0x3ebc559b	0.36784062
190	0xbe6afa5a	-0.22947064
191	0x3d20abdb	0.039226394

gen_prompt_feat f4 [1, 500, 80]
0	0xc0a7ad59	-5.2399106
1	0xc0a2995f	-5.081222
2	0xc093b9e3	-4.6164412
3	0xc090f2fe	-4.529662
4	0xc0940c3d	-4.626494
5	0xc0953069	-4.6621594
6	0xc09038ac	-4.506918
7	0xc0a609c2	-5.188691
8	0xc0999f47	-4.800693
9	0xc0abddba	-5.370816
10	0xc0baf521	-5.842423
11	0xc0b9aaf5	-5.802119
12	0xc0ab4a26	-5.3528013
13	0xc0c0522a	-6.01003
14	0xc0d88736	-6.7665052
15	0xc0c10a74	-6.032526
16	0xc0c77cc1	-6.2339787
17	0xc0dbe7e8	-6.872059
18	0xc0d495a2	-6.6432657
19	0xc0d24024	-6.5703297
20	0xc0cd7dea	-6.4216204
21	0xc0d8286b	-6.754934
22	0xc0ee5d32	-7.4488764
23	0xc0e6ac3c	-7.2085247
24	0xc0e314f3	-7.0963073
25	0xc0de103e	-6.9394827
26	0xc0e8a2a6	-7.2698545
27	0xc0f641ed	-7.6955476
28	0xc0ef0d3e	-7.4703665
29	0xc0d4a373	-6.6449523
30	0xc0e048b4	-7.008875
31	0xc0ee5734	-7.448145
32	0xc0d8a69c	-6.770338
33	0xc0e534ce	-7.162696
34	0xc0dcf822	-6.9052896
35	0xc0ee9131	-7.4552236
36	0xc0ed5111	-7.416146
37	0xc0f29ac9	-7.5813947
38	0xc0eb8331	-7.3597646
39	0xc0ea950e	-7.330695
40	0xc0ed18ac	-7.4092617
41	0xc0f199d8	-7.5500298
42	0xc0f70bc6	-7.720187
43	0xc0e85f0f	-7.261604
44	0xc0e8e9bf	-7.2785335
45	0xc0e18960	-7.0480194
46	0xc0e2aec1	-7.0838323
47	0xc0e7e8e3	-7.2471786
48	0xc0cc93f5	-6.393061
49	0xc0c10f6f	-6.033134
50	0xc0d981a5	-6.7970757
51	0xc0e6e028	-7.214863
52	0xc0e05242	-7.010041
53	0xc0f522d4	-7.6605015
54	0xc0ede04d	-7.4336305
55	0xc0eb68b6	-7.356532
56	0xc0e5e527	-7.1842227
57	0xc0e20d61	-7.064133
58	0xc0d5340d	-6.662604
59	0xc0d9c871	-6.805718
60	0xc0deb5b9	-6.959683
61	0xc0d91577	-6.78387
62	0xc0db9c56	-6.862834
63	0xc0e57968	-7.17107
64	0xc0dbf3ba	-6.873502
65	0xc0cf61d5	-6.4806924
66	0xc0d5d968	-6.682789
67	0xc0da9981	-6.8312383
68	0xc0d3e4e6	-6.6216917
69	0xc0ddca8f	-6.9309764
70	0xc0dd5d90	-6.917671
71	0xc0e935e1	-7.287827
72	0xc0e3eabe	-7.122405
73	0xc0e0de21	-7.0271153
74	0xc0decb07	-6.9622836
75	0xc0e10c12	-7.0327234
76	0xc0f1b41f	-7.5532374
77	0xc0f438f1	-7.631951
78	0xc0e81568	-7.252613
79	0xc0eab928	-7.335102
80	0xc0b5bec0	-5.679535
81	0xc0a3f0fb	-5.1231666
82	0xc09267be	-4.575164
83	0xc07f8aff	-3.9928586
84	0xc06e2ba1	-3.721413
85	0xc08a93f1	-4.3305593
86	0xc0905bd1	-4.511208
87	0xc0a9d651	-5.3074117
88	0xc09e26fe	-4.94226
89	0xc0b90e4a	-5.7829943
90	0xc0b8ed75	-5.7789865
91	0xc0aefbe6	-5.4682493
92	0xc0b14614	-5.5398045
93	0xc0b69e03	-5.7067885
94	0xc0cbce18	-6.368908
95	0xc0c60b3d	-6.188872
96	0xc0c7f3f7	-6.248531
97	0xc0cf8e69	-6.486134
98	0xc0d55be9	-6.6674695
99	0xc0d69aef	-6.706413
100	0xc0c96682	-6.293763
101	0xc0e02701	-7.004761
102	0xc0d0bbb8	-6.522915
103	0xc0d386ac	-6.6101894
104	0xc0d9008b	-6.7813163
105	0xc0e44fbb	-7.1347327
106	0xc0e93c93	-7.2886443
107	0xc0db3440	-6.850128
108	0xc0da9102	-6.830201
109	0xc0dc86a0	-6.8914337
110	0xc0e39e55	-7.1130776
111	0xc0e63174	-7.1935368
112	0xc0d0bd67	-6.5231204
113	0xc0d9e563	-6.8092513
114	0xc0d2a353	-6.582437
115	0xc0e39329	-7.111714
116	0xc0f80b0f	-7.75135
117	0xc0ed6862	-7.418992
118	0xc0e22886	-7.0674467
119	0xc0e243ad	-7.070761
120	0xc0ec2ce3	-7.3804793
121	0xc0fb1025	-7.845721
122	0xc0e9e20f	-7.308845
123	0xc0ebfe80	-7.374817
124	0xc0e39eec	-7.1131496
125	0xc0e1dde0	-7.0583344
126	0xc0e6cd11	-7.2125325
127	0xc0e87986	-7.2648344
128	0xc0c84f39	-6.2596707
129	0xc0cd26c9	-6.4109845
130	0xc0e733b8	-7.2250633
131	0xc0ea09dc	-7.3137035
132	0xc0e393ec	-7.111807
133	0xc0e359bb	-7.1047034
134	0xc0e4bf6e	-7.148368
135	0xc0eb36ca	-7.350438
136	0xc0e555ae	-7.166709
137	0xc0e3b71e	-7.116103
138	0xc0d72dce	-6.7243414
139	0xc0db4b5b	-6.8529487
140	0xc0db4953	-6.8527007
141	0xc0d59ad9	-6.6751523
142	0xc0d7bfcd	-6.742163
143	0xc0e69c19	-7.206555
144	0xc0e17f5e	-7.0467978
145	0xc0ce4b9d	-6.44673
146	0xc0d6c2e2	-6.7112894
147	0xc0d8f5db	-6.7800117
148	0xc0d98568	-6.797535
149	0xc0d6e998	-6.716015
150	0xc0dbf932	-6.8741693
151	0xc0ee4e88	-7.4470863
152	0xc0dd47c5	-6.915011
153	0xc0da5285	-6.822573
154	0xc0e0027a	-7.0003023
155	0xc0e358c1	-7.104584
156	0xc0f1ef22	-7.560441
157	0xc0e9dde1	-7.308335
158	0xc0e216da	-7.0652895
159	0xc0e9055a	-7.2819033
160	0xc0b3e4c4	-5.6216755
161	0xc0a82efb	-5.255735
162	0xc086f011	-4.216805
163	0xc064e2f3	-3.576352
164	0xc0634b41	-3.5514681
165	0xc097fade	-4.7493734
166	0xc09a5260	-4.8225555
167	0xc0aaad98	-5.3336906
168	0xc09b1ad4	-4.847025
169	0xc0b9aad5	-5.8021035
170	0xc0c4c683	-6.1492324
171	0xc0c0f464	-6.029833
172	0xc0ade28e	-5.4339056
173	0xc0ab541b	-5.354017
174	0xc0c0491e	-6.0089254
175	0xc0db12b3	-6.8460326
176	0xc0cda8d2	-6.426858
177	0xc0cb9b39	-6.362698
178	0xc0ccd7ef	-6.401359
179	0xc0cf8d28	-6.485981
180	0xc0c174f9	-6.045529
181	0xc0d69ea2	-6.7068644
182	0xc0c2f8b8	-6.092861
183	0xc0cea521	-6.4576573
184	0xc0d4f966	-6.655444
185	0xc0e5ae9a	-7.1775637
186	0xc0d2a435	-6.582545
187	0xc0d0c805	-6.5244164
188	0xc0d6f53a	-6.717435
189	0xc0d807cb	-6.7509513
190	0xc0ea4bbd	-7.3217454
191	0xc0ef1a9f	-7.4719996
192	0xc0de1bf8	-6.940914
193	0xc0d4e462	-6.6528788
194	0xc0d4cd34	-6.650049
195	0xc0df00c0	-6.9688416
196	0xc0f8658e	-7.762397
197	0xc0ec7b14	-7.390024
198	0xc0e48c3e	-7.1421194
199	0xc0f3be41	-7.6169744
200	0xc0f0c958	-7.524578
201	0xc0e9ff3d	-7.312407
202	0xc0e9bfef	-7.3046794
203	0xc0e2104e	-7.0644903
204	0xc0ddf849	-6.9365582
205	0xc0f0e380	-7.527771
206	0xc0f2199e	-7.565627
207	0xc0e70317	-7.219127
208	0xc0d4b1ad	-6.646689
209	0xc0d969c0	-6.794159
210	0xc0e1bc47	-7.054233
211	0xc0f25806	-7.573245
212	0xc0eb01ef	-7.343986
213	0xc0e59238	-7.174099
214	0xc0ec90c0	-7.3926697
215	0xc0ee61d8	-7.449444
216	0xc0e99472	-7.299371
217	0xc0f1a7ee	-7.551749
218	0xc0ded466	-6.9634275
219	0xc0dfb63a	-6.9909945
220	0xc0e40b41	-7.126374
221	0xc0e1180b	-7.034185
222	0xc0de2ba3	-6.9428267
223	0xc0eb9784	-7.3622456
224	0xc0e85bd7	-7.261211
225	0xc0d31f41	-6.597565
226	0xc0dd6d81	-6.919617
227	0xc0db9d85	-6.8629785
228	0xc0d55afb	-6.667356
229	0xc0db6367	-6.855884
230	0xc0dfb51a	-6.990857
231	0xc0efccc8	-7.4937477
232	0xc0e236ee	-7.0692053
233	0xc0e2141c	-7.0649548
234	0xc0e1a1e7	-7.0510135
235	0xc0e800cb	-7.250097
236	0xc0f5c06b	-7.6797385
237	0xc0eeeb86	-7.4662504
238	0xc0eb2348	-7.348057
239	0xc0f15bb4	-7.542444
240	0xc0b2f20a	-5.592046
241	0xc0a0e70b	-5.0282035
242	0xc08da2b9	-4.4261136
243	0xc080feda	-4.03111
244	0xc08364f0	-4.1060715
245	0xc0a1f76a	-5.061452
246	0xc0b2915d	-5.5802445
247	0xc0ad31c6	-5.412326
248	0xc09deb36	-4.9349623
249	0xc0b48778	-5.6415367
250	0xc0b63408	-5.6938515
251	0xc0c385a1	-6.110062
252	0xc0b3e80f	-5.6220775
253	0xc0b514c3	-5.6587844
254	0xc0ad9fd0	-5.4257584
255	0xc0b6449e	-5.695876

gen_prompt_token i4 [1, 250]
0	0x00000bed	3053
1	0x0000107a	4218
2	0x000007ef	2031
3	0x00001519	5401
4	0x000018e6	6374
5	0x000008b9	2233
6	0x00000480	1152
7	0x00000fe6	4070
8	0x000012b3	4787
9	0x00001447	5191
10	0x0000093f	2367
11	0x00000810	2064
12	0x00000825	2085
13	0x00000041	65
14	0x00000347	839
15	0x000001b2	434
16	0x00000b6e	2926
17	0x000007e9	2025
18	0x0000107a	4218
19	0x00000c75	3189
20	0x000010cb	4299
21	0x0000079c	1948
22	0x00000f32	3890
23	0x000002e1	737
24	0x000002d8	728
25	0x0000026a	618
26	0x0000018b	395
27	0x00000182	386
28	0x0000077d	1917
29	0x00000ea9	3753
30	0x0000048f	1167
31	0x000008c4	2244
32	0x00000627	1575
33	0x000010dc	4316
34	0x00000c08	3080
35	0x00001178	4472
36	0x00000c96	3222
37	0x000018e6	6374
38	0x00001195	4501
39	0x000011d4	4564
40	0x000009f4	2548
41	0x0000020f	527
42	0x00000277	631
43	0x00001989	6537
44	0x00000492	1170
45	0x000002db	731
46	0x00000e90	3728
47	0x00000673	1651
48	0x00000054	84
49	0x00001785	6021
50	0x00000a56	2646
51	0x0000053f	1343
52	0x00000230	560
53	0x000008b1	2225
54	0x00001180	4480
55	0x00001539	5433
56	0x00001260	4704
57	0x00000e95	3733
58	0x000006f6	1782
59	0x00000840	2112
60	0x00000840	2112
61	0x00000840	2112
62	0x000000a5	165
63	0x0000090c	2316
64	0x00000c9f	3231
65	0x00000d89	3465
66	0x000008f9	2297
67	0x00000adf	2783
68	0x00001376	4982
69	0x00001276	4726
70	0x000011fd	4605
71	0x00000840	2112
72	0x000007d4	2004
73	0x00000b91	2961
74	0x000018ed	6381
75	0x000018e8	6376
76	0x00000b8e	2958
77	0x0000116c	4460
78	0x00001585	5509
79	0x000012b4	4788
80	0x0000177c	6012
81	0x00001731	5937
82	0x0000007a	122
83	0x0000036d	877
84	0x00000466	1126
85	0x000000dd	221
86	0x00000074	116
87	0x00000370	880
88	0x000005ed	1517
89	0x0000085b	2139
90	0x00000639	1593
91	0x0000083d	2109
92	0x0000107a	4218
93	0x00000840	2112
94	0x00000840	2112
95	0x00000c90	3216
96	0x0000193a	6458
97	0x00000d80	3456
98	0x0000004a	74
99	0x000010d7	4311
100	0x00000947	2375
101	0x000009d7	2519
102	0x0000111e	4382
103	0x00000431	1073
104	0x000007f8	2040
105	0x0000080a	2058
106	0x000003f1	1009
107	0x000003f2	1010
108	0x00000350	848
109	0x00000605	1541
110	0x00000604	1540
111	0x000007e9	2025
112	0x00000840	2112
113	0x000010cb	4299
114	0x000010cb	4299
115	0x000007ef	2031
116	0x0000107a	4218
117	0x000007ef	2031
118	0x00000840	2112
119	0x00000840	2112
120	0x00000873	2163
121	0x000016c6	5830
122	0x000013e2	5090
123	0x00000161	353
124	0x00000110	272
125	0x0000026f	623
126	0x00000b4b	2891
127	0x000013e7	5095
128	0x00001557	5463
129	0x000007ef	2031
130	0x0000086d	2157
131	0x00000884	2180
132	0x00000ee4	3812
133	0x000012e8	4840
134	0x000006e3	1763
135	0x00000e20	3616
136	0x00000a19	2585
137	0x0000154b	5451
138	0x0000015e	350
139	0x000010f4	4340
140	0x00000bba	3002
141	0x000016ca	5834
142	0x00000f32	3890
143	0x00000c58	3160
144	0x000018e6	6374
145	0x0000040e	1038
146	0x00000759	1881
147	0x00000962	2402
148	0x00000ab8	2744
149	0x000011a5	4517
150	0x00000fb7	4023
151	0x000010fb	4347
152	0x00000470	1136
153	0x000008e4	2276
154	0x00000b6b	2923
155	0x000016cb	5835
156	0x00000e3f	3647
157	0x000000c1	193
158	0x00000322	802
159	0x0000035c	860
160	0x00000ea3	3747
161	0x000008ae	2222
162	0x000013ca	5066
163	0x0000093e	2366
164	0x00001962	6498
165	0x00000563	1379
166	0x00000b6c	2924
167	0x0000007c	124
168	0x000007d4	2004
169	0x00000c72	3186
170	0x0000020c	524
171	0x00000a91	2705
172	0x00001277	4727
173	0x000006e2	1762
174	0x00000d7e	3454
175	0x00000af5	2805
176	0x000011da	4570
177	0x000011c4	4548
178	0x00001449	5193
179	0x00001171	4465
180	0x000002db	731
181	0x0000002c	44
182	0x00001137	4407
183	0x00000a8a	2698
184	0x0000154d	5453
185	0x000018f3	6387
186	0x0000160c	5644
187	0x00000f81	3969
188	0x000010ea	4330
189	0x00001786	6022
190	0x000011e2	4578
191	0x00001285	4741
192	0x0000064c	1612
193	0x0000034a	842
194	0x00000a16	2582
195	0x000000f0	240
196	0x00000825	2085
197	0x000008cd	2253
198	0x00001583	5507
199	0x000015cc	5580
200	0x0000095a	2394
201	0x0000061b	1563
202	0x000009b3	2483
203	0x00000ac1	2753
204	0x00000375	885
205	0x00000923	2339
206	0x00000079	121
207	0x0000061b	1563
208	0x00000035	53
209	0x00000170	368
210	0x00000155	341
211	0x00000170	368
212	0x00000962	2402
213	0x00001963	6499
214	0x00001599	5529
215	0x00001074	4212
216	0x00001971	6513
217	0x00001095	4245
218	0x00001095	4245
219	0x000010cb	4299
220	0x00000873	2163
221	0x00000185	389
222	0x000000eb	235
223	0x00000935	2357
224	0x00000965	2405
225	0x000002d7	727
226	0x000013a6	5030
227	0x00000937	2359
228	0x00000ea1	3745
229	0x00000edb	3803
230	0x000003ba	954
231	0x00000873	2163
232	0x0000171c	5916
233	0x00000061	97
234	0x000000a5	165
235	0x00000092	146
236	0x000005fd	1533
237	0x00000849	2121
238	0x000000a5	165
239	0x000000ef	239
240	0x000000e3	227
241	0x0000064b	1611
242	0x00000e20	3616
243	0x00000b3f	2879
244	0x000012b6	4790
245	0x00001174	4468
246	0x000016dd	5853
247	0x00001599	5529
248	0x00000f90	3984
249	0x000007ef	2031

t3_cond_prompt_speech_tokens i4 [1, 375]
0	0x00000bec	3052
1	0x0000107a	4218
2	0x000007ef	2031
3	0x00001519	5401
4	0x000018e6	6374
5	0x000008b9	2233
6	0x00000480	1152
7	0x00000fe6	4070
8	0x000012b3	4787
9	0x00001447	5191
10	0x0000093f	2367
11	0x0000109b	4251
12	0x00000825	2085
13	0x00000026	38
14	0x00000347	839
15	0x000001b2	434
16	0x00000b6e	2926
17	0x000007e9	2025
18	0x0000107a	4218
19	0x00000c75	3189
20	0x000010cb	4299
21	0x0000079c	1948
22	0x00000f32	3890
23	0x000002e1	737
24	0x000002d8	728
25	0x0000026a	618
26	0x0000018b	395
27	0x00000182	386
28	0x0000077d	1917
29	0x00000ea9	3753
30	0x0000048f	1167
31	0x000008c4	2244
32	0x00000627	1575
33	0x000010dc	4316
34	0x00000c08	3080
35	0x00001178	4472
36	0x00000c96	3222
37	0x000018e6	6374
38	0x00001195	4501
39	0x000011d4	4564
40	0x00000ae7	2791
41	0x0000020f	527
42	0x0000025c	604
43	0x00001989	6537
44	0x00000492	1170
45	0x000002db	731
46	0x00000e90	3728
47	0x00000673	1651
48	0x00000054	84
49	0x00001785	6021
50	0x00000d2f	3375
51	0x000004ee	1262
52	0x00000230	560
53	0x000008b1	2225
54	0x00001180	4480
55	0x00001539	5433
56	0x00001260	4704
57	0x00000e95	3733
58	0x000006f6	1782
59	0x00000840	2112
60	0x00000840	2112
61	0x000007ef	2031
62	0x000000a5	165
63	0x0000090c	2316
64	0x00000c9f	3231
65	0x00000d89	3465
66	0x000008f9	2297
67	0x00000adf	2783
68	0x00001376	4982
69	0x00001276	4726
70	0x000011fd	4605
71	0x00000840	2112
72	0x000007d4	2004
73	0x00000b91	2961
74	0x000018ed	6381
75	0x000018e8	6376
76	0x00000b8e	2958
77	0x0000116c	4460
78	0x00001585	5509
79	0x000012b4	4788
80	0x0000177c	6012
81	0x00001731	5937
82	0x0000007a	122
83	0x0000036d	877
84	0x00000466	1126
85	0x000000dd	221
86	0x00000074	116
87	0x00000370	880
88	0x000005ed	1517
89	0x00000840	2112
90	0x00000639	1593
91	0x0000083d	2109
92	0x0000107a	4218
93	0x00000840	2112
94	0x00000840	2112
95	0x00000c90	3216
96	0x0000193a	6458
97	0x00000d80	3456
98	0x000008d5	2261
99	0x000010d7	4311
100	0x000011d2	4562
101	0x000009d7	2519
102	0x0000111e	4382
103	0x00000428	1064
104	0x000007f8	2040
105	0x0000080a	2058
106	0x000003f1	1009
107	0x000003f2	1010
108	0x00000350	848
109	0x00000604	1540
110	0x00000604	1540
111	0x000007e9	2025
112	0x00000840	2112
113	0x000010cb	4299
114	0x000010cb	4299
115	0x000007ef	2031
116	0x000007ef	2031
117	0x000007ef	2031
118	0x00000840	2112
119	0x00000840	2112
120	0x00000873	2163
121	0x000016c6	5830
122	0x000013e2	5090
123	0x00000161	353
124	0x00000110	272
125	0x0000026f	623
126	0x00000b4b	2891
127	0x000013e7	5095
128	0x00001557	5463
129	0x000007ef	2031
130	0x0000086d	2157
131	0x00000884	2180
132	0x00000ee4	3812
133	0x000012e8	4840
134	0x000006e3	1763
135	0x00000e20	3616
136	0x00000a19	2585
137	0x0000154b	5451
138	0x0000015e	350
139	0x000010f4	4340
140	0x00000bba	3002
141	0x000016ca	5834
142	0x00000f32	3890
143	0x00000b65	2917
144	0x000018e6	6374
145	0x0000040e	1038
146	0x00000759	1881
147	0x00000962	2402
148	0x00000ab8	2744
149	0x000011a5	4517
150	0x00000fb7	4023
151	0x000010fb	4347
152	0x00000470	1136
153	0x000008e4	2276
154	0x00000b6b	2923
155	0x000016cb	5835
156	0x00000e3f	3647
157	0x000000c1	193
158	0x00000322	802
159	0x0000035c	860
160	0x00000ea3	3747
161	0x000008ae	2222
162	0x000013c9	5065
163	0x000011c9	4553
164	0x00001962	6498
165	0x00000563	1379
166	0x00000b6c	2924
167	0x0000007c	124
168	0x0000105f	4191
169	0x000003e7	999
170	0x00000203	515
171	0x00000a91	2705
172	0x00001277	4727
173	0x000006e2	1762
174	0x00000d7e	3454
175	0x00000af5	2805
176	0x000011da	4570
177	0x000011c4	4548
178	0x00001449	5193
179	0x00001171	4465
180	0x000002db	731
181	0x0000002c	44
182	0x00001137	4407
183	0x00000a8a	2698
184	0x0000154d	5453
185	0x000018f3	6387
186	0x0000160c	5644
187	0x00000f81	3969
188	0x000010ea	4330
189	0x00001786	6022
190	0x000014bb	5307
191	0x00001285	4741
192	0x00000631	1585
193	0x0000032f	815
194	0x00000a16	2582
195	0x000000f0	240
196	0x00000825	2085
197	0x000008cd	2253
198	0x00001583	5507
199	0x000015cc	5580
200	0x0000095a	2394
201	0x00000ea6	3750
202	0x000009b3	2483
203	0x00000ac1	2753
204	0x00000324	804
205	0x00000923	2339
206	0x00000079	121
207	0x0000061b	1563
208	0x0000001a	26
209	0x00000170	368
210	0x00000155	341
211	0x00000170	368
212	0x00000962	2402
213	0x00001963	6499
214	0x00001599	5529
215	0x00001077	4215
216	0x00001971	6513
217	0x00001095	4245
218	0x00001920	6432
219	0x000010cb	4299
220	0x00000873	2163
221	0x00000185	389
222	0x000000eb	235
223	0x00000c0e	3086
224	0x00000965	2405
225	0x00000b62	2914
226	0x000013a6	5030
227	0x00000937	2359
228	0x00000e50	3664
229	0x00000edb	3803
230	0x00000369	873
231	0x00000873	2163
232	0x00000e91	3729
233	0x00000061	97
234	0x000000a5	165
235	0x00000092	146
236	0x000005fd	1533
237	0x00000849	2121
238	0x000000a5	165
239	0x000000ef	239
240	0x000000e3	227
241	0x0000064b	1611
242	0x000010f9	4345
243	0x00000b3f	2879
244	0x000012d1	4817
245	0x00001174	4468
246	0x0000172e	5934
247	0x00001599	5529
248	0x00000f3f	3903
249	0x00000da1	3489
250	0x000007ef	2031
251	0x0000105f	4191
252	0x000018e6	6374
253	0x000018e9	6377
254	0x00000aa7	2727
255	0x00001157	4439

t3_speaker_emb f4 [1, 256]
0	0x3db4b6bc	0.08823916
1	0x3d18f4ba	0.037342764
2	0x00000000	0.0
3	0x3b612c70	0.0034358762
4	0x3c75418f	0.014969244
5	0x3c326c9c	0.010890152
6	0x00000000	0.0
7	0x3c4fb4d9	0.012677395
8	0x3a4eaf7f	0.00078844273
9	0x3d8239df	0.06358694
10	0x3d06a3d7	0.032871094
11	0x3d80f08b	0.0629588
12	0x3abe0048	0.0014495933
13	0x3d1fe76c	0.03903906
14	0x3cc5c0ba	0.02413975
15	0x00000000	0.0
16	0x3dece015	0.11566178
17	0x3c988179	0.018616425
18	0x3d52b2dd	0.05144011
19	0x3d4a440e	0.04938131
20	0x3e0a3dbf	0.13500117
21	0x3d4ec526	0.050480984
22	0x00000000	0.0
23	0x3b2720fa	0.0025501833
24	0x3bb276a8	0.005446274
25	0x3dffbda0	0.1248734
26	0x3c9d1a2d	0.01917752
27	0x3b47da56	0.0030495129
28	0x00000000	0.0
29	0x00000000	0.0
30	0x3e3e91dd	0.1861033
31	0x3d63cf26	0.055617474
32	0x3dabaeec	0.08382973
33	0x00000000	0.0
34	0x3d554545	0.052068014
35	0x3e0aed9f	0.13567208
36	0x3d5293df	0.051410552
37	0x3cbbc202	0.022919659
38	0x00000000	0.0
39	0x3aaec845	0.0013334831
40	0x00000000	0.0
41	0x3cee4f60	0.029090583
42	0x3da0b1ee	0.078464374
43	0x3d4e6d67	0.050397303
44	0x3db5c67a	0.08875747
45	0x3d67d71d	0.056601632
46	0x00000000	0.0
47	0x3d48457f	0.0488944
48	0x3d9eb434	0.07749215
49	0x3c5829b2	0.013193535
50	0x00000000	0.0
51	0x3d898cd8	0.06716317
52	0x00000000	0.0
53	0x00000000	0.0
54	0x00000000	0.0
55	0x3c1f8b83	0.009737852
56	0x3d4fb01f	0.05070507
57	0x00000000	0.0
58	0x3c032e4f	0.008006646
59	0x00000000	0.0
60	0x3df3a33b	0.11896368
61	0x3d56f4e4	0.05247964
62	0x3d1bbc05	0.038021106
63	0x00000000	0.0
64	0x3da6c15a	0.08142348
65	0x00000000	0.0
66	0x3dde1aef	0.10844981
67	0x3d4cae8b	0.049971145
68	0x00000000	0.0
69	0x3b79e94a	0.0038133436
70	0x3c3c4a81	0.0114923725
71	0x3db5ad76	0.08870976
72	0x00000000	0.0
73	0x3dbe6adb	0.09297725
74	0x3a7c2695	0.0009618786
75	0x3bf936a1	0.007605389
76	0x00000000	0.0
77	0x3a024de8	0.00049707154
78	0x3d98fa41	0.07469607
79	0x3e1d13a3	0.15339522
80	0x00000000	0.0
81	0x3a618969	0.00086035446
82	0x3d765acb	0.06014518
83	0x3d946ba7	0.072470956
84	0x00000000	0.0
85	0x3dbc0e17	0.09182375
86	0x3cef469c	0.029208474
87	0x3e5a9969	0.21347584
88	0x00000000	0.0
89	0x3d87cb1c	0.06630537
90	0x3ced9ec6	0.029006373
91	0x3c027e28	0.007964648
92	0x3a60c8a0	0.00085748173
93	0x00000000	0.0
94	0x3d7aacc9	0.061199937
95	0x3bb27b15	0.0054468014
96	0x3d2ea91c	0.042641744
97	0x00000000	0.0
98	0x00000000	0.0
99	0x00000000	0.0
100	0x3d275cd6	0.04086002
101	0x00000000	0.0
102	0x3d8cd278	0.06876081
103	0x3d908cc1	0.07058097
104	0x3d12910e	0.035782866
105	0x3d928fa3	0.07156303
106	0x3dc65679	0.09684462
107	0x3cb92bb4	0.022603847
108	0x3c447ea4	0.011993084
109	0x3e3f16c1	0.18661024
110	0x00000000	0.0
111	0x3c85843d	0.016298408
112	0x3c5a919e	0.013340382
113	0x3e2bf583	0.16792874
114	0x3d2d2ae8	0.042277247
115	0x00000000	0.0
116	0x3d9898f1	0.07451046
117	0x3c7ec666	0.015550232
118	0x00000000	0.0
119	0x00000000	0.0
120	0x3c878d11	0.016546758
121	0x3dad78de	0.08470319
122	0x3d43874d	0.047736455
123	0x3cee0e3a	0.029059518
124	0x00000000	0.0
125	0x3e19ce0d	0.15020008
126	0x3d303ef1	0.043028776
127	0x3c33e9ba	0.010981018
128	0x3a18f4cc	0.00058348174
129	0x00000000	0.0
130	0x3c1056fb	0.0088098
131	0x00000000	0.0
132	0x00000000	0.0
133	0x3d7510da	0.059830524
134	0x3da5becf	0.080930345
135	0x3e1dd3a5	0.15412767
136	0x3d17d887	0.03707173
137	0x3c108037	0.008819631
138	0x3d6d5de2	0.05795086
139	0x3c95d758	0.01829116
140	0x00000000	0.0
141	0x00000000	0.0
142	0x3c3829bb	0.011240418
143	0x00000000	0.0
144	0x3e868f82	0.26281363
145	0x00000000	0.0
146	0x3dd43cee	0.10363184
147	0x00000000	0.0
148	0x3d0ad1c7	0.033891466
149	0x3c9acaad	0.018895471
150	0x3e450292	0.19239262
151	0x3ca94337	0.020661933
152	0x00000000	0.0
153	0x00000000	0.0
154	0x3d3d30ef	0.046189245
155	0x3df43005	0.119232215
156	0x3b12dc54	0.0022409158
157	0x3d606216	0.054781042
158	0x3d46e516	0.048558317
159	0x3cdc64f8	0.026903614
160	0x3db728d2	0.08943333
161	0x3a50c0b3	0.0007963285
162	0x3d011dd2	0.03152258
163	0x3cc8218d	0.02443006
164	0x3da9ddd3	0.08294263
165	0x3d26a806	0.040687583
166	0x3d781039	0.060562346
167	0x3dbc2aca	0.09187849
168	0x3dea4647	0.114391856
169	0x3d0e1b3f	0.034693953
170	0x00000000	0.0
171	0x3d8f5bc0	0.06999922
172	0x39b299e9	0.00034065478
173	0x3db5c571	0.088755496
174	0x00000000	0.0
175	0x3c52805d	0.012847987
176	0x3902a5cb	0.00012459529
177	0x3c9c99ba	0.019116271
178	0x3b81acd9	0.0039573726
179	0x3d967337	0.07346194
180	0x3dec1274	0.11526957
181	0x3d3e87f2	0.046516366
182	0x3cab306f	0.020897118
183	0x3cbec474	0.023287036
184	0x3bdc804e	0.0067291623
185	0x00000000	0.0
186	0x3b0573c1	0.0020363184
187	0x3dd2b8ad	0.1028913
188	0x00000000	0.0
189	0x3ab1565f	0.0013529769
190	0x3d915550	0.0709635
191	0x3da78123	0.08178928
192	0x00000000	0.0
193	0x3da91e76	0.08257763
194	0x00000000	0.0
195	0x3dd907a2	0.10597159
196	0x00000000	0.0
197	0x3da4da14	0.080494076
198	0x3c26343c	0.01014429
199	0x3e2eecdb	0.1708254
200	0x3cf1c231	0.029511543
201	0x3dccefc4	0.10006669
202	0x3e004144	0.12524897
203	0x3c16d392	0.009205716
204	0x00000000	0.0
205	0x3cb4cd93	0.022070682
206	0x3c941b68	0.018079475
207	0x3e11952f	0.14217065
208	0x3d305ffb	0.043060284
209	0x3cfd7752	0.030940685
210	0x00000000	0.0
211	0x3b5afd80	0.0033415258
212	0x3dcf000d	0.101074316
213	0x3c839c25	0.016065666
214	0x00000000	0.0
215	0x3c8cca52	0.017186318
216	0x3d146f6c	0.036239073
217	0x3cc14e4e	0.023596909
218	0x3da3dba3	0.08000877
219	0x00000000	0.0
220	0x3d8952b2	0.06705226
221	0x3c29fb03	0.010374787
222	0x00000000	0.0
223	0x00000000	0.0
224	0x3dd7f3fe	0.10544585
225	0x3dcbbc6b	0.09948047
226	0x3d5ba1d5	0.053621132
227	0x3ccad789	0.024760978
228	0x00000000	0.0
229	0x00000000	0.0
230	0x3d29036e	0.041263036
231	0x00000000	0.0
232	0x3c224259	0.009903514
233	0x00000000	0.0
234	0x00000000	0.0
235	0x3d143f65	0.03619327
236	0x3cea02a5	0.028565714
237	0x3de22727	0.11042624
238	0x3d4c20d0	0.04983598
239	0x3daf8f9e	0.08572315
240	0x3e3c940d	0.18415852
241	0x3d9b969d	0.075970866
242	0x38ac9dd3	8.230996e-05
243	0x3bfe787b	0.0077658272
244	0x3d9286f6	0.07154648
245	0x3cf23ab8	0.029569015
246	0x3c143129	0.009044924
247	0x3b0b31f0	0.0021239482
248	0x3de55565	0.11197928
249	0x00000000	0.0
250	0x00000000	0.0
251	0x3c0a2f88	0.008434184
252	0x3d91af3d	0.07113502
253	0x00000000	0.0
254	0x00000000	0.0
255	0x00000000	0.0
