assets/snoop.safetensors (safetensors, 164900 bytes, 5 tensors)

gen_embedding f4 [1, 192]
0	0xbfb167e1	-1.3859826
1	0x3f2a1e46	0.66452444
2	0x3f9f0233	1.2422546
3	0xbf82561e	-1.0182531
4	0x3fef63fa	1.8702385
5	0x3f4f4feb	0.8098132
6	0x3ea68b38	0.3252809
7	0xbf5af9f8	-0.8553767
8	0xbe3db564	-0.18526226
9	0xbee7ab38	-0.45247817
10	0xc01bf248	-2.4366627
11	0x3e77b6f4	0.24190885
12	0x3edf2cbc	0.43588817
13	0x3e1f5f07	0.15563594
14	0xbfed5481	-1.8541414
15	0x3f37e9ed	0.7184132
16	0xbfcb982f	-1.5905818
17	0xbee65234	-0.4498459
18	0xbf8cd8fa	-1.1003716
19	0xbecefed6	-0.404288
20	0x3e18a430	0.14906383
21	0x3fba037c	1.4532313
22	0x3e1e2a33	0.15445785
23	0xbff75c48	-1.9325037
24	0xbe509a89	-0.2037145
25	0x3f415810	0.75525
26	0xbf28f899	-0.6600433
27	0x3f750368	0.9570832
28	0xbed2b868	-0.41156316
29	0x3f8b8e8a	1.0902874
30	0xbf8e10d1	-1.1098882
31	0xc01a5381	-2.4113467
32	0xbf555114	-0.8332684
33	0xbc4c4307	-0.012467152
34	0x3d4343d1	0.047672097
35	0xbfe1a965	-1.762982
36	0xbf3e9f07	-0.74461406
37	0xbfc37456	-1.5269878
38	0xbfd6891c	-1.6760592
39	0xbf4bd2f7	-0.7961878
40	0x3e515b6a	0.20445028
41	0x3f32d00c	0.69848704
42	0xbf59c18e	-0.85060966
43	0x3f33f4f2	0.7029563
44	0xbf46d324	-0.77665925
45	0xbf868f84	-1.0512547
46	0x3fa22bbb	1.2669595
47	0xbdcb173c	-0.09916541
48	0xbe1a2d13	-0.15056257
49	0xbe0ccd84	-0.13750273
50	0x3f497754	0.78697705
51	0xbfc6d606	-1.5534065
52	0x3ec709a6	0.3887455
53	0x3e3e1078	0.1856097
54	0x3f4fe030	0.8120146
55	0xbf93a525	-1.1534773
56	0x3ed310eb	0.41223845
57	0xbfa92c88	-1.3216715
58	0xbf8ec985	-1.1155249
59	0x3ecf8262	0.40529162
60	0xbf8bcf83	-1.0922703
61	0x3f3e79b4	0.74404454
62	0xbf0fba01	-0.56143194
63	0xc0293d66	-2.6443725
64	0xbf1312cd	-0.5745056
65	0x3ff09bda	1.8797562
66	0x3e7334a5	0.23750551
67	0xbddba16f	-0.107241504
68	0x3ea2317a	0.31678373
69	0x3d83235e	0.0640323
70	0xbf4b7f51	-0.79491144
71	0x3f262781	0.6490403
72	0xbf134a3f	-0.57535166
73	0x3f03193f	0.512104
74	0x3e367e09	0.17821516
75	0xbf1d95d0	-0.6155672
76	0xbea7c039	-0.32763842
77	0xbf375b00	-0.7162323
78	0x3ea2c5e2	0.31791598
79	0x3eceb025	0.40368763
80	0x3ffe3f30	1.9863033
81	0xbf80b869	-1.0056278
82	0x3f0017ba	0.50036204
83	0x3f692614	0.9107373
84	0x3eff1ba5	0.4982578
85	0xbfb181e0	-1.386776
86	0x3cd03471	0.025415631
87	0x3f0ae6d0	0.5425844
88	0xbee637ae	-0.44964355
89	0x3ebb5af2	0.36592823
90	0x3ec735aa	0.3890813
91	0x3fd4a7fc	1.6613765
92	0xbfa0e8a7	-1.2571
93	0xbe13dd0a	-0.14439788
94	0x3f608fc3	0.8771936
95	0xbf4e2d84	-0.805382
96	0x3e716031	0.2357185
97	0x3f590dee	0.8478688
98	0x3dc82e2f	0.09774434
99	0xbe104251	-0.14087798
100	0x3de9be69	0.11413271
101	0x3eb5a202	0.35475165
102	0xbf3ae36b	-0.7300326
103	0x3f164dfa	0.5871273
104	0x3f6fb871	0.9364081
105	0xbfa23280	-1.2671661
106	0x3f22246a	0.63336813
107	0x3f3bad4b	0.733113
108	0xbfd904b6	-1.6954563
109	0x3f2ad8e1	0.6673718
110	0xbd67b446	-0.056568407
111	0x3ca4c287	0.02011229
112	0xbf93d4ad	-1.1549278
113	0xbfcfd684	-1.623734
114	0x3f201b6b	0.62541837
115	0x3e26a294	0.16272956
116	0x3f153993	0.58290976
117	0xc00f2878	-2.236845
118	0xbf67baeb	-0.9051959
119	0x40084d5d	2.1297219
120	0xbed81b91	-0.42208531
121	0xbfcf2fa3	-1.6186413
122	0x3eec264d	0.4612297
123	0xbe7449ca	-0.23856273
124	0xbcb69044	-0.022285588
125	0xbf5cc2bd	-0.8623465
126	0xbf3b2e20	-0.73117256
127	0xbf916403	-1.1358646
128	0xbfd7eccd	-1.6869141
129	0x3e36234d	0.17786904
130	0xc00b8420	-2.1799393
131	0x3ef48941	0.47760966
132	0x3e212db4	0.1574009
133	0x3f8c1369	1.0943424
134	0xbef91b98	-0.48653865
135	0xbe2e5a86	-0.1702672
136	0x3f3fb5a4	0.74886537
137	0xc02f2dee	-2.7371783
138	0x3e683e1d	0.22679944
139	0xbf051d9e	-0.5199832
140	0x3f2dfbfe	0.67962635
141	0xbfac9d8d	-1.3485581
142	0xbfa701fd	-1.3047482
143	0x3f68a5e9	0.9087816
144	0xbf0ec049	-0.55762154
145	0x3d87fbfd	0.0663986
146	0x3e10008c	0.14062709
147	0xbe0cf15e	-0.1376395
148	0xbf617c36	-0.88080156
149	0x3de2b54d	0.11069737
150	0xbfb4f943	-1.4138569
151	0x3ebe335f	0.37148568
152	0x404468ae	3.0688891
153	0x3fe51304	1.7896428
154	0x3e7c9cb3	0.24669151
155	0xbea811eb	-0.3282617
156	0xbe21573a	-0.1575593
157	0xbf921ae7	-1.141446
158	0x3ef49113	0.47766933
159	0xbfced752	-1.615946
160	0xbfdab9d4	-1.708796
161	0x3f2256ab	0.63413495
162	0x3eb7f9fc	0.3593291
163	0xbffa261f	-1.9542884
164	0x3fb2a097	1.3955258
165	0x3f1a40d1	0.6025515
166	0xbf1b70ae	-0.6071881
167	0xbf79c172	-0.975608
168	0xbf4edfb4	-0.80810094
169	0xbe29a16f	-0.16565488
170	0xbf8d28dd	-1.1028095
171	0x3ea9ccea	0.3316415
172	0xbd384558	-0.044988006
173	0x3e02bf94	0.12768394
174	0xbe28ab5a	-0.16471615
175	0xbf71121e	-0.9416827
176	0xbe835efe	-0.2565841
177	0xbe93160b	-0.28727755
178	0x3f4e462f	0.8057584
179	0x3ec3c2f6	0.3823468
180	0x3f0de17d	0.5542219
181	0xbf3f39e4	-0.7469771
182	0xbe5195be	-0.20467278
183	0xbbd30560	-0.0064398497
184	0xc00a3b58	-2.159872
185	0x3fc5cbf5	1.5452868
186	0xbfaf98c0	-1.3718491
187	0xbe591924	-0.21200997
188	0xbeea4a4c	-0.4575981
189	0xbe4ac1f3	-0.19800548
190	0xc03f7644	-2.9915934
191	0x3f710f47	0.94163936

gen_prompt_feat f4 [1, 500, 80]
0	0xc09dc788	-4.930607
1	0xc0a5b14b	-5.177892
2	0xc092149b	-4.5650153
3	0xc0bde60f	-5.9343333
4	0xc0c4fb79	-6.1556973
5	0xc0c0b457	-6.022014
6	0xc0c18060	-6.046921
7	0xc0b7f8cb	-5.74912
8	0xc09f03a5	-4.969195
9	0xc098a841	-4.770539
10	0xc0a00df1	-5.001702
11	0xc092d7f0	-4.5888596
12	0xc0830bac	-4.095175
13	0xc08f8b23	-4.4857345
14	0xc0b760b4	-5.7305546
15	0xc0b756bd	-5.729338
16	0xc0bafd3d	-5.843413
17	0xc0b060d6	-5.511821
18	0xc0acd588	-5.401066
19	0xc0b8c1ad	-5.773642
20	0xc0c62796	-6.1923323
21	0xc0aa7345	-5.326571
22	0xc0afd27b	-5.4944434
23	0xc0b3af18	-5.6151237
24	0xc0b3f6b7	-5.6238666
25	0xc0c2cd8d	-6.0875916
26	0xc0a4cbbe	-5.149871
27	0xc0b21f98	-5.5663567
28	0xc0b44e91	-5.6345906
29	0xc0af8324	-5.4847584
30	0xc0b99118	-5.7989616
31	0xc0b02814	-5.5048923
32	0xc0a5ebfc	-5.1850567
33	0xc0d500c1	-6.656342
34	0xc0bea41f	-5.9575343
35	0xc0adfdb0	-5.4372177
36	0xc0a735b4	-5.2253056
37	0xc09c4a6d	-4.884085
38	0xc0a261c2	-5.0744333
39	0xc0b88db8	-5.7672997
40	0xc0d70054	-6.71879
41	0xc0bfbd54	-5.9918613
42	0xc0bbb6e1	-5.866074
43	0xc0bd461a	-5.9148073
44	0xc0b5c108	-5.6798134
45	0xc0bf4c00	-5.9780273
46	0xc0c694c1	-6.2056584
47	0xc0c19c60	-6.0503387
48	0xc0df5a33	-6.9797606
49	0xc0e1a39e	-7.051223
50	0xc0d06f04	-6.5135517
51	0xc0d4633b	-6.637113
52	0xc0ca7d15	-6.327769
53	0xc0d0bb4e	-6.5228643
54	0xc0c3b60f	-6.115974
55	0xc0ce0be0	-6.4389496
56	0xc0e12109	-7.0352826
57	0xc0e85ded	-7.2614655
58	0xc0e37529	-7.108052
59	0xc0d63bb2	-6.694787
60	0xc0d6d550	-6.713539
61	0xc0e66a74	-7.200495
62	0xc0f78e97	-7.736156
63	0xc0ffe288	-7.9964027
64	0xc10213bc	-8.129818
65	0xc0f25d73	-7.5739074
66	0xc0f353f9	-7.6040006
67	0xc0fc6071	-7.8867726
68	0xc0f884a7	-7.766193
69	0xc101513e	-8.0823345
70	0xc103658a	-8.21229
71	0xc0fcc800	-7.899414
72	0xc0fa908c	-7.830145
73	0xc0f63057	-7.693401
74	0xc0fb7517	-7.858043
75	0xc102d3fc	-8.176754
76	0xc1007a9b	-8.029933
77	0xc1036868	-8.21299
78	0xc1020d5c	-8.128262
79	0xc10357a3	-8.208896
80	0xc098298f	-4.755073
81	0xc08b79fe	-4.3586416
82	0xc088d428	-4.275898
83	0xc0959fb8	-4.675747
84	0xc0b04c40	-5.509308
85	0xc0ad7f2a	-5.421773
86	0xc0b9d672	-5.8074274
87	0xc0ae4f3e	-5.447173
88	0xc0ae771b	-5.4520392
89	0xc0a93150	-5.2872696
90	0xc0b18ada	-5.5481997
91	0xc0a8ebc4	-5.27878
92	0xc090d8d0	-4.5264664
93	0xc09d17be	-4.909148
94	0xc0ad4c1b	-5.41554
95	0xc0a53816	-5.1630964
96	0xc0b1f1b8	-5.5607567
97	0xc0a0d0cc	-5.025488
98	0xc096d875	-4.713923
99	0xc0b06dc3	-5.5133986
100	0xc0ba1048	-5.8144875
101	0xc0a32fea	-5.099599
102	0xc0b75c55	-5.730021
103	0xc0b9fb3c	-5.8119183
104	0xc0b699c5	-5.7062707
105	0xc0c4fd3e	-6.1559134
106	0xc0a7075f	-5.21965
107	0xc0a18409	-5.0473676
108	0xc0a852d5	-5.2601113
109	0xc0b34efa	-5.6033907
110	0xc0b7b5a9	-5.7409253
111	0xc0b99750	-5.799721
112	0xc0b12ec7	-5.53696
113	0xc0b72cb6	-5.724208
114	0xc0b0e435	-5.5278573
115	0xc0c1d72d	-6.0575166
116	0xc0a37c7a	-5.108945
117	0xc0975eb5	-4.730311
118	0xc0a2de1f	-5.0896144
119	0xc0ac4f97	-5.3847156
120	0xc0c7e06c	-6.2461452
121	0xc0bab707	-5.834842
122	0xc0bf5686	-5.979312
123	0xc0c4fc7e	-6.155822
124	0xc0aa2c3a	-5.3178988
125	0xc0ad5c63	-5.4175277
126	0xc0bfa542	-5.988923
127	0xc0c0477e	-6.008727
128	0xc0db527e	-6.85382
129	0xc0da0033	-6.8125243
130	0xc0d09e66	-6.5193357
131	0xc0cb1e16	-6.3474226
132	0xc0cd05fd	-6.406981
133	0xc0cb8b4b	-6.3607535
134	0xc0cd26c5	-6.4109826
135	0xc0d0ba28	-6.522724
136	0xc0e5ac00	-7.177246
137	0xc0e7c29e	-7.242507
138	0xc0e512f4	-7.1585636
139	0xc0de4d03	-6.946901
140	0xc0cfc720	-6.4930573
141	0xc0e07029	-7.0136914
142	0xc0f594d0	-7.6744156
143	0xc0fefe7d	-7.9685655
144	0xc0fb5ecf	-7.8553233
145	0xc0f7706c	-7.7324734
146	0xc0f6ca09	-7.7121625
147	0xc0f985a5	-7.797564
148	0xc0f551ee	-7.666251
149	0xc100bf64	-8.046726
150	0xc0ff2f9d	-7.974562
151	0xc0fccff5	-7.9003854
152	0xc0ff3739	-7.975491
153	0xc0efd271	-7.4944386
154	0xc0fa4c28	-7.8217964
155	0xc100c068	-8.046974
156	0xc102d2ab	-8.176433
157	0xc1033bf1	-8.202134
158	0xc1004cb5	-8.018727
159	0xc10048b3	-8.017749
160	0xc09a8037	-4.828151
161	0xc0947fa1	-4.6405797
162	0xc0990b50	-4.782631
163	0xc08ff416	-4.4985456
164	0xc0a393ac	-5.1117764
165	0xc0a76492	-5.2310266
166	0xc0b47fd3	-5.6406035
167	0xc0c05580	-6.010437
168	0xc0b8bf71	-5.7733693
169	0xc0abab71	-5.364678
170	0xc0ab75bc	-5.358122
171	0xc0bb379c	-5.8505383
172	0xc09ea9cd	-4.9582276
173	0xc08e3334	-4.4437504
174	0xc0a01291	-5.0022664
175	0xc0a469d2	-5.1379175
176	0xc0b50193	-5.656442
177	0xc0a6f3b1	-5.2172475
178	0xc09c65ae	-4.887412
179	0xc09e229d	-4.9417253
180	0xc0b922f9	-5.785519
181	0xc0afb148	-5.490391
182	0xc0a851e7	-5.259998
183	0xc0b7fd49	-5.7496686
184	0xc0a89f88	-5.269474
185	0xc0b11aea	-5.5345354
186	0xc0bc8128	-5.890766
187	0xc0a639ba	-5.1945467
188	0xc0b59789	-5.674748
189	0xc0b78082	-5.734437
190	0xc0c15874	-6.0420475
191	0xc0cd4607	-6.4147983
192	0xc0bd0f3f	-5.908111
193	0xc0b39307	-5.6116977
194	0xc0a630f3	-5.1934752
195	0xc0a159df	-5.0422206
196	0xc09732a8	-4.7249336
197	0xc09286ce	-4.5789557
198	0xc09a1835	-4.815455
199	0xc0b2a517	-5.5826526
200	0xc0b66a14	-5.700449
201	0xc0c0f36d	-6.029715
202	0xc0bd1379	-5.908627
203	0xc0ba0736	-5.8133802
204	0xc0a5573d	-5.166899
205	0xc0b39a3e	-5.6125784
206	0xc0caa8c1	-6.3331
207	0xc0bc5af8	-5.8861046
208	0xc0d6d9ff	-6.714111
209	0xc0dbfa71	-6.8743215
210	0xc0d894cf	-6.768165
211	0xc0ccb7ff	-6.3974605
212	0xc0d0ccd9	-6.525006
213	0xc0c85916	-6.2608747
214	0xc0cf78f6	-6.4835157
215	0xc0dd6395	-6.918406
216	0xc0e34898	-7.1026115
217	0xc0d9d34e	-6.807044
218	0xc0e0340a	-7.0063524
219	0xc0db9dc4	-6.8630085
220	0xc0d1c656	-6.555461
221	0xc0efc390	-7.4926224
222	0xc0fa9392	-7.830514
223	0xc1006f5c	-8.027187
224	0xc0fea816	-7.9580183
225	0xc0f6e085	-7.714907
226	0xc0f56751	-7.668862
227	0xc0f596eb	-7.6746726
228	0xc0eb24d3	-7.348245
229	0xc0ff77b5	-7.9833627
230	0xc1022426	-8.133825
231	0xc0fe5425	-7.9477715
232	0xc1010b7d	-8.065305
233	0xc0f2623f	-7.574493
234	0xc0fc2408	-7.8793983
235	0xc0ff5f5f	-7.980392
236	0xc101cf19	-8.113061
237	0xc1019950	-8.09993
238	0xc0ff5a07	-7.9797397
239	0xc0ffc9d8	-7.993389
240	0xc09410ba	-4.627042
241	0xc0a7f41c	-5.2485485
242	0xc0a83638	-5.2566185
243	0xc09d1c81	-4.9097295
244	0xc0a648c5	-5.196383
245	0xc09f3810	-4.9755936
246	0xc0acd8fa	-5.4014864
247	0xc0b1fe7f	-5.5623164
248	0xc0a2ffd8	-5.093731
249	0xc09ec3ac	-4.9613857
250	0xc0a8a434	-5.2700443
251	0xc09f03b1	-4.9692006
252	0xc0998315	-4.797251
253	0xc0910add	-4.532576
254	0xc08d0e95	-4.40803
255	0xc08e63cf	-4.4496837

gen_prompt_token i4 [1, 250]
0	0x00000ba8	2984
1	0x00000e40	3648
2	0x00000e40	3648
3	0x00000e3d	3645
4	0x00000e3d	3645
5	0x00000f4b	3915
6	0x00000e5b	3675
7	0x000007ef	2031
8	0x000007ef	2031
9	0x000007ef	2031
10	0x000007d1	2001
11	0x00001938	6456
12	0x00000586	1414
13	0x000010e2	4322
14	0x00001787	6023
15	0x00001484	5252
16	0x00001569	5481
17	0x00001386	4998
18	0x00000926	2342
19	0x00001184	4484
20	0x00001445	5189
21	0x00000e90	3728
22	0x00000d9d	3485
23	0x00000592	1426
24	0x0000084d	2125
25	0x0000075e	1886
26	0x000006f1	1777
27	0x00000783	1923
28	0x00000087	135
29	0x00000965	2405
30	0x00001585	5509
31	0x000013bb	5051
32	0x00000558	1368
33	0x000001c8	456
34	0x00000560	1376
35	0x00001428	5160
36	0x00000918	2328
37	0x0000012f	303
38	0x00000044	68
39	0x00000008	8
40	0x000002db	731
41	0x00000254	596
42	0x00000541	1345
43	0x00000f54	3924
44	0x00000e0a	3594
45	0x00000144	324
46	0x0000014e	334
47	0x00000da0	3488
48	0x0000162b	5675
49	0x00000b36	2870
50	0x0000084c	2124
51	0x00001962	6498
52	0x00000587	1415
53	0x0000187a	6266
54	0x000003b2	946
55	0x0000091c	2332
56	0x00000b54	2900
57	0x000010c3	4291
58	0x00001949	6473
59	0x00001521	5409
60	0x00000ab0	2736
61	0x00000bff	3071
62	0x000006fc	1788
63	0x00000933	2355
64	0x000009e8	2536
65	0x000011c0	4544
66	0x000011c0	4544
67	0x00000b12	2834
68	0x00000ca7	3239
69	0x00001290	4752
70	0x0000030f	783
71	0x00000606	1542
72	0x000006ab	1707
73	0x00000e43	3651
74	0x00000e43	3651
75	0x00000e43	3651
76	0x00000e43	3651
77	0x00000e43	3651
78	0x00000e43	3651
79	0x00000b6a	2922
80	0x00000b6a	2922
81	0x000003d2	978
82	0x000006ac	1708
83	0x0000079e	1950
84	0x00000e44	3652
85	0x00000008	8
86	0x00000370	880
87	0x00000222	546
88	0x000014ce	5326
89	0x00000c3f	3135
90	0x00000f17	3863
91	0x00001694	5780
92	0x00001628	5672
93	0x00000fc9	4041
94	0x00000044	68
95	0x00000f2f	3887
96	0x00000889	2185
97	0x00000740	1856
98	0x00000f78	3960
99	0x00000d8f	3471
100	0x0000064d	1613
101	0x0000087f	2175
102	0x00000876	2166
103	0x000001d6	470
104	0x0000116f	4463
105	0x000011c0	4544
106	0x00001448	5192
107	0x00000c0e	3086
108	0x000005b1	1457
109	0x00000147	327
110	0x0000009e	158
111	0x0000032c	812
112	0x000006a7	1703
113	0x000005b7	1463
114	0x0000031b	795
115	0x00000329	809
116	0x0000114f	4431
117	0x000011a3	4515
118	0x00001188	4488
119	0x00001207	4615
120	0x000011f8	4600
121	0x00000888	2184
122	0x0000086a	2154
123	0x000007e2	2018
124	0x000017a0	6048
125	0x000004c9	1225
126	0x00000ac7	2759
127	0x00000b48	2888
128	0x000013a3	5027
129	0x00000398	920
130	0x00000ed0	3792
131	0x00000371	881
132	0x000014c7	5319
133	0x00001986	6534
134	0x00001104	4356
135	0x0000137c	4988
136	0x000013c3	5059
137	0x00001277	4727
138	0x00000119	281
139	0x000005f1	1521
140	0x000003f4	1012
141	0x00000840	2112
142	0x00000f36	3894
143	0x00000e43	3651
144	0x00000e43	3651
145	0x00000e43	3651
146	0x00000e94	3732
147	0x00000e40	3648
148	0x00000e3d	3645
149	0x00001074	4212
150	0x0000079b	1947
151	0x000006f9	1785
152	0x000007a7	1959
153	0x000007ec	2028
154	0x000007ef	2031
155	0x000007b9	1977
156	0x00000128	296
157	0x000002e7	743
158	0x000006b8	1720
159	0x000002db	731
160	0x000016ca	5834
161	0x000017bd	6077
162	0x00001051	4177
163	0x000007ca	1994
164	0x0000106f	4207
165	0x000009bf	2495
166	0x000011b9	4537
167	0x00001169	4457
168	0x000002c0	704
169	0x0000086a	2154
170	0x0000036f	879
171	0x00000908	2312
172	0x000000b5	181
173	0x0000075c	1884
174	0x00000c93	3219
175	0x000016b0	5808
176	0x00000465	1125
177	0x000013bb	5051
178	0x000013dc	5084
179	0x0000084f	2127
180	0x00001965	6501
181	0x000013d3	5075
182	0x000012ac	4780
183	0x000011db	4571
184	0x0000174f	5967
185	0x000010fe	4350
186	0x00001935	6453
187	0x0000049b	1179
188	0x0000064e	1614
189	0x00001341	4929
190	0x00000ca5	3237
191	0x00000c05	3077
192	0x00001711	5905
193	0x00001062	4194
194	0x00000768	1896
195	0x000001ec	492
196	0x00000aa4	2724
197	0x00001393	5011
198	0x000011fb	4603
199	0x00001104	4356
200	0x00000974	2420
201	0x000003a9	937
202	0x00001873	6259
203	0x00000667	1639
204	0x000012aa	4778
205	0x0000139d	5021
206	0x00001624	5668
207	0x00000d7e	3454
208	0x00000af7	2807
209	0x0000047d	1149
210	0x000007ef	2031
211	0x00000f87	3975
212	0x00000e94	3732
213	0x00000e43	3651
214	0x00000e43	3651
215	0x00000e43	3651
216	0x000005b8	1464
217	0x00000e43	3651
218	0x000005b2	1458
219	0x000007b3	1971
220	0x000007ef	2031
221	0x000007ef	2031
222	0x000007ef	2031
223	0x000007ef	2031
224	0x000007ef	2031
225	0x000007ef	2031
226	0x00000840	2112
227	0x000007ef	2031
228	0x000006ab	1707
229	0x000007ef	2031
230	0x000007ef	2031
231	0x0000079e	1950
232	0x000007ef	2031
233	0x000007ef	2031
234	0x000007ef	2031
235	0x000007ef	2031
236	0x000005eb	1515
237	0x000006a8	1704
238	0x000007ef	2031
239	0x00001076	4214
240	0x0000162e	5678
241	0x0000167f	5759
242	0x00000d66	3430
243	0x00001935	6453
244	0x00000714	1812
245	0x000009b4	2484
246	0x000008d2	2258
247	0x000006e3	1763
248	0x000004fd	1277
249	0x000012bc	4796

t3_cond_prompt_speech_tokens i4 [1, 375]
0	0x00000ba8	2984
1	0x00000e40	3648
2	0x00000e3d	3645
3	0x00000e3d	3645
4	0x00000e3d	3645
5	0x00000f4b	3915
6	0x00000e5b	3675
7	0x000007ef	2031
8	0x000007ef	2031
9	0x000007ef	2031
10	0x000007d1	2001
11	0x00001935	6453
12	0x00000586	1414
13	0x000010e2	4322
14	0x000014ae	5294
15	0x00001484	5252
16	0x00001569	5481
17	0x00001386	4998
18	0x00000926	2342
19	0x00001184	4484
20	0x00001445	5189
21	0x00000e90	3728
22	0x00000ac4	2756
23	0x00000591	1425
24	0x00000850	2128
25	0x0000075e	1886
26	0x000006f1	1777
27	0x00000783	1923
28	0x00000087	135
29	0x00000914	2324
30	0x00001585	5509
31	0x000013bb	5051
32	0x00000558	1368
33	0x000001c8	456
34	0x00000560	1376
35	0x00001428	5160
36	0x00000918	2328
37	0x0000012f	303
38	0x00000044	68
39	0x00000008	8
40	0x000002db	731
41	0x00000254	596
42	0x00000592	1426
43	0x00000f54	3924
44	0x00000e0a	3594
45	0x00000144	324
46	0x0000014e	334
47	0x00000df1	3569
48	0x0000162b	5675
49	0x00000b33	2867
50	0x0000084c	2124
51	0x000010d7	4311
52	0x00000587	1415
53	0x0000187a	6266
54	0x000003b2	946
55	0x0000091c	2332
56	0x00000b54	2900
57	0x000010c3	4291
58	0x00001949	6473
59	0x00001521	5409
60	0x00000ab0	2736
61	0x00000bff	3071
62	0x000006fc	1788
63	0x00000933	2355
64	0x000009e8	2536
65	0x000011c0	4544
66	0x000011c0	4544
67	0x00000b12	2834
68	0x00000bb4	2996
69	0x00001290	4752
70	0x0000030f	783
71	0x00000606	1542
72	0x000006ab	1707
73	0x00000e43	3651
74	0x00000e43	3651
75	0x00000e43	3651
76	0x00000e43	3651
77	0x00000e43	3651
78	0x00000e43	3651
79	0x00000b6a	2922
80	0x00000b6a	2922
81	0x000002df	735
82	0x000006ac	1708
83	0x0000079e	1950
84	0x00000e44	3652
85	0x00000008	8
86	0x00000370	880
87	0x00000222	546
88	0x000014ce	5326
89	0x00000c3f	3135
90	0x00000f17	3863
91	0x00001694	5780
92	0x00001628	5672
93	0x000010bd	4285
94	0x00000044	68
95	0x00000f2f	3887
96	0x00000889	2185
97	0x00000740	1856
98	0x00000f78	3960
99	0x00000d8f	3471
100	0x0000064d	1613
101	0x00000876	2166
102	0x00000876	2166
103	0x000001d6	470
104	0x0000116f	4463
105	0x000011c0	4544
106	0x0000116f	4463
107	0x00000c0e	3086
108	0x000005b1	1457
109	0x00000147	327
110	0x0000009e	158
111	0x000002db	731
112	0x000006a7	1703
113	0x000005b7	1463
114	0x0000031b	795
115	0x00000320	800
116	0x0000114f	4431
117	0x000011a3	4515
118	0x00001188	4488
119	0x00001207	4615
120	0x000011f8	4600
121	0x0000087f	2175
122	0x0000086a	2154
123	0x000007e2	2018
124	0x000017a0	6048
125	0x000004ca	1226
126	0x00000ac7	2759
127	0x00000b48	2888
128	0x00000b18	2840
129	0x00000398	920
130	0x00000ed0	3792
131	0x00000371	881
132	0x000014c7	5319
133	0x00001986	6534
134	0x00001104	4356
135	0x0000137c	4988
136	0x000013c3	5059
137	0x000009ec	2540
138	0x00000119	281
139	0x000005f1	1521
140	0x000003f4	1012
141	0x00000840	2112
142	0x00000f36	3894
143	0x00000e43	3651
144	0x00000e43	3651
145	0x00000e43	3651
146	0x00000e43	3651
147	0x00000e40	3648
148	0x00000e3d	3645
149	0x00001074	4212
150	0x0000079b	1947
151	0x000006f9	1785
152	0x000007a4	1956
153	0x000007ec	2028
154	0x000007ef	2031
155	0x000007b9	1977
156	0x00000128	296
157	0x000002e7	743
158	0x000006b8	1720
159	0x000002db	731
160	0x000016ca	5834
161	0x000017bd	6077
162	0x00001051	4177
163	0x00001055	4181
164	0x0000106f	4207
165	0x000009bf	2495
166	0x00001183	4483
167	0x00001169	4457
168	0x000002c0	704
169	0x0000086a	2154
170	0x0000036f	879
171	0x00000908	2312
172	0x000000b5	181
173	0x0000075c	1884
174	0x00000c93	3219
175	0x0000165f	5727
176	0x00000465	1125
177	0x000013bb	5051
178	0x000013dc	5084
179	0x0000084f	2127
180	0x00001965	6501
181	0x000013d0	5072
182	0x0000125b	4699
183	0x00000950	2384
184	0x0000174f	5967
185	0x000010fe	4350
186	0x00001935	6453
187	0x0000049b	1179
188	0x0000064e	1614
189	0x00001341	4929
190	0x00000ca5	3237
191	0x00000ede	3806
192	0x00000e86	3718
193	0x00001062	4194
194	0x00000768	1896
195	0x000001ec	492
196	0x00000aa4	2724
197	0x00001394	5012
198	0x000011fb	4603
199	0x00001104	4356
200	0x00000974	2420
201	0x000003a9	937
202	0x00001873	6259
203	0x00000667	1639
204	0x000012aa	4778
205	0x00001676	5750
206	0x00001624	5668
207	0x00000d7e	3454
208	0x00000af7	2807
209	0x0000047d	1149
210	0x000007ef	2031
211	0x00000f87	3975
212	0x00000e94	3732
213	0x00000e43	3651
214	0x00000e43	3651
215	0x00000e43	3651
216	0x000005b8	1464
217	0x00000e40	3648
218	0x000005b2	1458
219	0x000007b3	1971
220	0x000007ec	2028
221	0x000007ef	2031
222	0x000007ef	2031
223	0x000007ef	2031
224	0x000007ef	2031
225	0x000007ef	2031
226	0x00000840	2112
227	0x000007ef	2031
228	0x000006ab	1707
229	0x000007ef	2031
230	0x000007ef	2031
231	0x000006ab	1707
232	0x000007ef	2031
233	0x000007ef	2031
234	0x000007ef	2031
235	0x000007ef	2031
236	0x000005eb	1515
237	0x000006f9	1785
238	0x000007ef	2031
239	0x00000d9d	3485
240	0x0000162e	5678
241	0x0000167f	5759
242	0x00000d66	3430
243	0x00001935	6453
244	0x00000714	1812
245	0x00000c8d	3213
246	0x00000044	68
247	0x000006e3	1763
248	0x000004fd	1277
249	0x0000126b	4715
250	0x000011da	4570
251	0x00000944	2372
252	0x000004e9	1257
253	0x000014ce	5326
254	0x0000065e	1630
255	0x00000599	1433

t3_speaker_emb f4 [1, 256]
0	0x3e0cc5f6	0.13747391
1	0x3d403307	0.046923663
2	0x3c8b6e80	0.017020464
3	0x3d2926c0	0.04129672
4	0x3bab1fec	0.0052223112
5	0x3bc1001b	0.005889905
6	0x3bdbf50d	0.006712562
7	0x3c807280	0.015679598
8	0x3c92f0b6	0.017937046
9	0x3d51fec0	0.05126834
10	0x3e13c6a9	0.14431252
11	0x3dabf9d5	0.08397261
12	0x3c33cfaa	0.010974804
13	0x3c6efa20	0.014586002
14	0x3d410b2e	0.047129802
15	0x3bf3e79c	0.0074433815
16	0x3dee270d	0.11628542
17	0x3d674758	0.056464523
18	0x3955c21b	0.00020385573
19	0x394e70a7	0.00019687657
20	0x3deb83ec	0.114997715
21	0x3b77adf8	0.0037792902
22	0x00000000	0.0
23	0x3cc61ecc	0.024184607
24	0x3be93e97	0.007118057
25	0x3d9e0874	0.07716456
26	0x00000000	0.0
27	0x3bc47426	0.0059952913
28	0x00000000	0.0
29	0x00000000	0.0
30	0x3de2d263	0.11075284
31	0x3dcd8f66	0.10037117
32	0x00000000	0.0
33	0x00000000	0.0
34	0x3dd36e9b	0.10323831
35	0x3de75a13	0.11296477
36	0x3e3f378c	0.18673533
37	0x3ca84820	0.020542204
38	0x393bbf28	0.00017904921
39	0x3caebf44	0.021331437
40	0x3ab3e6de	0.001372542
41	0x3ccd2624	0.0250426
42	0x3de83014	0.11337295
43	0x3d33b49d	0.043873418
44	0x3d848377	0.064703874
45	0x00000000	0.0
46	0x3d8ae11d	0.06781218
47	0x3bcfb9d8	0.006339293
48	0x3c796f20	0.015224248
49	0x00000000	0.0
50	0x00000000	0.0
51	0x3e0d9d84	0.13829619
52	0x00000000	0.0
53	0x00000000	0.0
54	0x00000000	0.0
55	0x3c26ab6d	0.010172707
56	0x3c17f5b9	0.009274893
57	0x00000000	0.0
58	0x3b8e7726	0.0043476997
59	0x3c5d7c8f	0.013518467
60	0x00000000	0.0
61	0x00000000	0.0
62	0x3c8dd582	0.017313723
63	0x3e1452bb	0.14484684
64	0x3d964098	0.07336539
65	0x00000000	0.0
66	0x3d9e7927	0.07737952
67	0x3d83d7dd	0.06437657
68	0x3b33fb40	0.002746299
69	0x3b7bc4e7	0.0038416923
70	0x00000000	0.0
71	0x3db1b35f	0.086767904
72	0x3bde9e87	0.0067938003
73	0x3e09e864	0.13467556
74	0x3cb4220d	0.021988893
75	0x3a273113	0.0006377857
76	0x00000000	0.0
77	0x3d0881f8	0.033327073
78	0x3d38551d	0.045003045
79	0x3cf7fe72	0.030272696
80	0x00000000	0.0
81	0x00000000	0.0
82	0x3dbe7f1e	0.093015894
83	0x3d5164ca	0.05112151
84	0x3b85bbd1	0.0040812274
85	0x3c34cae0	0.011034697
86	0x3bbd408d	0.0057755173
87	0x3d8e1012	0.06936659
88	0x00000000	0.0
89	0x3d79f61d	0.061025728
90	0x3c3c6390	0.011498347
91	0x00000000	0.0
92	0x00000000	0.0
93	0x00000000	0.0
94	0x00000000	0.0
95	0x3d5f15c7	0.054464128
96	0x3d07dc10	0.033168852
97	0x3c4aa991	0.012369529
98	0x00000000	0.0
99	0x00000000	0.0
100	0x00000000	0.0
101	0x00000000	0.0
102	0x3a0c1725	0.0005344025
103	0x3da68b03	0.08131983
104	0x3de0845d	0.10962746
105	0x3d4f6cc8	0.05064085
106	0x3cd035ab	0.025416216
107	0x3d80cc33	0.06288948
108	0x38b6c0be	8.714337e-05
109	0x3d9f2a44	0.077717334
110	0x00000000	0.0
111	0x3d509af1	0.050929014
112	0x3cab3926	0.020901274
113	0x3e3a0bb4	0.18168527
114	0x3dd75056	0.1051337
115	0x00000000	0.0
116	0x3a83b655	0.0010048846
117	0x3d0791d7	0.033098068
118	0x3d94bf5b	0.07263061
119	0x3de0f18b	0.10983571
120	0x3e1afd20	0.15135622
121	0x3dbe97f8	0.093063295
122	0x3db4efd0	0.08834803
123	0x3d083c59	0.033260677
124	0x3da8d11a	0.08243008
125	0x3e4bcb64	0.19901806
126	0x3b2a5370	0.0025989674
127	0x3dfa8d93	0.122340344
128	0x3b286306	0.0025693788
129	0x00000000	0.0
130	0x3c914af2	0.017735932
131	0x00000000	0.0
132	0x3cc2b0a7	0.023765875
133	0x3dbcd6eb	0.0922068
134	0x3daa7a01	0.08324052
135	0x3c1dc596	0.009629628
136	0x3c255977	0.010092131
137	0x00000000	0.0
138	0x3da47dfc	0.08031842
139	0x00000000	0.0
140	0x00000000	0.0
141	0x399bb307	0.0002969729
142	0x3bf6b79e	0.007529213
143	0x3db7921b	0.08963414
144	0x3df6be0a	0.12047966
145	0x3bc793c5	0.0060906135
146	0x3d620624	0.055181637
147	0x00000000	0.0
148	0x3e2e19e7	0.17002068
149	0x3c862bb1	0.016378256
150	0x3d1c38ea	0.038140215
151	0x3ccc1a29	0.024914818
152	0x00000000	0.0
153	0x3d1b6bd2	0.037944622
154	0x00000000	0.0
155	0x3da59d3f	0.08086633
156	0x00000000	0.0
157	0x00000000	0.0
158	0x3d92d588	0.07169634
159	0x3c938c4d	0.018011237
160	0x3c8e49d4	0.017369188
161	0x00000000	0.0
162	0x3e0073cb	0.12544172
163	0x3d0802c7	0.033205774
164	0x3dc04510	0.093881726
165	0x3db2a39b	0.087226115
166	0x3d728d56	0.05921682
167	0x3c8eca0e	0.017430332
168	0x3e324a0b	0.17411058
169	0x3e427908	0.18991482
170	0x00000000	0.0
171	0x00000000	0.0
172	0x3db3afd3	0.0877377
173	0x3a55df75	0.0008158603
174	0x00000000	0.0
175	0x3cc54e74	0.02408526
176	0x3bc898c0	0.006121725
177	0x3cacf470	0.02111265
178	0x3bb52fd0	0.0055293813
179	0x3bd0d539	0.0063730744
180	0x3d04eac1	0.03245044
181	0x3d067bba	0.03283284
182	0x3d9eeb56	0.077597305
183	0x3adbe8f7	0.0016777803
184	0x3d994cf8	0.07485384
185	0x00000000	0.0
186	0x3c90221f	0.017594395
187	0x3e1cae27	0.15300809
188	0x00000000	0.0
189	0x00000000	0.0
190	0x3c2e81b8	0.010651045
191	0x00000000	0.0
192	0x3a7f305e	0.00097346853
193	0x3d334412	0.04376609
194	0x00000000	0.0
195	0x3ceeb761	0.029140176
196	0x3e1ad248	0.15119278
197	0x3d22ff8c	0.03979449
198	0x3dab11d9	0.083530135
199	0x3de2d0ea	0.110750034
200	0x3cb182aa	0.02166875
201	0x3d7db9dc	0.061944827
202	0x3c3386d4	0.0109574385
203	0x3bb6c5b0	0.0055777654
204	0x00000000	0.0
205	0x00000000	0.0
206	0x3cbdc729	0.023166256
207	0x3d3775e4	0.044790164
208	0x3cd92d1c	0.026510768
209	0x3ca4e76c	0.020129882
210	0x00000000	0.0
211	0x3b97552e	0.0046183085
212	0x3d66376d	0.056205202
213	0x3e05fe78	0.13085353
214	0x00000000	0.0
215	0x3a01ca3f	0.00049510965
216	0x3b9e4b1c	0.004830731
217	0x3e19999b	0.15000002
218	0x3e24b3a8	0.16084158
219	0x00000000	0.0
220	0x3da400c8	0.080079615
221	0x00000000	0.0
222	0x3b932247	0.00449017
223	0x00000000	0.0
224	0x3c734c10	0.014849678
225	0x3bca3f39	0.0061720875
226	0x3d729fbe	0.059234373
227	0x3dfb5973	0.122729205
228	0x00000000	0.0
229	0x00000000	0.0
230	0x3b22b908	0.0024829526
231	0x00000000	0.0
232	0x3af231aa	0.0018477936
233	0x00000000	0.0
234	0x00000000	0.0
235	0x3e3c81cc	0.18408889
236	0x3d1ccddc	0.03828226
237	0x3d98f4ba	0.07468553
238	0x3cde8052	0.027160797
239	0x3e06d767	0.13168107
240	0x3c1e1192	0.009647744
241	0x3d2bb59a	0.041921236
242	0x3d15cbe4	0.0365714
243	0x3ddd45e1	0.10804344
244	0x00000000	0.0
245	0x3c9e5df2	0.019331906
246	0x3cd8c3fe	0.026460644
247	0x3c6d5e8d	0.014487875
248	0x3db4df8f	0.08831703
249	0x3acbf0a6	0.001555939
250	0x3c51d22a	0.012806455
251	0x3dfc9384	0.12332824
252	0x3be333e1	0.0069336747
253	0x00000000	0.0
254	0x3aa0cdad	0.0012268327
255	0x00000000	0.0
