assets/yamon.safetensors (safetensors, 112236 bytes, 5 tensors)

gen_embedding f4 [1, 192]
-0.5032237 0.887579 -1.0820388 -0.62673485 -1.1456221 -0.0537219 -0.84941053 -2.6121075
1.2929504 1.4305291 -1.017266 -1.247649 0.49033284 -1.3676065 0.25425994 -1.3957736
1.1843765 0.35802275 -1.152501 -0.5460072 -0.43464994 -0.3927839 -0.3294586 0.20849086
-1.3664353 -0.71728736 -1.6487168 2.5452847 -1.6865988 0.218802 -0.7333655 -1.248041
-0.20854399 0.79681313 -0.3496028 -2.2276635 -0.8250258 -0.475914 -0.8885556 1.0969417
1.2333392 -0.7985358 -1.3583974 -0.25428733 -0.4534004 -0.054173693 1.9772235 -2.1603634
1.3915569 0.041907202 2.6190884 0.031264063 3.2337508 0.07802229 -0.22689596 -0.65009457
-0.41137564 -1.3520392 -1.5091357 0.01625112 -1.3747941 0.56689805 -0.54224616 -2.3438778
-0.20218626 1.0112627 1.7163372 -1.8457423 -2.1217058 0.45759624 0.1926446 2.5828004
0.2643114 1.0685711 -3.1407902 0.6809912 -1.0179185 0.33401775 1.7397044 2.5314195
-0.09885704 0.3307053 0.5305149 1.1931859 0.39874607 -1.8033512 0.4550219 -2.620563
-0.81633955 -1.0192406 1.693432 1.7690947 -0.25033826 1.6610765 -0.37122896 -1.6786543
-0.47394568 1.1410499 1.0052867 -0.47383255 -0.69448686 -0.71097994 1.1203395 0.9493495
-0.96778643 -1.8132703 0.7668194 3.7783418 1.8809804 1.2850305 -0.86376035 -0.057103842
-3.1317792 -2.3019469 -0.32178223 0.3080332 -0.88214034 -0.095888734 -2.3253202 1.7441769
-0.0046461276 -0.28224444 1.4012446 -2.0147917 -1.0251083 -1.1959676 -1.186327 -0.4273861
-1.2608626 -2.0972283 1.1262537 -0.66141385 0.31060565 0.7892269 -2.8405364 2.2206333
0.95846117 -1.5922894 1.4195482 -1.3198776 2.7250197 -1.4860779 0.08759256 0.5392077
-0.06867126 -0.2921644 -0.0780699 2.013308 -0.56747216 -1.4742976 -2.7808192 -0.28886086
2.8272097 -0.53569835 0.80510145 0.12322792 -0.91852653 1.0148202 -0.53947324 0.365382
0.15964362 0.22439435 -0.83613086 -0.98685354 1.4489499 2.2869954 0.7009428 -0.77201694
-2.2282526 -0.3264212 -0.3293575 1.3100892 1.0374581 -0.9637013 0.22519432 0.48266602
-0.60460097 -0.75836164 -0.7094446 -0.5128061 -0.46496624 -0.99065375 0.5488162 1.0523016
-1.1467291 0.9114322 0.82184184 0.15903687 0.48346093 0.36206672 0.52843285 -1.7801994
00000000: 45d3 00bf 6138 633f 3f80 8abf b271 20bf
00000010: bfa3 92bf 7f0b 5cbd f872 59bf c52c 27c0
00000020: 667f a53f 941b b73f c635 82bf f6b2 9fbf
00000030: e80c fb3e bb0d afbf 5c2e 823e b6a8 b2bf
00000040: a699 973f c24e b73e 2785 93bf 21c7 0bbf
00000050: 708a debe f91a c9be ccae a8be a17e 553e
00000060: 5ae7 aebf 25a0 37bf 2709 d3bf f2e5 2240
00000070: 78e2 d7bf a20d 603e d7bd 3bbf cfbf 9fbf
00000080: 8e8c 55be f2fb 4b3f 23ff b2be 0a92 0ec0
00000090: e434 53bf 00ab f3be 6178 63bf 9668 8c3f
000000a0: 0fde 9d3f d86c 4cbf f7df adbf f331 82be
000000b0: 1924 e8be 3ce5 5dbd a915 fd3f 6543 0ac0
000000c0: 891e b23f e3a6 2b3d 259f 2740 bf0e 003d
000000d0: c6f5 4e40 26ca 9f3d 6a57 68be 996c 26bf
000000e0: d49f d2be 9f0f adbf 5c2b c1bf 1221 853c
000000f0: 41f9 afbf 3b20 113f a5d0 0abf 1802 16c0
00000100: ea09 4fbe 0e71 813f f0b0 db3f 4941 ecbf
00000110: 07ca 07c0 0e4a ea3e a044 453e 9a4c 2540
00000120: d353 873e f0c6 883f b502 49c0 7055 2e3f
00000130: 274b 82bf 6004 ab3e a2ae de3f c702 2240
00000140: 8f75 cabd 3552 a93e d3cf 073f 51ba 983f
00000150: 7228 cc3e 36d4 e6bf a1f8 e83e 4eb7 27c0
00000160: a1fb 50bf 7a76 82bf 61c2 d83f b271 e23f
00000170: 562c 80be 289e d43f b911 bebe 25de d6bf
00000180: 02a9 f2be ec0d 923f 3cad 803f 2e9a f2be
00000190: e4c9 31bf c802 36bf 4967 8f3f 9208 733f
000001a0: dac0 77bf 3e19 e8bf 474e 443f 5ad0 7140
000001b0: f7c3 f03f e17b a43f 661f 5dbf b8e5 69bd
000001c0: 126f 48c0 1953 13c0 a4c0 a4be 87b6 9d3e
000001d0: f3d3 61bf 5061 c4bd 0cd2 14c0 3041 df3f
000001e0: 8b3e 98bb 5882 90be fc5b b33f 59f2 00c0
000001f0: c036 83bf 7715 99bf 90d9 97bf 5ad2 dabe
00000200: f263 a1bf fd38 06c0 1529 903f 6b52 29bf
00000210: b407 9f3e c60a 4a3f 59cb 35c0 db1e 0e40
00000220: b65d 753f 24d0 cbbf c1b3 b53f c0f1 a8bf
00000230: b966 2e40 cd37 bebf ba63 b33d 8409 0a3f
00000240: 84a3 8cbd 9296 95be 1de3 9fbd 0ada 0040
00000250: db45 11bf c9b5 bcbf f1f8 31c0 92e5 93be
00000260: 01f1 3440 8723 09bf 211b 4e3f eb5e fc3d
00000270: 8e24 6bbf a1e5 813f eb1a 0abf 5913 bb3e
00000280: 9e79 233e a2c7 653e ac0c 56bf 6fa2 7cbf
00000290: 3177 b93f 225e 1240 fd70 333f e7a2 45bf
000002a0: b19b 0ec0 ae20 a7be 8ca1 a8be 01b1 a73f
000002b0: 6dcb 843f 21b5 76bf 5799 663e 0020 f73e
000002c0: 21c7 1abf fd23 42bf 299e 35bf 4347 03bf
000002d0: 0e10 eebe 7c9b 7dbf 387f 0c3f d2b1 863f
000002e0: 05c8 92bf 9f53 693f 3a64 523f 90da 223e
000002f0: 3188 f73e cf60 b93e 6047 073f 93dd e3bf

gen_prompt_feat f4 [1, 339, 80]
-3.5781863 -3.6467617 -2.936948 -2.5465875 -2.4862914 -2.6209512 -2.7952602 -3.1105955
-3.491793 -3.1109962 -3.256129 -2.8209202 -2.8796577 -2.7872813 -2.7791488 -2.773817
-2.4610288 -2.2861185 -2.3836865 -2.489516 -3.081759 -3.562351 -3.8692884 -4.1544003
-4.2860193 -5.1081424 -5.0611734 -4.985741 -4.6327024 -4.3434167 -4.2225647 -3.820458
-3.655848 -3.3119771 -2.8815782 -2.5525439 -2.5302255 -3.202597 -3.7335763 -3.882541
-4.2239485 -4.4973497 -4.645718 -4.9261985 -5.2057967 -5.1056194 -5.0866323 -4.9825454
-4.629809 -4.1564603 -4.253483 -4.5994563 -4.5606 -4.597205 -4.6728735 -4.5458775
-4.149421 -3.8974457 -4.1630316 -4.7233143 -5.612767 -6.1880436 -6.7560887 -7.1653223
-7.337804 -7.5614805 -7.261247 -6.9401045 -7.345208 -7.5760508 -6.863808 -6.4140077
-6.1077104 -6.1232667 -6.3193965 -6.562573 -6.5052404 -6.48191 -6.971217 -7.637556
-3.5613592 -2.4101164 -1.6772377 -1.4145552 -0.7992075 -1.69135 -1.0549848 -1.4291394
-2.0573971 -1.5008308 -2.5253017 -1.6299772 -1.4063336 -1.450953 -1.122813 -1.0816458
-0.6775564 -0.5757879 -0.82709527 -0.80753416 -2.1898065 -2.3043544 -2.2074094 -2.3731396
-2.3785083 -3.3029294 -3.2028584 -3.7585163 -3.0467815 -2.7158072 -2.810512 -2.3006349
-2.511611 -1.6606404 -1.373464 -1.3560946 -0.9269813 -1.5287057 -2.5351138 -2.5320957
-3.0051084 -3.3614182 -3.3295944 -3.744524 -4.3224087 -4.1023993 -3.8294418 -3.9861913
-3.6185756 -3.079969 -2.9447024 -3.4342563 -3.3411262 -3.5284228 -3.5374782 -3.454955
-3.087918 -2.672888 -2.9345872 -3.322564 -4.386768 -5.220167 -6.0466075 -6.3521447
-6.3787246 -6.176587 -5.8866186 -5.818715 -6.3323665 -6.588527 -5.5780196 -4.915359
-4.794688 -5.0213184 -5.229894 -5.448886 -5.431939 -5.3408327 -5.9147124 -6.6952934
-3.5495584 -1.3050377 -1.1191925 -1.6022649 -0.14049925 -1.2161528 -0.7402331 -0.74551123
-1.4008455 -0.83086085 -1.4623077 -1.2586682 -0.72004694 -0.76585037 -0.112037376 0.03898223
-0.49233273 -0.08942709 -0.16991204 -0.62361366 -1.9670982 -2.2246003 -1.7895771 -1.9913235
-2.0830133 -3.0392952 -2.8742526 -3.1961093 -2.583638 -2.2936451 -2.471465 -1.9600223
-1.9676105 -1.2684017 -1.0905657 -1.0325359 -0.47282782 -0.9078449 -1.1512077 -1.66995
-2.6499748 -2.3267503 -2.816908 -3.2059355 -3.03093 -3.2459624 -3.0241776 -3.120236
-3.1066446 -2.8060093 -2.2467892 -2.845526 -2.5541883 -3.2542815 -3.2919924 -3.205294
-2.9149077 -2.283725 -2.0915108 -2.2252946 -3.398995 -4.7770185 -5.7075543 -5.71803
-5.0219254 -4.661238 -4.78622 -4.9979362 -5.4181776 -5.301658 -4.298716 -3.6834254
-3.8002813 -4.035513 -4.293254 -4.5688076 -4.3605337 -4.2478385 -5.0317774 -6.0940027
-4.2015057 -0.9745647 -0.31364706 -2.079949 0.1472958 -0.5317844 -1.1366591 -0.24926922
-1.2494397 -0.2960901 -0.6905178 -0.44037545 0.10160196 -0.3264529 0.42072746 0.21260948
00000000: 0101 65c0 8b64 69c0 f5f6 3bc0 4afb 22c0
00000010: 661f 1fc0 aabd 27c0 8be5 32c0 ff13 47c0
00000020: 8979 5fc0 901a 47c0 6b64 50c0 f589 34c0
00000030: 504c 38c0 d162 32c0 93dd 31c0 3886 31c0
00000040: 7f81 1dc0 c44f 12c0 528e 18c0 3b54 1fc0
00000050: 8a3b 45c0 8ffd 63c0 6ca2 77c0 d9f0 84c0
00000060: 1227 89c0 e775 a3c0 22f5 a1c0 318b 9fc0
00000070: 193f 94c0 45fd 8ac0 401f 87c0 6282 74c0
00000080: 6af9 69c0 6ff7 53c0 c76b 38c0 e15c 23c0
00000090: 37ef 21c0 59f7 4cc0 eaf2 6ec0 8d7b 78c0
000000a0: 962a 87c0 4aea 8fc0 b9a9 94c0 6ba3 9dc0
000000b0: e395 a6c0 3c61 a3c0 b1c5 a2c0 0371 9fc0
000000c0: 6527 94c0 b901 85c0 881c 88c0 bf2e 93c0
000000d0: 6ff0 91c0 4e1c 93c0 2e88 95c0 d477 91c0
000000e0: 0fc8 84c0 c06f 79c0 8e37 85c0 6425 97c0
000000f0: ca9b b3c0 7404 c6c0 e131 d8c0 524a e5c0
00000100: 4acf eac0 a6f7 f1c0 235c e8c0 5615 dec0
00000110: f20b ebc0 026f f2c0 51a4 dbc0 8d3f cdc0
00000120: 5d72 c3c0 cdf1 c3c0 7f38 cac0 9900 d2c0
00000130: ee2a d0c0 cf6b cfc0 3614 dfc0 dc66 f4c0
00000140: 4fed 63c0 593f 1ac0 baaf d6bf 2510 b5bf
00000150: dd98 4cbf 287e d8bf be09 87bf 0aee b6bf
00000160: 65ac 03c0 391b c0bf 8b9e 21c0 18a3 d0bf
00000170: bd02 b4bf d4b8 b9bf 56b8 8fbf 5f73 8abf
00000180: 5674 2dbf d666 13bf 84bc 53bf 8fba 4ebf
00000190: ca25 0cc0 8b7a 13c0 3246 0dc0 85e1 17c0
000001a0: 7b39 18c0 3263 53c0 a2fb 4cc0 888b 70c0
000001b0: 78fe 42c0 c9cf 2dc0 6edf 33c0 9a3d 13c0
000001c0: 3cbe 20c0 dd8f d4bf abcd afbf 8294 adbf
000001d0: a54e 6dbf a1ac c3bf 4e3f 22c0 db0d 22c0
000001e0: b253 40c0 7a21 57c0 1318 55c0 48a6 6fc0
000001f0: 2c51 8ac0 db46 83c0 9315 75c0 c21d 7fc0
00000200: be96 67c0 361e 45c0 0176 3cc0 dbca 5bc0
00000210: 03d5 55c0 aed1 61c0 0b66 62c0 fc1d 5dc0
00000220: 73a0 45c0 9910 2bc0 47d0 3bc0 e3a4 54c0
00000230: 6760 8cc0 9c0b a7c0 cf7d c1c0 c544 cbc0
00000240: 831e ccc0 9aa6 c5c0 2e5f bcc0 ea32 bac0
00000250: bfa2 cac0 37d5 d2c0 237f b2c0 9f4a 9dc0
00000260: 166e 99c0 a4ae a0c0 4b5b a7c0 465d aec0
00000270: 72d2 adc0 1ae8 aac0 5345 bdc0 d83f d6c0
00000280: f72b 63c0 7a0b a7bf b341 8fbf 0417 cdbf
00000290: 09df 0fbe e5aa 9bbf eb7f 3dbf d3d9 3ebf
000002a0: e84e b3bf 4cb3 54bf e62c bbbf 0a1c a1bf
000002b0: ff54 38bf c50e 44bf da73 e5bd d5ab 1f3d
000002c0: 0913 fcbe 8d25 b7bd 6cfd 2dbe 25a5 1fbf
000002d0: e0c9 fbbf da5f 0ec0 dd10 e5bf b0e3 febf
000002e0: 1750 05c0 d083 42c0 c1f3 37c0 0e8d 4cc0
000002f0: 535a 25c0 15cb 12c0 7c2c 1ec0 03e2 fabf
00000300: a9da fbbf fd5a a2bf a897 8bbf 232a 84bf
00000310: 7d16 f2be 8668 68bf c65a 93bf ecc0 d5bf
00000320: 3099 29c0 7ae9 14c0 3848 34c0 0c2e 4dc0
00000330: c2fa 41c0 d9bd 4fc0 208c 41c0 f2b1 47c0
00000340: 44d3 46c0 a895 33c0 65cb 0fc0 191d 36c0
00000350: d277 23c0 2646 50c0 01b0 52c0 8923 4dc0
00000360: d98d 3ac0 8d28 12c0 50db 05c0 3a6b 0ec0
00000370: 2289 59c0 56dd 98c0 49a4 b6c0 1afa b6c0
00000380: 9db3 a0c0 dd28 95c0 b728 99c0 18ef 9fc0
00000390: b661 adc0 2fa7 a9c0 158f 89c0 3ebd 6bc0
000003a0: cf37 73c0 ec22 81c0 5662 89c0 ac33 92c0
000003b0: 7e89 8bc0 4bee 87c0 5204 a1c0 1202 c3c0
000003c0: bc72 86c0 127d 79bf 5996 a0be e21d 05c0
000003d0: b6d4 163e 0623 08bf 0c7e 91bf 6e40 7fbe
000003e0: a4ed 9fbf 1f99 97be c6c5 30bf e478 e1be
000003f0: b014 d03d d624 a7be 9769 d73e 4db6 593e

gen_prompt_token i4 [1, 169]
1462 1703 29 1941 609 4841 4402 6455
5403 5507 2219 5428 711 6546 2912 2124
2130 938 5021 46 3667 4097 4613 150
117 245 2324 1041 5241 1199 712 6258
6258 4832 4966 4751 125 859 1221 162
587 335 14 1477 1480 1505 1710 3645
1461 4218 1950 1946 1301 1457 5828 5506
4526 5591 390 2665 4311 6502 6502 5047
5776 2888 2953 5725 5157 5379 5457 5214
3027 4857 4938 4697 68 1524 2946 4164
1735 2834 2509 6379 4915 4320 6537 4358
4565 2217 2112 63 4769 548 737 29
5644 5644 3648 2213 2327 4997 711 546
2493 1503 2076 73 161 161 1052 296
2437 2031 3648 5835 3651 1704 1959 1725
1833 57 4517 2377 6543 3367 6015 4424
2230 3462 4041 5182 5100 1277 1763 734
2246 6455 6374 2058 1272 2255 4769 5101
4967 4967 4400 5373 6377 2493 2189 5837
2330 1524 1542 2349 3008 5192 3747 73
148 2094 72 242 161 269 2445 1951
1951
00000000: b605 0000 a706 0000 1d00 0000 9507 0000
00000010: 6102 0000 e912 0000 3211 0000 3719 0000
00000020: 1b15 0000 8315 0000 ab08 0000 3415 0000
00000030: c702 0000 9219 0000 600b 0000 4c08 0000
00000040: 5208 0000 aa03 0000 9d13 0000 2e00 0000
00000050: 530e 0000 0110 0000 0512 0000 9600 0000
00000060: 7500 0000 f500 0000 1409 0000 1104 0000
00000070: 7914 0000 af04 0000 c802 0000 7218 0000
00000080: 7218 0000 e012 0000 6613 0000 8f12 0000
00000090: 7d00 0000 5b03 0000 c504 0000 a200 0000
000000a0: 4b02 0000 4f01 0000 0e00 0000 c505 0000
000000b0: c805 0000 e105 0000 ae06 0000 3d0e 0000
000000c0: b505 0000 7a10 0000 9e07 0000 9a07 0000
000000d0: 1505 0000 b105 0000 c416 0000 8215 0000
000000e0: ae11 0000 d715 0000 8601 0000 690a 0000
000000f0: d710 0000 6619 0000 6619 0000 b713 0000
00000100: 9016 0000 480b 0000 890b 0000 5d16 0000
00000110: 2514 0000 0315 0000 5115 0000 5e14 0000
00000120: d30b 0000 f912 0000 4a13 0000 5912 0000
00000130: 4400 0000 f405 0000 820b 0000 4410 0000
00000140: c706 0000 120b 0000 cd09 0000 eb18 0000
00000150: 3313 0000 e010 0000 8919 0000 0611 0000
00000160: d511 0000 a908 0000 4008 0000 3f00 0000
00000170: a112 0000 2402 0000 e102 0000 1d00 0000
00000180: 0c16 0000 0c16 0000 400e 0000 a508 0000
00000190: 1709 0000 8513 0000 c702 0000 2202 0000
000001a0: bd09 0000 df05 0000 1c08 0000 4900 0000
000001b0: a100 0000 a100 0000 1c04 0000 2801 0000
000001c0: 8509 0000 ef07 0000 400e 0000 cb16 0000
000001d0: 430e 0000 a806 0000 a707 0000 bd06 0000
000001e0: 2907 0000 3900 0000 a511 0000 4909 0000
000001f0: 8f19 0000 270d 0000 7f17 0000 4811 0000
00000200: b608 0000 860d 0000 c90f 0000 3e14 0000
00000210: ec13 0000 fd04 0000 e306 0000 de02 0000
00000220: c608 0000 3719 0000 e618 0000 0a08 0000
00000230: f804 0000 cf08 0000 a112 0000 ed13 0000
00000240: 6713 0000 6713 0000 3011 0000 fd14 0000
00000250: e918 0000 bd09 0000 8d08 0000 cd16 0000
00000260: 1a09 0000 f405 0000 0606 0000 2d09 0000
00000270: c00b 0000 4814 0000 a30e 0000 4900 0000
00000280: 9400 0000 2e08 0000 4800 0000 f200 0000
00000290: a100 0000 0d01 0000 8d09 0000 9f07 0000
000002a0: 9f07 0000

t3_cond_prompt_speech_tokens i4 [1, 170]
1462 1703 29 1941 609 4841 4402 6455
5403 5507 2219 5428 711 6546 2912 2124
2130 938 5021 46 3667 4097 4613 150
117 245 2324 1041 5241 1199 712 6258
6258 4832 4966 4751 125 859 1221 162
587 335 14 1477 1480 1505 1710 3645
1461 4218 1950 1946 1301 1457 5828 5506
4526 5591 390 2665 4311 6502 6502 5047
5776 2888 2953 5725 5157 5379 5457 5214
3027 4857 4938 4697 68 1524 2946 4164
1735 2834 2509 6379 4915 4320 6537 4358
4565 2217 2112 63 4769 548 737 29
5644 5644 3648 2213 2327 4997 711 546
2493 1503 2076 73 161 161 1052 296
2437 2031 3648 5835 3651 1704 1959 1725
1833 57 4517 2377 6543 3367 6015 4424
2230 3462 4041 5182 5100 1277 1763 734
2246 6455 6374 2058 1272 2255 4769 5101
4967 4967 4400 5373 6377 2493 2189 5837
2330 1524 1542 2349 3008 5192 3747 73
148 2094 72 242 161 269 2445 1951
1951 5838
00000000: b605 0000 a706 0000 1d00 0000 9507 0000
00000010: 6102 0000 e912 0000 3211 0000 3719 0000
00000020: 1b15 0000 8315 0000 ab08 0000 3415 0000
00000030: c702 0000 9219 0000 600b 0000 4c08 0000
00000040: 5208 0000 aa03 0000 9d13 0000 2e00 0000
00000050: 530e 0000 0110 0000 0512 0000 9600 0000
00000060: 7500 0000 f500 0000 1409 0000 1104 0000
00000070: 7914 0000 af04 0000 c802 0000 7218 0000
00000080: 7218 0000 e012 0000 6613 0000 8f12 0000
00000090: 7d00 0000 5b03 0000 c504 0000 a200 0000
000000a0: 4b02 0000 4f01 0000 0e00 0000 c505 0000
000000b0: c805 0000 e105 0000 ae06 0000 3d0e 0000
000000c0: b505 0000 7a10 0000 9e07 0000 9a07 0000
000000d0: 1505 0000 b105 0000 c416 0000 8215 0000
000000e0: ae11 0000 d715 0000 8601 0000 690a 0000
000000f0: d710 0000 6619 0000 6619 0000 b713 0000
00000100: 9016 0000 480b 0000 890b 0000 5d16 0000
00000110: 2514 0000 0315 0000 5115 0000 5e14 0000
00000120: d30b 0000 f912 0000 4a13 0000 5912 0000
00000130: 4400 0000 f405 0000 820b 0000 4410 0000
00000140: c706 0000 120b 0000 cd09 0000 eb18 0000
00000150: 3313 0000 e010 0000 8919 0000 0611 0000
00000160: d511 0000 a908 0000 4008 0000 3f00 0000
00000170: a112 0000 2402 0000 e102 0000 1d00 0000
00000180: 0c16 0000 0c16 0000 400e 0000 a508 0000
00000190: 1709 0000 8513 0000 c702 0000 2202 0000
000001a0: bd09 0000 df05 0000 1c08 0000 4900 0000
000001b0: a100 0000 a100 0000 1c04 0000 2801 0000
000001c0: 8509 0000 ef07 0000 400e 0000 cb16 0000
000001d0: 430e 0000 a806 0000 a707 0000 bd06 0000
000001e0: 2907 0000 3900 0000 a511 0000 4909 0000
000001f0: 8f19 0000 270d 0000 7f17 0000 4811 0000
00000200: b608 0000 860d 0000 c90f 0000 3e14 0000
00000210: ec13 0000 fd04 0000 e306 0000 de02 0000
00000220: c608 0000 3719 0000 e618 0000 0a08 0000
00000230: f804 0000 cf08 0000 a112 0000 ed13 0000
00000240: 6713 0000 6713 0000 3011 0000 fd14 0000
00000250: e918 0000 bd09 0000 8d08 0000 cd16 0000
00000260: 1a09 0000 f405 0000 0606 0000 2d09 0000
00000270: c00b 0000 4814 0000 a30e 0000 4900 0000
00000280: 9400 0000 2e08 0000 4800 0000 f200 0000
00000290: a100 0000 0d01 0000 8d09 0000 9f07 0000
000002a0: 9f07 0000 ce16 0000

t3_speaker_emb f4 [1, 256]
0.0 0.0 0.18744734 0.030558998 0.0 0.0073710503 0.09260178 0.0030795834
0.11578722 0.0 0.11559291 0.07813889 0.05707251 0.0 0.036542173 0.0
0.0065058377 0.0 0.005381094 0.035197675 0.069413744 0.05854228 0.0 0.068226136
0.0 0.022152456 0.0 0.070854716 0.0 0.0 0.05385079 0.030445974
0.0 0.0 0.0047388673 0.10316858 0.041739315 0.04598313 0.069354214 0.00599099
0.0 0.06096519 0.011100467 0.030540444 0.10068407 0.0 0.02641106 0.05635304
0.031840123 0.0 0.0 0.15905932 0.0 0.0 0.0 0.00847778
0.00391938 0.10021451 0.0 0.042024188 0.0 0.0 0.042986326 0.012531766
0.00018905406 0.0050302865 0.14078298 0.052725848 0.0 0.0 0.020363117 0.08613417
0.0 0.094604194 0.042393792 0.0 0.0 0.10292338 0.10609704 0.16161484
0.0 0.0 0.13466781 0.13581891 0.0 0.0 0.0 0.07275226
0.0 0.045444198 0.09320008 0.0075802426 0.0 0.0 0.034249526 0.06354256
0.023895316 0.033115335 0.0 0.0 0.0 0.0 0.06441335 0.07731653
0.018659411 0.024123162 0.06485328 0.032177605 0.0 0.2182963 0.0 0.025867859
0.0 0.1184523 0.0081795715 0.0 0.12606274 0.039643727 0.06653193 0.022518298
0.007283997 0.2006347 0.10220862 0.0 0.08529747 0.09377153 0.015247701 0.12556712
0.0568251 0.0 0.0 0.0 0.09446775 0.11294748 0.14767182 0.034721773
0.027684102 0.0 0.030744255 0.00035772123 0.0 0.008830543 0.036355484 0.055648897
0.11163013 0.14783044 0.07076205 0.0 0.2116768 0.05191278 0.10132664 0.11343797
0.0 0.014631146 0.012279447 0.13510211 0.0 0.0 0.077404074 0.016366046
0.0017935076 0.0 0.009056459 0.026666023 0.0 0.1371895 0.01216376 0.010008821
0.1967995 0.048627786 0.0 0.0 0.021383096 0.0 0.0 0.07261831
0.0590428 0.08459237 0.10073246 0.004651239 0.08426171 0.010210008 0.014020407 0.15355293
0.0023007377 0.0 0.011845106 0.031149767 0.0 0.0 0.009768164 0.022526305
0.010074576 0.023571197 0.0 0.0 0.042858582 0.053330924 0.0 0.0023880664
0.092223555 0.0 0.0 0.0 0.0 0.010741207 0.0 0.12981759
0.028509311 0.0 0.0 0.0 0.022043057 0.062031917 0.0 0.0
0.03901312 0.028781623 0.11342611 0.0 0.063726515 0.0 0.0 0.0
0.0 0.016327228 0.05491502 0.013260502 0.0 0.0 0.009591571 0.0
0.10203187 0.0 0.0 0.015108984 0.090528935 0.08338218 0.11966189 0.09375812
0.10620764 0.15980996 0.0047071567 0.07807719 0.0 0.10179335 0.006438605 0.0
0.10361094 0.025518086 0.0 0.032334458 0.021504462 0.0 0.012008945 0.0
00000000: 0000 0000 0000 0000 32f2 3f3e dd56 fa3c
00000010: 0000 0000 da88 f13b 01a6 bd3d d6d2 493b
00000020: da21 ed3d 0000 0000 fabb ec3d 4807 a03d
00000030: ddc4 693d 0000 0000 3fad 153d 0000 0000
00000040: ec2e d53b 0000 0000 e353 b03b 702b 103d
00000050: cb28 8e3d 08ca 6f3d 0000 0000 25ba 8b3d
00000060: 0000 0000 1179 b53c 0000 0000 471c 913d
00000070: 0000 0000 0000 0000 a592 5c3d d669 f93c
00000080: 0000 0000 0000 0000 8048 9b3b 0c4a d33d
00000090: d8f6 2a3d ce58 3c3d 9509 8e3d 1150 c43b
000000a0: 0000 0000 a3b6 793d bcde 353c f42f fa3c
000000b0: 7333 ce3d 0000 0000 025c d83c 72d2 663d
000000c0: ca6a 023d 0000 0000 0000 0000 72e0 223e
000000d0: 0000 0000 0000 0000 0000 0000 63e6 0a3c
000000e0: 246e 803b 443d cd3d 0000 0000 8e21 2c3d
000000f0: 0000 0000 0000 0000 6e12 303d 0952 4d3c
00000100: d03c 4639 1ad5 a43b 6a29 103e 0ff7 573d
00000110: 0000 0000 0000 0000 8dd0 a63c 1d67 b03d
00000120: 0000 0000 d8bf c13d 1da5 2d3d 0000 0000
00000130: 0000 0000 7ec9 d23d 6849 d93d 5c7e 253e
00000140: 0000 0000 0000 0000 5ce6 093e 1d14 0b3e
00000150: 0000 0000 0000 0000 0000 0000 23ff 943d
00000160: 0000 0000 b223 3a3d afdf be3d af63 f83b
00000170: 0000 0000 0000 0000 3b49 0c3d 9a22 823d
00000180: 1cc0 c33c f2a3 073d 0000 0000 0000 0000
00000190: 0000 0000 0000 0000 25eb 833d 2158 9e3d
000001a0: 9fdb 983c f09d c53c ccd1 843d aacc 033d
000001b0: 0000 0000 1189 5f3e 0000 0000 d5e8 d33c
000001c0: 0000 0000 1f97 f23d 9c03 063c 0000 0000
000001d0: 9716 013e 7661 223d e441 883d 4b78 b83c
000001e0: 98ae ee3b 2f73 4d3e c152 d13d 0000 0000
000001f0: 71b0 ae3d 4a0b c03d 7ed1 793c ab94 003e
00000200: 70c1 683d 0000 0000 0000 0000 0000 0000
00000210: 4f78 c13d 0251 e73d 4837 173e 6b38 0e3d
00000220: c5c9 e23c 0000 0000 60db fb3c 888c bb39
00000230: 0000 0000 fbad 103c 7de9 143d 19f0 633d
00000240: 569e e43d dd60 173e b2eb 903d 0000 0000
00000250: cec1 583e 7fa2 543d 5784 cf3d 2b52 e83d
00000260: 0000 0000 79b7 6f3c bc2f 493c 3558 0a3e
00000270: 0000 0000 0000 0000 0786 9e3d 1612 863c
00000280: 2114 eb3a 0000 0000 8b61 143c b472 da3c
00000290: 0000 0000 677b 0c3e 824a 473c 0afc 233c
000002a0: cf85 493e ee2d 473d 0000 0000 0000 0000
000002b0: 9a2b af3c 0000 0000 0000 0000 e9b8 943d
000002c0: ddd6 713d c43e ad3d d24c ce3d 6c69 983b
000002d0: 6791 ac3d e147 273c d9b5 653c fb3c 1d3e
000002e0: f9c7 163b 0000 0000 fa11 423c cc2d ff3c
000002f0: 0000 0000 0000 0000 a60a 203c 1689 b83c
00000300: d60f 253c 6218 c13c 0000 0000 0000 0000
00000310: 7b8c 2f3d 8771 5a3d 0000 0000 1b81 1c3b
00000320: b4df bc3d 0000 0000 0000 0000 0000 0000
00000330: 0000 0000 e3fb 2f3c 0000 0000 e7ee 043e
00000340: 5c8c e93c 0000 0000 0000 0000 0000 0000
00000350: a493 b43c 2e15 7e3d 0000 0000 0000 0000
00000360: 39cc 1f3d 70c7 eb3c f34b e83d 0000 0000
00000370: 0c83 823d 0000 0000 0000 0000 0000 0000
00000380: 0000 0000 aec0 853c 92ee 603d 9442 593c
00000390: 0000 0000 0000 0000 f725 1d3c 0000 0000
000003a0: 16f6 d03d 0000 0000 0000 0000 ac8b 773c
000003b0: 3c67 b93d 47c4 aa3d 4b11 f53d 4204 c03d
000003c0: 6483 d93d 39a5 233e 7e3e 9a3b efe6 9f3d
000003d0: 0000 0000 0879 d03d effa d23b 0000 0000
000003e0: f931 d43d 4e0b d13c 0000 0000 2371 043d
000003f0: 202a b03c 0000 0000 2bc1 443c 0000 0000
